Project_2-Continous Control/checkpoint_actor.pth (torch_old, 52781 bytes, 6 tensors)

fc1.weight f4 [96, 33]
0	0x3ea74079	0.32666376
1	0x3eff9cf9	0.49924448
2	0xbc234e0f	-0.009967341
3	0xbde20311	-0.11035741
4	0xbe486f00	-0.19573593
5	0x3f6009dd	0.8751505
6	0xbe3d6226	-0.18494472
7	0x3f04ac69	0.5182558
8	0x3e00321c	0.12519115
9	0x3c7a84cb	0.015290449
10	0xbe3aedc7	-0.18254767
11	0x3dcab21a	0.098972514
12	0x3dbe78e3	0.09300401
13	0xbd265d4e	-0.040616326
14	0x3fa059bb	1.2527384
15	0xbf09af94	-0.53783536
16	0x3d781ed3	0.06057627
17	0xbe24f909	-0.16110624
18	0x3be6bdcd	0.007041669
19	0xbe7baed5	-0.24578412
20	0x3dd5f95c	0.10447952
21	0x3e380cbf	0.17973612
22	0x3ec1565a	0.37761194
23	0xbe585ed6	-0.21129927
24	0x3eaaf5b9	0.33390597
25	0xbf19ca3d	-0.60074216
26	0x3d0948a4	0.03351654
27	0x3eb64e18	0.35606456
28	0xbd77a2e9	-0.060458098
29	0xbd232ac1	-0.039835695
30	0xbee29768	-0.4425614
31	0xbd21d538	-0.039509982
32	0xbf8468ce	-1.0344484
33	0xbf1c980e	-0.6116952
34	0x3e65f760	0.22457647
35	0x3e90e192	0.28297096
36	0xbe5f1bf4	-0.21788007
37	0xbe8c676b	-0.27422652
38	0x3bc697b2	0.006060564
39	0xbe53d043	-0.20684914
40	0x3e1c6651	0.15273406
41	0x3ecf55d3	0.40495166
42	0xbf0d721c	-0.5525224
43	0xbd9004f5	-0.070321955
44	0x3da4bbb3	0.08043613
45	0xbd7906ae	-0.060797386
46	0xbdb7454f	-0.089487664
47	0x3dda699a	0.10664673
48	0xbf195075	-0.5988839
49	0xbecabe25	-0.39598194
50	0x3dc7296d	0.09724698
51	0x3e19a676	0.15004906
52	0x3d98b61c	0.074566096
53	0xbd8cfa47	-0.06883674
54	0x3ea50515	0.3223044
55	0x3e242576	0.16029915
56	0x3ab430b4	0.0013747425
57	0xbe197010	-0.14984155
58	0xbe972496	-0.295201
59	0x3f271e7d	0.65280896
60	0x3ed1ce0e	0.4097752
61	0x3e42518a	0.18976417
62	0xbc4c2ef0	-0.012462363
63	0xbed7c59c	-0.4214295
64	0x3da533d4	0.08066526
65	0xc011c89f	-2.27787
66	0xbf23968c	-0.6390159
67	0x3f05c034	0.52246404
68	0xbee4eadd	-0.44710436
69	0xbeaedff4	-0.34155238
70	0xbeee09e9	-0.46491936
71	0xbfc15aaf	-1.51058
72	0xbe1ed239	-0.15509881
73	0x3f758a08	0.95913744
74	0xbe649d65	-0.22325666
75	0x3ead013a	0.33789998
76	0xbe7ea054	-0.24865848
77	0x3ea91967	0.33027193
78	0xbe9ee3a9	-0.31033066
79	0x3f3cf8d8	0.73817205
80	0x3e26a9c5	0.162757
81	0x3eb868c3	0.36017427
82	0xbe9e6700	-0.30937958
83	0xbe7fcc81	-0.24980356
84	0xbeaac5fc	-0.33354175
85	0x3bd237f3	0.006415361
86	0x3f37a18c	0.71730876
87	0x3ea5037e	0.32229227
88	0xbf1b6cf1	-0.60713106
89	0x3f2e5fbb	0.68114823
90	0x3cbb9e3f	0.022902606
91	0x3e084de1	0.13310958
92	0xbe8442f5	-0.25832334
93	0x3e894a3b	0.26814446
94	0xbecdc314	-0.40187895
95	0xbd985ed0	-0.07439959
96	0xbeaa6a0d	-0.33284035
97	0xbb4a41e0	-0.0030862018
98	0x3ec48a40	0.38386726
99	0xbde72ff7	-0.112884454
100	0xbe82639f	-0.2546663
101	0x3ec04a14	0.37556517
102	0x3e6ceacd	0.23136444
103	0xbdb8941e	-0.09012626
104	0x3f584744	0.8448374
105	0xbdcb2c0e	-0.09920512
106	0x3eba4461	0.36380294
107	0xbe212b82	-0.15739253
108	0xbc413010	-0.011791244
109	0xbcd9d0e4	-0.026588865
110	0x3dcf93e7	0.10135632
111	0x3d35bb7f	0.044368263
112	0x3e588631	0.2114494
113	0x3f218881	0.63098913
114	0xbe0b7ab6	-0.1362103
115	0x3e53674b	0.20644872
116	0x3c804509	0.015657919
117	0x3ccfa1e0	0.025345743
118	0xbdadb4bf	-0.0848174
119	0x3d1bbf43	0.0380242
120	0x3e281873	0.16415577
121	0xbb0bd4a3	-0.0021336458
122	0x3dfd9a03	0.12382891
123	0x3e8ff7ca	0.28118736
124	0x3ec85227	0.39125177
125	0x3dcdfa07	0.100574546
126	0x3ddb7262	0.10715176
127	0x3f235342	0.63798916
128	0xbd851e24	-0.064998895
129	0xbdf4cf2b	-0.11953577
130	0xbd4f5357	-0.05061659
131	0xc00c8f09	-2.1962302
132	0xbdaa35e5	-0.08311061
133	0x3ec22837	0.37921306
134	0x3d32e76a	0.043677725
135	0xbe47210a	-0.19446197
136	0x3c338459	0.010956847
137	0xbef0bf9b	-0.47021183
138	0xbdea2d24	-0.11434391
139	0x3e1f2b91	0.15543963
140	0x3dc58f37	0.09646457
141	0xbe32c425	-0.17457636
142	0x3caa548e	0.020792272
143	0xbaf7691e	-0.0018875932
144	0xbc26842d	-0.010163349
145	0x3f61af67	0.8815827
146	0xbec95493	-0.39322338
147	0xbf090e9e	-0.5353793
148	0x3e0f9788	0.14022648
149	0x3e255c3c	0.16148466
150	0xbef17851	-0.47162107
151	0x3e5c777c	0.21529955
152	0x3e3c7076	0.18402275
153	0x3d81fa82	0.06346609
154	0x3d5755e7	0.052572157
155	0x3ecbb231	0.39784387
156	0x3c6cc1c7	0.014450497
157	0xbe553e2a	-0.20824495
158	0xbf1b087b	-0.60559815
159	0x3ea24d9b	0.31699833
160	0x3ed390a0	0.41321278
161	0xbd900d6a	-0.070338085
162	0xbe985f53	-0.29760227
163	0xbd5a5342	-0.053302057
164	0xbee94e55	-0.45567575
165	0x3efa5972	0.48896366
166	0xbdc1e94e	-0.094683275
167	0xbe08649d	-0.13319631
168	0xbe11c7e4	-0.14236408
169	0x3f2a09cd	0.66421205
170	0x3ea9bf08	0.33153558
171	0x3e893a40	0.26802254
172	0x3db680da	0.08911295
173	0x3fa125ce	1.2589662
174	0x3d7d5d5a	0.061856605
175	0x3ba7b168	0.005117584
176	0x3e135b49	0.14390291
177	0x3e032cbb	0.12810032
178	0xbf295197	-0.6614012
179	0x3ee875ea	0.4540246
180	0x3eb990ac	0.36243188
181	0xbe9e80b4	-0.30957568
182	0x3d933770	0.07188308
183	0xbea82f2b	-0.32848486
184	0xbeb25b01	-0.34835055
185	0xbe6af8ee	-0.22946522
186	0xbebbbdbe	-0.366682
187	0xbe8dd3b8	-0.2770059
188	0xbe8d4f27	-0.2759945
189	0xbd284589	-0.04108194
190	0xbc358add	-0.011080471
191	0x3efbc742	0.4917546
192	0x3d440669	0.047857676
193	0xbe9b14a4	-0.30289185
194	0xbd42275a	-0.04740081
195	0xbe2d819f	-0.16943978
196	0x3c8c2ae8	0.017110303
197	0x3fe966bc	1.8234477
198	0xbe207dc9	-0.15672983
199	0x3e9b765e	0.30363744
200	0xbeed0180	-0.46290207
201	0xbe9ec02c	-0.3100599
202	0xbea7b67b	-0.3275641
203	0xbea91f42	-0.3303166
204	0xbd07b7a7	-0.03313413
205	0xbd71a4e3	-0.05899514
206	0xbd9bb506	-0.07602887
207	0xbc71408b	-0.014724861
208	0x3bc4f33d	0.0060104416
209	0x3d82884e	0.06373654
210	0x3e00baf5	0.12571318
211	0x3f0da515	0.5533002
212	0xbc838e0f	-0.01605895
213	0x3f107991	0.56435496
214	0xbe006f02	-0.12542346
215	0x3cfd7ed1	0.03094426
216	0xbe70dc32	-0.23521498
217	0xbb20c3e2	-0.0024530818
218	0xbd84df6f	-0.06487929
219	0xbc8607d8	-0.016361162
220	0x3d5bdae5	0.05367555
221	0x3e3c76a6	0.18404636
222	0xbb23f3e8	-0.0025017206
223	0x3eaf9392	0.34292275
224	0xbf1cde6c	-0.6127689
225	0x3ea36153	0.3191019
226	0x3c8b4353	0.016999876
227	0xbd338b12	-0.0438338
228	0xbeb1a655	-0.34697214
229	0x3d99860e	0.07496272
230	0xc082d916	-4.0889997
231	0x3ef4ce12	0.4781347
232	0xbe4ca4ab	-0.19984691
233	0xbf373d50	-0.7157793
234	0xbd9c376a	-0.07627757
235	0xbde800e9	-0.113282986
236	0x3d1a51f0	0.037675798
237	0xbe35bfb5	-0.17748912
238	0x3d9335ab	0.07187971
239	0xbeedddc2	-0.4645825
240	0x3e819f11	0.2531667
241	0x3e390391	0.18067767
242	0x3d9ecfa5	0.07754449
243	0x3c16b672	0.009198772
244	0x3c83f22d	0.01610669
245	0x3f1383ae	0.576228
246	0x3f34b1bf	0.7058372
247	0x3d6b6f5d	0.05747925
248	0x3dc168d1	0.0944382
249	0xbe50927a	-0.20368376
250	0xbce07fdf	-0.027404724
251	0x3e653107	0.22381984
252	0xbe0ecde8	-0.13945735
253	0xbe8fe470	-0.2810397
254	0xbcbd9090	-0.023140222
255	0x3e00358e	0.1252043

fc1.bias f4 [96]
0	0xbe9a1c9d	-0.30099955
1	0xbe96b53c	-0.29435146
2	0xbea53872	-0.32269627
3	0xbe546408	-0.20741284
4	0xbed568a1	-0.41681388
5	0xbe1ba73e	-0.15200517
6	0xbf0bba3b	-0.5458104
7	0xbebc38b4	-0.3676201
8	0xbf528088	-0.82227373
9	0xbdd5527e	-0.10416125
10	0xbf1c6dd5	-0.6110509
11	0xbf33a872	-0.701789
12	0x3e899776	0.26873368
13	0xbf2063a4	-0.6265204
14	0xbde206a1	-0.110364206
15	0xbefdf7b5	-0.49603048
16	0xbf19f1f6	-0.6013483
17	0xbd88e066	-0.066834256
18	0xbf13521f	-0.5754718
19	0xbe74e69e	-0.23916098
20	0xbe2a5b26	-0.16636333
21	0xbe4bfb39	-0.19920053
22	0xbe8a626e	-0.2702822
23	0x3e5262f5	0.20545562
24	0xbeb91b14	-0.3615347
25	0xbf1024ac	-0.56305957
26	0xbe6e7b38	-0.23289192
27	0xbec2b701	-0.38030246
28	0xbe4f3c57	-0.20237862
29	0xbf4f357f	-0.80941004
30	0xbf666468	-0.8999696
31	0xbedc3025	-0.4300548
32	0xbf09a75e	-0.5377101
33	0xbf08e698	-0.5347686
34	0xbf3bc051	-0.73340327
35	0xbef88aad	-0.485433
36	0xbd98e1b0	-0.074649215
37	0xbe4fcdd5	-0.20293362
38	0xbf56c1f6	-0.8388971
39	0xbf07e0af	-0.53077215
40	0xbe9ca0ac	-0.30591333
41	0x3e6d3f29	0.23168625
42	0xbf381816	-0.7191175
43	0xbf90a93e	-1.1301649
44	0xbf198d8a	-0.59981596
45	0xbe7cb20b	-0.24677293
46	0xbf051e78	-0.51999617
47	0xbf23595c	-0.63808227
48	0xbf03ec4b	-0.5153243
49	0xbf28fb17	-0.6600813
50	0xbef505cf	-0.47855994
51	0xbe185780	-0.14877129
52	0xbf8867f1	-1.065672
53	0xbe2d0d2b	-0.16899554
54	0xbf34a47d	-0.7056349
55	0xbf1a9cc0	-0.6039543
56	0xbc5277b1	-0.0128459195
57	0xbeb19687	-0.34685156
58	0xbd9be2fa	-0.07611652
59	0xbf14740b	-0.5798957
60	0xbeeb4e9a	-0.45958406
61	0xbf2d7cbe	-0.67768466
62	0x3e565f91	0.20934893
63	0xbf14581e	-0.57946956
64	0xbf4ab0a3	-0.79175776
65	0xbf396222	-0.72415364
66	0xbebd3ede	-0.36962026
67	0xbeba2875	-0.3635899
68	0xbe83e7e1	-0.25762847
69	0x3da3a785	0.07990936
70	0x3cd94cad	0.02652582
71	0xbece754f	-0.40323874
72	0xbe88d501	-0.2672501
73	0xbec47a1f	-0.3837442
74	0xbe9d14ab	-0.3067983
75	0xbec224f1	-0.3791881
76	0xbed5a23c	-0.41725338
77	0xbe5b097e	-0.2139034
78	0xbcf9b31b	-0.030480912
79	0x3e302090	0.17199922
80	0x3e602fef	0.21893285
81	0xbeaee153	-0.34156284
82	0xbf11c2b7	-0.56937736
83	0xbdada4a1	-0.08478666
84	0xbf1d85b1	-0.6153212
85	0x3e4fe3da	0.20301762
86	0xbf26c8de	-0.6515025
87	0xbe88b7ae	-0.26702636
88	0xbdf37da0	-0.118891954
89	0x3d32ef52	0.043685265
90	0xbec6c6d7	-0.38823578
91	0xbef34b3c	-0.47518337
92	0xbef9ff9c	-0.48827827
93	0xbe0a5dda	-0.13512364
94	0x3e2a83cf	0.16651843
95	0xbeca86f3	-0.39556083

fc2.weight f4 [96, 96]
0	0x3db6df56	0.08929317
1	0xbe67d570	-0.22640014
2	0xbf116b52	-0.5680438
3	0x3e8b0ffe	0.2716064
4	0x3f2596d3	0.64683264
5	0xbe065388	-0.13117802
6	0xbe7f1d0a	-0.24913421
7	0xbf089202	-0.5334779
8	0xbc64c4ef	-0.013962968
9	0xbee48a82	-0.44636923
10	0x3edb9a23	0.42891034
11	0x3df449fb	0.11928173
12	0x3f0899eb	0.5335986
13	0xbea946cd	-0.3306183
14	0xbf7e8ab7	-0.9943041
15	0x3d4e0192	0.050294466
16	0x3cb83e7a	0.022490729
17	0xbd76f619	-0.06029329
18	0xbd9cbe06	-0.076534316
19	0xbc3cca6f	-0.011522873
20	0x3e67c773	0.22634678
21	0xbd72abd9	-0.059245918
22	0xbe87fcea	-0.26560146
23	0x3deedf79	0.11663718
24	0x3decd01a	0.1156313
25	0xbe3a51f1	-0.1819532
26	0xbf18c4ae	-0.5967511
27	0xbe998cf6	-0.29990357
28	0x3de389a0	0.11110234
29	0x3dc67a1b	0.096912585
30	0xbc350c53	-0.011050302
31	0x3f0c177d	0.5472334
32	0xbe9ab0b2	-0.30212933
33	0x3e929425	0.2862865
34	0x3ed1730b	0.40908083
35	0x3eaee5cf	0.34159705
36	0xbeb37e68	-0.35057378
37	0xbe546a83	-0.20743756
38	0xbc2c964b	-0.0105338795
39	0xbf290959	-0.6602989
40	0x3ebe7c08	0.37204003
41	0xbea75f6f	-0.32689998
42	0xbf058993	-0.52163047
43	0x3f006e8b	0.50168675
44	0x3e79e0ce	0.24402162
45	0xbe1f76c3	-0.15572648
46	0x3ebdf3ef	0.3710017
47	0x3e4c7ee8	0.19970286
48	0xbdb8091e	-0.08986114
49	0xbea71b22	-0.32637888
50	0xbea6d0d4	-0.32581198
51	0x3f0b91ab	0.54519147
52	0xbe82c767	-0.25542757
53	0xbee6fad8	-0.45113254
54	0x3e2b35d2	0.1671975
55	0xbe83d2f8	-0.25746894
56	0x3e18b127	0.14911328
57	0x3f548c6e	0.8302678
58	0xbfa48c43	-1.2855304
59	0x3e8befa2	0.27331263
60	0x3da22a35	0.079182066
61	0x3db2b4ff	0.087259285
62	0xbfb4d334	-1.4126954
63	0xbe3bb3e2	-0.18330339
64	0xbf59342b	-0.84845227
65	0xbe5a47ac	-0.21316403
66	0x3d5a2d1b	0.053265672
67	0xbf25485d	-0.6456354
68	0xbf095c1f	-0.5365619
69	0xbe644fd0	-0.22296071
70	0xbf32d8bd	-0.69861966
71	0xbd9ddb92	-0.07707895
72	0xbe673ac7	-0.22581016
73	0xbca43e13	-0.02004913
74	0x3e143598	0.1447357
75	0xbc810137	-0.01574765
76	0x3e0ff095	0.14056619
77	0xbe9dabbb	-0.30795082
78	0xbf5c1457	-0.85968536
79	0x3ec92231	0.39283898
80	0x3ed35c92	0.41281563
81	0x3ea985ed	0.3310999
82	0x3e5aff2b	0.21386401
83	0xbf0d5bab	-0.55218
84	0xbeeb2a89	-0.4593089
85	0xbeee7b8a	-0.46578628
86	0x3e3f8079	0.18701352
87	0xbe346045	-0.17614849
88	0x3d994aac	0.07484946
89	0x3e8a4eed	0.2701334
90	0xbde05476	-0.1095361
91	0xbcd5eeaf	-0.02611479
92	0x3ec741a7	0.38917276
93	0x3d385ffb	0.04501341
94	0x3ea050fa	0.3131178
95	0xbea83dce	-0.32859653
96	0x3d3d89bd	0.046273936
97	0xbf0a99d9	-0.54141
98	0xbe92fd7e	-0.28709024
99	0xbef8de52	-0.48607117
100	0xbf4eb101	-0.80738837
101	0x3e2bf1cb	0.16791455
102	0x3c528dfc	0.0128512345
103	0x3ec0fb5c	0.37691772
104	0xbeca1b5c	-0.39474
105	0xba79622a	-0.0009513224
106	0xbf42345b	-0.7586114
107	0x3f54efa7	0.8317818
108	0x3e825f14	0.25463164
109	0x3d276a96	0.040873133
110	0x3b734090	0.003711734
111	0xbee1627b	-0.44020447
112	0x3e83cefc	0.25743854
113	0xbe21c69e	-0.15798423
114	0xbe1f0536	-0.15529332
115	0x3ec4206d	0.3830599
116	0x3e8c7a7d	0.274372
117	0xbd47bc89	-0.048763786
118	0xbbe0c130	-0.0068589672
119	0xbe39ab97	-0.18131863
120	0x3e222f64	0.1583839
121	0xbeb40155	-0.35157266
122	0xbe806995	-0.25080553
123	0xbebad474	-0.36490214
124	0xbe71db48	-0.23618805
125	0x3eab1c68	0.3342011
126	0x3f2867ab	0.65783185
127	0x3e158447	0.14601241
128	0xbdfc1d9c	-0.12310335
129	0x3d80f370	0.06296432
130	0xbe39e3d1	-0.18153311
131	0xbee1c168	-0.4409287
132	0xbd550abb	-0.052012186
133	0xbee7dab6	-0.4528405
134	0xbe606d87	-0.21916781
135	0xbf145a6e	-0.57950485
136	0xbea0f585	-0.31437317
137	0x3e84f7a5	0.25970188
138	0xbf30b39d	-0.6902407
139	0xbdfc316a	-0.123141125
140	0xbee67aff	-0.45015714
141	0xbed16cf3	-0.40903434
142	0xbdc9e025	-0.09857205
143	0xbe28715c	-0.16449493
144	0x3f3cbf24	0.7372916
145	0x3da38edb	0.07986232
146	0x3e665a2e	0.22495338
147	0xbebcca7c	-0.36873233
148	0xbe2f339e	-0.17109534
149	0x3d1d8f81	0.038466934
150	0xbc09ee19	-0.008418583
151	0xbed9faf5	-0.42574278
152	0x3e8dc94d	0.27692643
153	0xbeec6012	-0.46167046
154	0xbc90fc64	-0.017698474
155	0xbf93cc54	-1.1546731
156	0xbf13bfcf	-0.5771455
157	0xbe85cbb6	-0.26131982
158	0x3f138769	0.57628495
159	0x3e9a8be7	0.30184862
160	0x3ee77bb0	0.45211554
161	0xbebb26f0	-0.36553144
162	0xbdd77962	-0.10521199
163	0xbea183b4	-0.31545794
164	0x3ea455d1	0.32096723
165	0x3ef3af9d	0.4759492
166	0x3ebd2a0a	0.36946136
167	0xbf0144b6	-0.5049547
168	0xbc98314f	-0.0185782
169	0x3f37f980	0.7186508
170	0x3e583a74	0.21116048
171	0xbf0adcb8	-0.5424304
172	0xbe3bf6da	-0.18355885
173	0xbe1d9ac4	-0.1539107
174	0xbcc20957	-0.023686094
175	0xbf1dd8a8	-0.61658716
176	0xbe634f5f	-0.22198246
177	0xbee48d9b	-0.44639286
178	0x3e29f545	0.16597469
179	0xbf2b0cd3	-0.66816443
180	0xbd719704	-0.05898191
181	0xbf0f088f	-0.55872434
182	0xbeddd425	-0.43325916
183	0xbeae82e7	-0.34084246
184	0x3e147da7	0.14501058
185	0x3d9540e1	0.07287765
186	0x3e499eb8	0.19689453
187	0xbf3f0fa4	-0.7463324
188	0xbdc44698	-0.09583777
189	0xbea7d80e	-0.32782024
190	0xbf08177c	-0.53160834
191	0xbeea21fa	-0.45729047
192	0x3ed524ca	0.4162963
193	0xbf6c182a	-0.9222437
194	0xbdab23c3	-0.083564304
195	0xbe04a9db	-0.1295542
196	0x3e8026ee	0.250297
197	0xbf23e063	-0.6401426
198	0xbeb0e217	-0.34547493
199	0xbf4518d8	-0.76991034
200	0xbd9707aa	-0.07374509
201	0xbf8bae75	-1.0912615
202	0x3dd47115	0.10373131
203	0xbe13142e	-0.14363167
204	0x3d7833ea	0.060596384
205	0x3e1c4459	0.15260448
206	0xbf370bff	-0.7150268
207	0xbef6f38e	-0.48232692
208	0x3e9bfca2	0.3046618
209	0xbe594c25	-0.21220453
210	0x3f28b2aa	0.6589762
211	0x3ec8ce21	0.39219764
212	0x3e168d5d	0.14702363
213	0x3ed2d98a	0.41181594
214	0xbef9cde5	-0.48789898
215	0xbf094259	-0.53616863
216	0x3d255d37	0.0403721
217	0xbdfed737	-0.12443393
218	0x3c5931ff	0.013256549
219	0xbd7e76a8	-0.06212488
220	0xbe26b208	-0.16278851
221	0xbf7d73e5	-0.99004966
222	0xbea28f3d	-0.31749907
223	0xbf243830	-0.64148235
224	0x3ec5c5ba	0.38627416
225	0xbf011bb1	-0.5043288
226	0x3e0e83c1	0.13917448
227	0xbd8c8c70	-0.06862724
228	0xbed61921	-0.41816047
229	0xbf8528f9	-1.0403129
230	0x3e62bb74	0.2214182
231	0x3e8a3abe	0.26997942
232	0xbec6b1f5	-0.38807645
233	0x3ddc9aaf	0.10771691
234	0x3e369de9	0.17833675
235	0xbeeeb906	-0.46625537
236	0xbc6f3658	-0.014600359
237	0x3ed28980	0.4112053
238	0xbf4978c9	-0.7869993
239	0x3ea742a9	0.32668045
240	0x3bfddafa	0.0077470513
241	0xbe7689a4	-0.24075943
242	0xbeb19981	-0.34687427
243	0xbd469279	-0.04847953
244	0x3d68256d	0.056676317
245	0xbebf3e34	-0.37352145
246	0xbcea49c4	-0.028599627
247	0x3ee03fd7	0.43798706
248	0xbe2e50fd	-0.17023082
249	0x3d191535	0.03737374
250	0xbe4c8287	-0.19971667
251	0x3c03a9eb	0.008036117
252	0x3eb1136a	0.34585124
253	0xbedc12e9	-0.42983177
254	0xbf2f4bae	-0.68474853
255	0xbf6a8a40	-0.916172

fc2.bias f4 [96]
0	0xbebeaa70	-0.37239408
1	0xbc21b0d0	-0.009868816
2	0xbe801d8b	-0.2502254
3	0xbea705e7	-0.3262169
4	0xbc233e65	-0.0099636065
5	0x3ec69e3b	0.38792595
6	0xbf43649f	-0.7632541
7	0x3d3cdad9	0.046107147
8	0xbeccdb50	-0.40011072
9	0xbe260b70	-0.162153
10	0xbea9b6db	-0.3314732
11	0xbefe3b18	-0.4965446
12	0xbe320712	-0.1738551
13	0xbe8d84fc	-0.27640522
14	0x3e8cb518	0.27481914
15	0x3b468fd1	0.0030298124
16	0xbf1905cd	-0.59774476
17	0xbf435295	-0.76297885
18	0xbf04205b	-0.5161187
19	0x3ea14b83	0.31502923
20	0xbec0a767	-0.37627718
21	0xbed06374	-0.40700877
22	0xbdd46f87	-0.10372835
23	0xbd9eb663	-0.07749631
24	0xbebbb80b	-0.3666385
25	0xbec66a4a	-0.38752967
26	0xbe906c99	-0.28207853
27	0xbed0c10f	-0.40772292
28	0x3e4334e6	0.19063148
29	0xbf570604	-0.83993554
30	0xbf17dabd	-0.59318143
31	0xbf016eb9	-0.50559574
32	0xbf155c59	-0.58344036
33	0xbe848d91	-0.25889257
34	0xbf69fc64	-0.9140074
35	0xbf454919	-0.77064663
36	0xbd2f021a	-0.042726614
37	0xbed67bcf	-0.41891333
38	0xbeffa2e0	-0.4992895
39	0xbe084a9d	-0.13309713
40	0xbee0ad97	-0.4388244
41	0xbe885145	-0.26624504
42	0xbb295e7c	-0.002584367
43	0x3d6187a1	0.055060986
44	0x3eb9ac3a	0.3626421
45	0xbf7cbb48	-0.9872327
46	0xbe8b589f	-0.2721605
47	0xbf3d9c45	-0.74066573
48	0xbdd61b0b	-0.10454377
49	0xbd678e50	-0.056532204
50	0xbd48e7f7	-0.049049344
51	0xbdff3ab9	-0.12462372
52	0x3f04d887	0.51892895
53	0xbe832209	-0.25611904
54	0xbe6bbe93	-0.23021917
55	0xbebd9208	-0.37025476
56	0xbe956ab0	-0.2918296
57	0xbebe4ca2	-0.3716784
58	0x3ec9d1c2	0.39417845
59	0xbf765235	-0.9621919
60	0x3c939456	0.018015068
61	0x3deb8c3c	0.11501357
62	0xbe8be8b6	-0.27325982
63	0xbee2ba56	-0.44282788
64	0x3e0bdb80	0.13657951
65	0xbf1ff5f3	-0.62484664
66	0xbdcd27e8	-0.10017377
67	0xbe030ea9	-0.12798561
68	0xbf6107a9	-0.87902313
69	0xbd84a8b0	-0.06477487
70	0xbeac28f5	-0.33624998
71	0xbe1b8253	-0.15186433
72	0x3be15fba	0.0068778666
73	0xbe78c9ba	-0.24295703
74	0x3ea3fbdc	0.3202809
75	0xbf26c175	-0.6513894
76	0xbde83bd1	-0.11339534
77	0xbe851fb3	-0.26000747
78	0xbf7b5c1a	-0.9818741
79	0x3d8f4d85	0.069972076
80	0xbf15ab95	-0.5846494
81	0xbe12edd8	-0.14348543
82	0xbea43c3c	-0.32077205
83	0xbe90f02a	-0.2830823
84	0xbee507d4	-0.44732535
85	0xbf05a5a9	-0.522059
86	0x3e8579f6	0.2606961
87	0xbe9c9c63	-0.30588064
88	0x3f120d8e	0.5705193
89	0xbf6aef81	-0.91771704
90	0x3e8b4dc6	0.27207774
91	0x3e2bc2f3	0.16773586
92	0xbea4fbf7	-0.32223484
93	0x3cd08ef2	0.025458787
94	0xbf18e88e	-0.5972985
95	0xbf2e84ae	-0.68171203

fc3.weight f4 [4, 96]
0	0xbf23e23c	-0.6401708
1	0xbda4ef34	-0.08053437
2	0xbe3d69fc	-0.18497461
3	0x3d6ac3d2	0.057315655
4	0xbf00b258	-0.5027213
5	0x3ebd08b8	0.36920714
6	0x3cec9f39	0.028884517
7	0xbe9e5739	-0.3092592
8	0xbe498416	-0.19679293
9	0x3e1ed619	0.1551136
10	0xbe9a7433	-0.30166778
11	0xbf00c811	-0.5030528
12	0xbe250536	-0.16115269
13	0xbeec4694	-0.46147597
14	0x3e9e0b2d	0.308679
15	0x3e7879f9	0.24265279
16	0x3e088050	0.13330197
17	0xbebcecc7	-0.36899397
18	0x3e8f4e01	0.279892
19	0xbe3240e5	-0.17407568
20	0x3e055a85	0.13022812
21	0x3f317928	0.69325495
22	0x3ee4212d	0.4455656
23	0x3e1a845a	0.1508955
24	0x3f15c8de	0.58509624
25	0xbeaf4452	-0.34231812
26	0xbe951594	-0.29118025
27	0xbea910ed	-0.33020726
28	0x3f5adbd8	0.85491705
29	0x3e1429c5	0.14469059
30	0xbeff654d	-0.49881974
31	0x3d15a430	0.036533535
32	0x3ea39cb4	0.31955492
33	0xbea186db	-0.315482
34	0xbea40696	-0.32036275
35	0xbf1d3fb2	-0.61425316
36	0xbe51f695	-0.2050422
37	0x3c4b45bb	0.012406762
38	0xbea46e8e	-0.32115597
39	0xbf06f1d0	-0.52712727
40	0xbf15590f	-0.5833902
41	0x3dcca5a5	0.09992532
42	0xbcc702e5	-0.024293372
43	0xbec8ef97	-0.39245293
44	0xbefe5f66	-0.49682158
45	0xbe80a668	-0.25126958
46	0xbe841c92	-0.25803047
47	0x3ea50c7c	0.32236087
48	0xbe864c66	-0.26230162
49	0x3d99f4eb	0.075174175
50	0x3eaa3004	0.33239758
51	0xbd2fe9a1	-0.042947415
52	0x3a599018	0.00082993647
53	0x3eed5977	0.4635732
54	0xbf40ca89	-0.75309044
55	0x3d22b87a	0.03972671
56	0xbe8d6af3	-0.27620658
57	0xbe667bb5	-0.22508128
58	0x3d55a3ac	0.052158043
59	0xbea64ad1	-0.32478955
60	0xbdaf0065	-0.08544997
61	0x3e781c84	0.24229628
62	0xbe85f4d9	-0.26163366
63	0xbf1f1f6a	-0.6215731
64	0xbe88b9b1	-0.2670417
65	0x3f2eb625	0.6824668
66	0x3f2fa84a	0.68616164
67	0x3e4c1b9f	0.19932412
68	0x3d5d2840	0.053993464
69	0xbd84b321	-0.064794786
70	0xbf912dca	-1.1342099
71	0xbdad9157	-0.08474987
72	0xbe152378	-0.14564312
73	0x3f25dcc1	0.6478997
74	0xbe069ac1	-0.13144971
75	0xbdcb6804	-0.09931949
76	0xbeb77f01	-0.35839084
77	0x3e02daf5	0.12778838
78	0x3e7232b7	0.23652159
79	0x3fa0ec1c	1.2572055
80	0x3e386987	0.18009005
81	0x3dc84373	0.0977849
82	0x3e9d4d7a	0.30723172
83	0xbc81161f	-0.015757618
84	0xbef6e030	-0.48217916
85	0x3f6cda3f	0.9252052
86	0x3e182aac	0.14860028
87	0x3f3f9e2b	0.7485072
88	0xbf00748d	-0.5017784
89	0xbed388cb	-0.41315302
90	0x3d03a11d	0.03213607
91	0xbd323b96	-0.043513857
92	0x3e731ca5	0.23741396
93	0x3e359dde	0.17736003
94	0xbd9b1804	-0.0757294
95	0xbf3380d4	-0.7011845
96	0xbe63a569	-0.22231068
97	0xbec0b7c1	-0.37640193
98	0xbd90039b	-0.07031938
99	0x3f25f325	0.64824134
100	0x3ebe3d0e	0.37155956
101	0x3f6f5382	0.934868
102	0x3e895c9c	0.26828468
103	0xbe44823c	-0.19190305
104	0xbf054c70	-0.5206976
105	0x3d56ba13	0.052423548
106	0x3bd71bd9	0.006564599
107	0xbe18a7db	-0.14907782
108	0x3e69136a	0.22761312
109	0xbef16e9d	-0.47154704
110	0xbe976861	-0.29571822
111	0xbf026321	-0.5093251
112	0xbf1fad1d	-0.62373525
113	0x3e5e4882	0.21707347
114	0x3e8118b5	0.25214162
115	0x3f17e960	0.59340477
116	0xbe093d91	-0.13402392
117	0xbf208cc3	-0.62714785
118	0xbd81e025	-0.0634158
119	0xbb247c2b	-0.0025098424
120	0xbc757bd5	-0.014983137
121	0xbd1e3727	-0.038626816
122	0xbe3b6b08	-0.18302548
123	0x3ce8b0f7	0.028404696
124	0x3db2f836	0.08738749
125	0xbbdd6817	-0.0067567932
126	0x3eafd246	0.34340113
127	0xbebb6e02	-0.36607367
128	0x3f537c52	0.8261157
129	0xbe18e1fe	-0.14929959
130	0x3c707e37	0.014678529
131	0xbcb8207f	-0.022476433
132	0x3de3fd9b	0.11132356
133	0xbe126f5c	-0.14300293
134	0x3daccefc	0.08437917
135	0x3cb1e0d7	0.021713657
136	0xbf6a157e	-0.91439044
137	0x3e47b4e0	0.19502592
138	0xbd58c08b	-0.052918
139	0xbf8d8ba7	-1.1058244
140	0xbe050cac	-0.12993115
141	0xbf4a8464	-0.7910826
142	0x3e4a573d	0.19759841
143	0x3d177757	0.036979046
144	0x3e3eba7a	0.18625823
145	0xbdc4c78a	-0.096083716
146	0x3d1d8c35	0.03846379
147	0xbe8608a3	-0.26178464
148	0xbd675188	-0.05647424
149	0x3d01bde1	0.031675223
150	0xbf51b311	-0.8191386
151	0x3f32cfe2	0.69848454
152	0x3ef483fd	0.4775695
153	0x3d66999a	0.05629883
154	0x3ea643a1	0.32473472
155	0xbf0ff5cc	-0.5623443
156	0xbeb078ed	-0.3446726
157	0x3c36c9e7	0.011156536
158	0xbe8e0069	-0.27734688
159	0xbed1fd3d	-0.41013518
160	0xbf5a20c7	-0.85206264
161	0xbec5bff2	-0.38623005
162	0x3f3b2acc	0.7311218
163	0xbdcc9a40	-0.09990358
164	0xbf4e3013	-0.80542105
165	0x3dec9b6b	0.11553081
166	0xbf4035c1	-0.7508202
167	0xbe9e8055	-0.30957285
168	0xbee71d6d	-0.45139638
169	0x3d232834	0.039833263
170	0x3eeb86aa	0.46001178
171	0x3e982867	0.29718325
172	0xbfbcdd65	-1.4755064
173	0xbf94ac59	-1.1615096
174	0x3ed57826	0.41693228
175	0x3e21286e	0.15738079
176	0xbde5292a	-0.11189492
177	0x3eff2155	0.49830118
178	0xbf25bf36	-0.6474489
179	0xbe18b50a	-0.14912811
180	0xbb5e1390	-0.0033886172
181	0x3f10f6cb	0.56626576
182	0x3e6321ac	0.22180814
183	0x3e11805d	0.14209123
184	0xbea3db78	-0.3200338
185	0x3eacc8c7	0.3374693
186	0x3ea07d58	0.3134563
187	0xbeaf8b88	-0.3428614
188	0xbf138238	-0.57620573
189	0xbe902fcd	-0.2816147
190	0xbe9d6726	-0.3074276
191	0x3ea79ac5	0.32735267
192	0x3d6e9685	0.058249015
193	0xbdb6bcd0	-0.08922732
194	0xbcfcf470	-0.030878276
195	0xbfca9360	-1.5826225
196	0x3cb67463	0.022272294
197	0x3d3a746e	0.045521192
198	0xbd319034	-0.043350413
199	0xbcaf3716	-0.021388572
200	0xbbd8a29f	-0.006611183
201	0xbe45cd05	-0.1931649
202	0x40007eda	2.0077424
203	0xbd8be218	-0.06830233
204	0xbef78670	-0.48344755
205	0x3d6f6a98	0.058451265
206	0x3df0cce8	0.11757833
207	0x3d685235	0.056719024
208	0xbe784551	-0.24245192
209	0xbd0e62ba	-0.03476212
210	0xb8e3b380	-0.00010857638
211	0xbd2f1fda	-0.042754985
212	0x3eee80e7	0.4658272
213	0x3d80868e	0.06275664
214	0x3eec8d3e	0.4620151
215	0x3db03490	0.086037755
216	0xbd2a470f	-0.041571673
217	0xbee77d55	-0.45212808
218	0xbe88d852	-0.2672754
219	0x4078f02a	3.8896585
220	0x3e431c1f	0.19053696
221	0x3fa3d185	1.2798315
222	0xbe88a76b	-0.2669023
223	0xbd0d0e55	-0.034437496
224	0x3ca9a1bf	0.02070701
225	0xbe548421	-0.20753528
226	0x3dcfc345	0.101446666
227	0xbdb8fd79	-0.09032721
228	0x3e06185f	0.13095234
229	0x409dd18c	4.9318295
230	0xbe1d40f5	-0.1535681
231	0xbe324129	-0.17407669
232	0x3b807670	0.003920369
233	0x3d286381	0.04111052
234	0xbd114556	-0.035466515
235	0xbcb00f4b	-0.021491667
236	0xbdef51bc	-0.116855115
237	0xbbcb4cfe	-0.0062042465
238	0xbf1de073	-0.6167061
239	0xbf9088c7	-1.1291741
240	0xbe98953b	-0.29801354
241	0x3df47070	0.11935508
242	0x3dfaab84	0.12239745
243	0x3e748763	0.23879771
244	0xbe2ffea1	-0.17186977
245	0x3c8f6277	0.017503006
246	0x3d8615dd	0.06547139
247	0x3b8b8077	0.0042572576
248	0x405205a2	3.2815938
249	0xbd86c60a	-0.06580742
250	0xba0d60d8	-0.0005393154
251	0xbe6183e6	-0.22022972
252	0x3e6ea995	0.23306878
253	0x3e09dba5	0.13462694
254	0x3d08887c	0.033333287
255	0x3f89f9f2	1.0779402

fc3.bias f4 [4]
0	0xbdbbcf55	-0.09170405
1	0xbe235d5b	-0.15953581
2	0xbe80525b	-0.25062832
3	0xbe67a44a	-0.22621265
