Project_2-Continous Control/checkpoint_critic.pth (torch_old, 53155 bytes, 5 tensors)

fcs1.weight f4 [96, 33]
0	0xbe6d4ec4	-0.23174578
1	0x3dc2fa30	0.09520376
2	0x3f22b5d3	0.6355869
3	0xbd6f776a	-0.05846349
4	0x3ee3c939	0.44489458
5	0x3ef6d444	0.4820882
6	0x3eb8cedb	0.36095318
7	0xbd611198	-0.05494842
8	0x3ea3230c	0.31862676
9	0xbe53c183	-0.20679288
10	0x3d25c28d	0.04046874
11	0x3e1c14ba	0.15242282
12	0x3d9b3727	0.07578879
13	0x3d4aa6b3	0.049475383
14	0xbdf259c8	-0.11833531
15	0xbedbe395	-0.4294707
16	0x3da5e4a5	0.08100251
17	0x3d1d7d18	0.038449377
18	0xbda4a6a4	-0.08039597
19	0xbd602099	-0.054718588
20	0xbda4f0a1	-0.08053709
21	0x3d8499b9	0.06474633
22	0xbd8b579e	-0.06803821
23	0x3c851e43	0.016249781
24	0xbe57b90b	-0.21066682
25	0xbdb6c3ee	-0.08924089
26	0x3dc2ac08	0.095054686
27	0xbe1d9f3c	-0.15392774
28	0x3ccd497c	0.025059454
29	0x3dc1c600	0.09461594
30	0x3e033542	0.12813285
31	0x3dab4dee	0.08364473
32	0x3f23f7bd	0.64049894
33	0x3c97a4a5	0.018511126
34	0x3e63c076	0.22241387
35	0xbcf1fff9	-0.029541003
36	0xbe0875a2	-0.13326123
37	0x3db2b02f	0.087250106
38	0x3d44c902	0.04804326
39	0xbe11ba33	-0.14231186
40	0xbd08a369	-0.033358965
41	0xbe5009e3	-0.20316271
42	0x3dc68c44	0.09694722
43	0xbe167085	-0.1469136
44	0xbe70848c	-0.23488063
45	0x3d23b232	0.039964862
46	0xbf000a8d	-0.500161
47	0xbeb3e046	-0.35132045
48	0x3ecf7a87	0.40523168
49	0x3e95919a	0.29212648
50	0x3dd9dea0	0.106381655
51	0x3e385483	0.18000989
52	0xbb68dc8d	-0.003553185
53	0xbb818b17	-0.0039533484
54	0x3d33cd80	0.043897152
55	0xbdbbb5c1	-0.09165526
56	0xbd6567bc	-0.056007132
57	0xbd8afb09	-0.067861624
58	0x3df9349c	0.121682376
59	0x3ea7287b	0.32648072
60	0x3f4b98db	0.79530114
61	0xbeb9370a	-0.36174804
62	0xbc7911b0	-0.015201971
63	0xbf376ab7	-0.7164721
64	0xbd425fbd	-0.047454584
65	0x3e1f8ad7	0.15580307
66	0x3de906fe	0.11378287
67	0xbaefedc4	-0.0018305113
68	0x3ed056c1	0.40691188
69	0xbe2bbb78	-0.16770732
70	0xbe2e3412	-0.17012051
71	0xbe83a095	-0.25708452
72	0x3e510eb8	0.20415771
73	0x3dba6f19	0.091032214
74	0xbe0c0934	-0.13675386
75	0x3d0b73c4	0.03404595
76	0xbdb2867b	-0.08717056
77	0xbc24fcea	-0.010070065
78	0xbdbb397d	-0.091418244
79	0xbe6fdd32	-0.23424223
80	0x3d1b51e9	0.037919912
81	0xbe734182	-0.23755458
82	0xbe228964	-0.15872723
83	0x3e01a8e1	0.12662078
84	0x38736bf0	5.803624e-05
85	0xbce5dbec	-0.028058968
86	0x3d9069eb	0.07051452
87	0xbcfb0c51	-0.030645521
88	0x3dacce9e	0.084378466
89	0xbd9176df	-0.07102751
90	0x3d2bec4b	0.041973393
91	0xbe93a289	-0.28834942
92	0x3e447547	0.19185363
93	0x3e9d2717	0.30693886
94	0xbe1866d3	-0.14882974
95	0x3d2ac554	0.041692093
96	0xbeca193d	-0.3947238
97	0x3da8ff26	0.08251791
98	0xbfe95ac8	-1.8230829
99	0xbe1aeb1f	-0.15128754
100	0x3ea28dc5	0.31748787
101	0xbeda5d39	-0.42649248
102	0x3e6b3970	0.2297113
103	0x3eedfe5f	0.46483132
104	0xbdd9eb42	-0.10640575
105	0xbf0bb4f2	-0.54572976
106	0xbe1de8a7	-0.15420781
107	0xbc84280a	-0.016132373
108	0xbd62fc45	-0.055416364
109	0x3affd26f	0.001951767
110	0xbe4a60d5	-0.19763501
111	0xbd506847	-0.050880697
112	0x3dc2c7ef	0.095107906
113	0xbe4ef626	-0.20211086
114	0x3e12364b	0.14278524
115	0xbf06f611	-0.5271922
116	0x3e900ff2	0.28137165
117	0xbe033adb	-0.1281542
118	0xbd8452a6	-0.064610764
119	0xbe145aac	-0.14487714
120	0x3ebefe2c	0.37303293
121	0x3bb39d4d	0.005481398
122	0xbe97ddd9	-0.29661444
123	0xbe325309	-0.17414488
124	0xbbd57d87	-0.006515208
125	0x3e3e004c	0.18554801
126	0x3f66cd25	0.90156776
127	0x3d6b0580	0.057378292
128	0x3d23573c	0.039878115
129	0xbf5d4589	-0.8643423
130	0x3c294e40	0.010333598
131	0x3e85ee3f	0.2615833
132	0xbf859d69	-1.0438663
133	0x3e3f3b5c	0.18674988
134	0xbeeda2dc	-0.46413314
135	0xbd81ea5a	-0.06343527
136	0xbf4f464c	-0.8096664
137	0xbe806c9c	-0.25082862
138	0xbd9ce503	-0.07660868
139	0x3e43a78e	0.19106886
140	0xbc9882ff	-0.018617151
141	0xbef0bc7d	-0.47018805
142	0xbdde572a	-0.10856469
143	0xbdac4772	-0.084120646
144	0x3cea8fac	0.028632961
145	0x3ee6b014	0.45056212
146	0x3d8a019d	0.06738589
147	0x3e8157ba	0.25262243
148	0xbd5454e6	-0.051838778
149	0x3e0902ae	0.13379928
150	0x3de5001d	0.11181662
151	0x3d5db1ea	0.05412475
152	0xbccd1e60	-0.025038898
153	0x3def8202	0.11694719
154	0x3d4bed10	0.049786627
155	0xbae3a6fe	-0.0017368493
156	0x3b8a4298	0.0042193644
157	0x3d28f9f6	0.041254006
158	0x3e5b3112	0.21405438
159	0x3d3b99b3	0.045800876
160	0x3d10ba39	0.035333846
161	0xbd0ae17e	-0.033906452
162	0x3d729ddf	0.05923259
163	0xbda1f95f	-0.07908892
164	0xbeaca506	-0.33719653
165	0xbc62f20d	-0.013851655
166	0x3ecd4705	0.40093246
167	0x3e4691e1	0.19391586
168	0xbf2d5f32	-0.6772338
169	0xbde4f46b	-0.111794315
170	0x3f124bd7	0.5714697
171	0xbe90fda6	-0.28318518
172	0x3d8db36a	0.06918986
173	0x3e0b77ac	0.1361987
174	0xbd4667c8	-0.048438817
175	0xbd337d18	-0.04382047
176	0x3e82049a	0.25394136
177	0xbd1c1e0d	-0.038114596
178	0xbe1f86e3	-0.15578799
179	0x3edddbad	0.43331662
180	0x3d9c9e4f	0.076473825
181	0x3f2d6840	0.677372
182	0xbddf9398	-0.10916823
183	0xbee78132	-0.45215756
184	0x3eefa13e	0.46802706
185	0x3e74ca3f	0.23905276
186	0x3cc391e4	0.023873277
187	0x3e9d87f8	0.30767798
188	0xbea3a5c0	-0.31962395
189	0x3e9090db	0.28235516
190	0xbd9c9ab6	-0.07646696
191	0x3df102f4	0.117681414
192	0x3e9f2ae6	0.31087416
193	0xbe8d2d09	-0.27573422
194	0x3cc7d6d8	0.024394438
195	0xbecdda82	-0.4020577
196	0xbd752e61	-0.059858683
197	0xbf310e65	-0.6916259
198	0xbe59ba98	-0.21262586
199	0x3ec53280	0.3851509
200	0xbc01421c	-0.007889297
201	0xbe46b5f8	-0.19405353
202	0x3e5ecb44	0.21757227
203	0x3e376de5	0.17913015
204	0x3de77530	0.113016486
205	0xbde93e37	-0.1138882
206	0x3ee232e4	0.4417945
207	0xbd8b128c	-0.06790647
208	0x3e67d87f	0.2264118
209	0xbda8517c	-0.08218667
210	0x3ed853e4	0.42251503
211	0x3ea3bc52	0.31979614
212	0xbea897d5	-0.3292834
213	0xbe2299aa	-0.1587893
214	0x3f6a680c	0.9156501
215	0xbea24fa9	-0.317014
216	0x3edfa74a	0.4368232
217	0xbcf5978a	-0.029979486
218	0x3e9cc9fe	0.30622858
219	0xbe058592	-0.13039234
220	0xbeaea683	-0.34111413
221	0x3ba63377	0.005072053
222	0xbe6c5081	-0.23077585
223	0xbea19b63	-0.31563863
224	0xbe53e479	-0.20692624
225	0x3f41f000	0.75756836
226	0x3d9ae480	0.07563114
227	0xbd600f5c	-0.054702148
228	0xbf6eb2b8	-0.93241453
229	0x3d9d46d0	0.07679522
230	0x3e3b2f1d	0.18279691
231	0x3d5b0dd4	0.053479984
232	0x3f8186a8	1.0119219
233	0x3cc448a7	0.023960425
234	0xbefa0479	-0.48831537
235	0xbf04ba2b	-0.5184657
236	0xbecdb496	-0.4017684
237	0xbe636abe	-0.22208688
238	0x3ece303e	0.4027118
239	0x3f0f2889	0.55921227
240	0x3dee7deb	0.11645111
241	0xbe4a68ec	-0.19766587
242	0x3ebf1f98	0.37328792
243	0x3d4cd72d	0.050009895
244	0x3cb03a94	0.021512307
245	0xbdcd2e1b	-0.100185595
246	0xbdbc40ca	-0.09192045
247	0x3e9b86af	0.30376193
248	0xbeb26fb5	-0.3485085
249	0xbdced3ed	-0.100990154
250	0xbe2756bd	-0.16341682
251	0xbe9b5f0d	-0.30345955
252	0xbddfa187	-0.10919481
253	0x3e98bcc0	0.29831505
254	0xbd553139	-0.052048896
255	0xbda67bd4	-0.08129087

fcs1.bias f4 [96]
0	0x3e83be7c	0.25731266
1	0xbf0dc1c8	-0.5537381
2	0xbeeabfc0	-0.4584942
3	0xbf80fe44	-1.0077596
4	0xbe413c26	-0.18870601
5	0xbee89d48	-0.45432496
6	0xbf7becd2	-0.98408234
7	0xbf6ff8f4	-0.9373925
8	0xbf275c93	-0.6537563
9	0xbef85913	-0.48505458
10	0xbeeb99d8	-0.4601581
11	0xbf4c36e8	-0.7977128
12	0xbe9ed7ec	-0.3102411
13	0xbda70b5a	-0.08156462
14	0xbf41cf13	-0.75706595
15	0xbf0f38d6	-0.559461
16	0x3eeb1713	0.45916042
17	0x3ed0605a	0.4069851
18	0xbe670b1e	-0.22562835
19	0xbf4dd7de	-0.8040751
20	0xbf6828bb	-0.9068715
21	0xbf039361	-0.5139676
22	0xbf86b7e3	-1.0524868
23	0xbea4432b	-0.32082495
24	0xbf363a6e	-0.71182907
25	0xbf24be62	-0.64353
26	0x3ed00e43	0.4063588
27	0xbf5fde8d	-0.8744896
28	0xbe8b14d0	-0.27164316
29	0xbea478af	-0.32123324
30	0xbf0c8d8d	-0.5490349
31	0xbf0a0799	-0.53917843
32	0xbf3008dd	-0.68763524
33	0xbe85f569	-0.26163796
34	0xbf3b1448	-0.7307782
35	0xbd8639cf	-0.06553995
36	0xbf8e6f54	-1.1127725
37	0xbe7ac784	-0.24490172
38	0xbf0f1b7f	-0.5590133
39	0xbe91d7d9	-0.2848499
40	0xbf905c95	-1.1278254
41	0xbf1571de	-0.5837687
42	0xbd9ec7e1	-0.077529676
43	0xbea2f96b	-0.31830916
44	0xbf115bba	-0.5678059
45	0xbf478bc5	-0.77947646
46	0xbf0933ac	-0.5359447
47	0xbe83172f	-0.25603625
48	0x3d07ce44	0.033155695
49	0xbf21baca	-0.6317564
50	0xbe7d8fe6	-0.24761924
51	0xbe2e2f21	-0.17010166
52	0xbe8972c4	-0.26845372
53	0xbeaaa9ed	-0.33332768
54	0xbf224b48	-0.6339612
55	0xbe420c98	-0.18950117
56	0xbde22392	-0.11041941
57	0xbecf50f4	-0.4049145
58	0x3caac263	0.020844644
59	0xbf595862	-0.84900486
60	0xbd0b40f8	-0.033997506
61	0xbf29cb59	-0.6632591
62	0xbe697e97	-0.22802196
63	0xbe6ee42d	-0.2332923
64	0xbe62eb31	-0.22160031
65	0xbeb3f1a3	-0.35145292
66	0x3f2234f0	0.63362026
67	0xbf310954	-0.6915486
68	0xbf424ba5	-0.75896674
69	0xbefbbb86	-0.49166507
70	0xbf7a51dc	-0.9778116
71	0xbf2fd187	-0.6867909
72	0xbf1a54ba	-0.6028553
73	0xbe9c0caf	-0.30478427
74	0x3ed3ae6d	0.41344014
75	0xbee36885	-0.4441568
76	0xbe544536	-0.20729527
77	0xbe3ab2c3	-0.18232255
78	0xbf423ad8	-0.7587104
79	0x3ee72509	0.45145443
80	0xbec791fa	-0.3897856
81	0xbf28f5d9	-0.66000134
82	0xbf1102d9	-0.5664497
83	0xbee594fa	-0.44840223
84	0xbee8c7ec	-0.45465028
85	0xbf2dd1cd	-0.67898256
86	0xbf5a00cc	-0.85157466
87	0xbe809326	-0.25112265
88	0x3e84204f	0.258059
89	0x3e93be8b	0.2885631
90	0xbf11ce98	-0.5695586
91	0xbf315f7a	-0.6928631
92	0xbf3f7063	-0.74780864
93	0xbf1455ee	-0.5794362
94	0x3c3e2606	0.011605745
95	0xbd40cc9e	-0.04707014

fc2.weight f4 [96, 100]
0	0xbe126f4d	-0.1430027
1	0xbd2d66b3	-0.04233427
2	0xbdc4d717	-0.09611338
3	0x3d8ae966	0.067827985
4	0xbdeaaee3	-0.11459138
5	0x3e0802ff	0.13282393
6	0x3c2563db	0.010094608
7	0xbde90885	-0.11378578
8	0x3b5f98fc	0.0034118285
9	0x3dbed15e	0.09317277
10	0xbe103795	-0.14083703
11	0xbe18a20e	-0.14905569
12	0xbd743121	-0.059617165
13	0xbdd117a1	-0.10209585
14	0xbd146fec	-0.03623955
15	0xbe365d68	-0.17809069
16	0xbe3654fa	-0.17805853
17	0xbd07744f	-0.033069905
18	0x3dc8944c	0.097939104
19	0xbd0f013f	-0.034913298
20	0xbe2df798	-0.16988981
21	0xbd872bd8	-0.066001594
22	0xbdf2f0d4	-0.118623406
23	0xbd5bde42	-0.05367876
24	0xbe2cbc39	-0.16868676
25	0xbe4e568a	-0.201502
26	0xbdcd7739	-0.100325055
27	0xbd3a3fa4	-0.04547085
28	0x3d9f09f0	0.07765567
29	0xbdcaa9fa	-0.09895702
30	0xbd876629	-0.066112824
31	0xbdfe5fc5	-0.1242061
32	0xbdb1754e	-0.08664952
33	0xbe0633d0	-0.13105702
34	0xbd0ce804	-0.034400955
35	0xbe012918	-0.12613332
36	0xbd3216df	-0.043478843
37	0xbd207ba5	-0.039180417
38	0xbe8bce7f	-0.27305982
39	0xbd7c52d0	-0.061602414
40	0xbdc2682d	-0.09492526
41	0xbe6e5e09	-0.23278059
42	0x3d8fbce9	0.07018454
43	0x3d67b4c4	0.056568876
44	0x3c4c28c0	0.012460887
45	0xbdcf1f79	-0.10113425
46	0xbe1193c0	-0.14216518
47	0xbe212a75	-0.15738852
48	0xbe382f81	-0.17986871
49	0xbdfe295b	-0.12410232
50	0xbc338899	-0.01095786
51	0x3d2e5b1f	0.04256737
52	0x3d18550d	0.037190486
53	0xbd0e7c7c	-0.034786686
54	0xbdd2e0da	-0.10296793
55	0x3cae4ba6	0.021276306
56	0xbc5fdd8d	-0.013663662
57	0xbd341f02	-0.043974884
58	0xbd8782e3	-0.066167615
59	0xbe156c16	-0.14592013
60	0x3c8d28d1	0.017231377
61	0xbdaf3e4c	-0.08556804
62	0xbda20292	-0.079106465
63	0x3caa9c80	0.020826578
64	0xbe516dc1	-0.20452024
65	0xbde54467	-0.11194687
66	0xbd5e19dc	-0.05422388
67	0xbe2301d2	-0.15918663
68	0xbdb446b7	-0.0880255
69	0xbdaba8f5	-0.08381835
70	0xbd3442c4	-0.044008985
71	0xbd94857a	-0.07252021
72	0x3ce4afa9	0.027915793
73	0x3c305d43	0.010764423
74	0xbc8178ff	-0.015804766
75	0xbd9c4487	-0.07630258
76	0x3c86cb06	0.016454231
77	0xbe2e8d30	-0.17046046
78	0xbe442661	-0.19155265
79	0xbe0cbfdf	-0.13745068
80	0x3d20c5df	0.039251205
81	0xbde07e1d	-0.10961554
82	0xbe1061d8	-0.14099824
83	0xbdf8ce81	-0.121487625
84	0xbddb6de3	-0.107143186
85	0xbd591ec3	-0.053007852
86	0x3dc8f73c	0.09812781
87	0xbda6db8a	-0.081473425
88	0xbde342c5	-0.1109672
89	0xbd9c09de	-0.076190695
90	0xbd6d2af1	-0.05790228
91	0xbe30bde7	-0.17259942
92	0xbdfadf0d	-0.12249575
93	0xbce722df	-0.02821487
94	0xbd88782b	-0.06663545
95	0xbda8dd79	-0.082453676
96	0xbc196770	-0.00936304
97	0x3b00e7f3	0.0019669503
98	0xbe26cc0a	-0.16288772
99	0xbd3e2d5b	-0.046429973
100	0x3e117c92	0.14207676
101	0x3ef0ae95	0.47008196
102	0x3e91a0db	0.28443035
103	0xbe739ff8	-0.23791492
104	0x3eeb9660	0.46013165
105	0x3d87f250	0.06638014
106	0xbd9d8b91	-0.07692636
107	0xbe4b026d	-0.19825144
108	0x3ecafb58	0.39644885
109	0x3ce8597f	0.028362988
110	0x3d99703b	0.074921094
111	0xbed11e75	-0.4084355
112	0x3dc6070f	0.09669315
113	0x3d01f78d	0.031730223
114	0x3d90ce06	0.07070546
115	0x3eee9cd8	0.46604037
116	0xbdea6d1d	-0.11446593
117	0xbdf1fda9	-0.1181596
118	0xbdff5816	-0.12467973
119	0xbe7fbc43	-0.2497416
120	0xbdd406a0	-0.10352826
121	0x3c2bf62f	0.010495706
122	0xbe719ab7	-0.23594175
123	0x3e5d089c	0.21585315
124	0xbf2760dd	-0.65382177
125	0xbea2e551	-0.3181558
126	0x3e59f5b5	0.21285136
127	0xbeb34a3c	-0.35017574
128	0xbf129e74	-0.5727303
129	0xbdfc2418	-0.12311572
130	0xbdcb895f	-0.09938311
131	0x3ddc9298	0.10770148
132	0x3e26399b	0.16232912
133	0x3e4820f0	0.19543815
134	0xbdaa5ab2	-0.0831808
135	0xbe28a33b	-0.16468517
136	0xbe96529d	-0.29359904
137	0x3d13f95a	0.036126472
138	0x3f12bac6	0.57316244
139	0xbe1a30dd	-0.15057702
140	0x3eca9bcd	0.39571992
141	0x3dd561af	0.10419022
142	0xbdd79243	-0.10525944
143	0x3ed768ce	0.42072147
144	0x3df767a2	0.12080313
145	0xbd05d14a	-0.032670297
146	0xbea35db5	-0.3190743
147	0xbea8bc5c	-0.32956207
148	0xbef0327f	-0.46913525
149	0x3e84bb00	0.2592392
150	0x3f099c46	0.5375408
151	0x3df817d3	0.12113919
152	0x3cf76dcc	0.030203722
153	0xbd4b254c	-0.049596116
154	0xbf166000	-0.58740234
155	0xbd0288d8	-0.031868786
156	0xbd04872e	-0.03235548
157	0x3e7d65ed	0.24745913
158	0x3c48be21	0.0122523615
159	0x3e023f04	0.12719351
160	0x3e5fad28	0.21843398
161	0xbde041bc	-0.10950038
162	0xbd96d952	-0.07365669
163	0x3e6c3096	0.23065409
164	0xbda11d05	-0.07866863
165	0x3c7ec945	0.015550916
166	0xbde2dbc5	-0.11077074
167	0x3e9193c1	0.2843304
168	0xbdcb5d62	-0.09929921
169	0x3e134e26	0.1438528
170	0x3d511fc4	0.051055685
171	0x3e18e003	0.14929204
172	0x3dde25eb	0.10847076
173	0xbcf37ec0	-0.029723525
174	0xbe52a377	-0.2057017
175	0xbee8131c	-0.4532708
176	0xbd161f66	-0.036651038
177	0xbc52388f	-0.012830867
178	0xbe79c8de	-0.24393031
179	0x3ce3e24d	0.02781787
180	0x3e951ca6	0.2912342
181	0x3ea7501c	0.32678306
182	0x3e9c3e78	0.3051641
183	0x3e365dba	0.17809191
184	0xbdf90da7	-0.12160807
185	0xbf01d512	-0.50715744
186	0xbe97862d	-0.29594555
187	0xbeccdeec	-0.40013826
188	0xbeb39ec3	-0.35082063
189	0xbdbf4485	-0.09339241
190	0x3d2c952b	0.042134445
191	0x3daddd25	0.084894456
192	0x3f124ac7	0.5714535
193	0xbf06c72a	-0.5264765
194	0xbefe46ec	-0.49663484
195	0xbe0bc752	-0.13650253
196	0x3cfd94b1	0.03095469
197	0x3da6d8bf	0.0814681
198	0x3dd55331	0.10416258
199	0x3edb58f6	0.4284131
200	0xbde980fa	-0.114015535
201	0xbe3fb9d5	-0.18723233
202	0xbdd864f4	-0.1056613
203	0x3cc35d74	0.023848273
204	0x3e0457e9	0.1292416
205	0xbe43c1ed	-0.19116946
206	0x3e90a65d	0.28251925
207	0x3ec56a79	0.38557795
208	0xbf15a2a7	-0.5845131
209	0xbe4331b1	-0.19061925
210	0xbeb0182c	-0.34393442
211	0xbdc0ce8c	-0.09414396
212	0x3df2c9f6	0.11854927
213	0xbdca62e6	-0.09882145
214	0xbc46df2e	-0.012138171
215	0xbc807671	-0.015681477
216	0x3e746d6d	0.23869868
217	0x3dcf42bf	0.10120153
218	0xbd5eb46d	-0.054371286
219	0xbee7d0b3	-0.45276412
220	0xbd663449	-0.056202207
221	0xbe13b5c8	-0.14424813
222	0xbe6cd22d	-0.2312705
223	0x3d4c0cac	0.049816772
224	0xbe78df97	-0.24304043
225	0x3d9fe088	0.07806498
226	0x3e4e42f6	0.20142731
227	0x3d350a0f	0.044199046
228	0x3e85e171	0.2614856
229	0x3dacb62c	0.08433184
230	0xbd494eca	-0.049147405
231	0xbd922e34	-0.07137719
232	0x3e046262	0.12928155
233	0x3bee625a	0.007274908
234	0x3d924a6e	0.071431026
235	0xbef0004a	-0.4687522
236	0xbed4f8c3	-0.4159604
237	0x3cae4790	0.021274358
238	0xbf09e499	-0.5386444
239	0xbe451798	-0.19247282
240	0xbdd11a36	-0.102100775
241	0xbd763326	-0.060107373
242	0x3dc81036	0.09768717
243	0xbe03d0ef	-0.1287267
244	0xbe6ad1db	-0.22931616
245	0x3e12e889	0.14346518
246	0xbe28c5f2	-0.1648176
247	0xbf0119d1	-0.5043002
248	0x3d91c1c2	0.071170345
249	0x3c744f0c	0.014911424
250	0xbe53081b	-0.2060856
251	0x3d8b934d	0.06815205
252	0x3e5819dd	0.21103616
253	0x3da0a691	0.0784427
254	0xbde40a1b	-0.1113474
255	0xbe2e9b44	-0.17051417

fc2.bias f4 [96]
0	0xbcf7a3ba	-0.030229438
1	0x3f22510f	0.63404936
2	0x3f9329f8	1.1497183
3	0xbf3dd564	-0.74153733
4	0xbd7b00c7	-0.06128004
5	0xbe272c97	-0.16325603
6	0xbe266835	-0.1625069
7	0xbf0682f5	-0.52543575
8	0xbd5d430a	-0.05401901
9	0xbd68d6e2	-0.056845553
10	0xbeb10c20	-0.34579563
11	0xbe3984ec	-0.18117112
12	0xbdb3ac12	-0.08773054
13	0xbdf51cc1	-0.11968375
14	0xbbf0ef3a	-0.007352737
15	0xbde63b43	-0.11241772
16	0xbdc1527a	-0.09439559
17	0xbe05784a	-0.13034168
18	0xbd6a5565	-0.057210345
19	0x3f9454a3	1.1588329
20	0xbdfcf18c	-0.12350759
21	0xbd316466	-0.043308638
22	0xbbae1d2e	-0.005313537
23	0x3f429465	0.7600768
24	0x3faae4f8	1.3351126
25	0x3f0ebbdd	0.55755407
26	0xbdfad6f9	-0.12248034
27	0xbddad16a	-0.10684474
28	0xbbb2dadd	-0.0054582194
29	0xbd405e08	-0.046964675
30	0xbd9d3a04	-0.07677081
31	0x3f100dd6	0.5627111
32	0x3f65334e	0.8953141
33	0x3bc733f3	0.006079191
34	0x3f2d00d8	0.6757941
35	0xbe166de4	-0.14690357
36	0xbdca86da	-0.09889002
37	0xbe31e823	-0.1737371
38	0xbe3725bd	-0.1788549
39	0xbdcef617	-0.10105532
40	0xbe017609	-0.12642683
41	0xbef8c634	-0.48588717
42	0xbdd35f8a	-0.10320957
43	0xbc775e8f	-0.015098228
44	0x3c72ce48	0.014819689
45	0x3f4146ff	0.75498956
46	0xbd9f0873	-0.077652834
47	0x3eee2d0b	0.4651874
48	0xbe07b504	-0.13252646
49	0x3efb5c06	0.49093646
50	0xbd88fe47	-0.066891246
51	0xbd90077b	-0.07032677
52	0x3f503526	0.813311
53	0x3ec5a1e8	0.38600087
54	0xbbdc0310	-0.0067142323
55	0xbe245e45	-0.16051586
56	0xbe3316f4	-0.17489225
57	0xbe1b1b2c	-0.15147084
58	0x3dd50516	0.10401361
59	0x3d528234	0.051393703
60	0xbe3411eb	-0.1758496
61	0xbd9d65d4	-0.07685438
62	0xbd67b3c9	-0.05656794
63	0x3f7d05ae	0.9883679
64	0xb8913f90	-6.925978e-05
65	0xbe0b24f1	-0.13588311
66	0xbdd60940	-0.10450983
67	0x3f0d9baa	0.5531565
68	0xbe1c79e7	-0.15280877
69	0xbdda9d95	-0.10674588
70	0xbef939db	-0.48676953
71	0xbe17171c	-0.1475491
72	0x3f049ade	0.5179881
73	0x3ec3a2e3	0.3821021
74	0x3f5df322	0.86699116
75	0xbdafdb86	-0.08586793
76	0xbd8206e5	-0.06348971
77	0xbe0667dc	-0.13125557
78	0xbe3a8afe	-0.18217084
79	0x3fc8a6d2	1.567591
80	0xbf51125b	-0.81668633
81	0xbdb99ef4	-0.09063521
82	0x3e169c06	0.14707956
83	0xbd03f861	-0.032219294
84	0xbd072e91	-0.033003394
85	0xbe8cad9b	-0.274762
86	0xbd82ff13	-0.06396308
87	0xbdaa901b	-0.08328267
88	0xbdfc97ae	-0.12333618
89	0x3d92f210	0.07175076
90	0xbe15b699	-0.14620437
91	0xbcc613d1	-0.024179371
92	0xbe006f3f	-0.12542437
93	0x3e864422	0.26223856
94	0xbd1db37e	-0.038501255
95	0x3f6d504b	0.9270064

fc3.weight f4 [1, 96]
0	0x3b2e9488	0.0026638824
1	0x3c8da873	0.017292237
2	0x3e20b368	0.15693438
3	0xbcc66378	-0.024217352
4	0x3c291e7f	0.010322212
5	0xbc7a3068	-0.01527033
6	0xbce0eec7	-0.027457608
7	0xbd463abc	-0.048395857
8	0xbcf425d8	-0.029803202
9	0x3c76e626	0.01506952
10	0xbcd44615	-0.025912324
11	0x3c31c50d	0.010850203
12	0x3c3ba5d0	0.011453107
13	0xbb880c7b	-0.0041518784
14	0xbca9fa62	-0.020749275
15	0xbbdb15a4	-0.0066859294
16	0xbc309583	-0.010777834
17	0x3c643ad4	0.013930041
18	0x3ceed1ad	0.029152716
19	0x3d5bfb0c	0.053706214
20	0xbcde0a3e	-0.027104493
21	0x3c8e5e13	0.017378842
22	0x3c74860e	0.014924539
23	0x3d4874a4	0.048939362
24	0x3d80328f	0.06259643
25	0x3d00a718	0.031409353
26	0xbcd5d669	-0.026103215
27	0x3c1ef6d4	0.009702403
28	0x3c9165c5	0.017748723
29	0xbc145e1d	-0.0090556415
30	0x3c0a1029	0.008426704
31	0x3d079c88	0.033108264
32	0x3d00a645	0.031408567
33	0xbc8b35ce	-0.01699343
34	0x3d01e6f8	0.03171441
35	0x3ce40e51	0.027838858
36	0xbc06b1e3	-0.008221122
37	0x3a4e579e	0.00078713323
38	0xbbdc6e73	-0.0067270338
39	0x3c9000ac	0.017578445
40	0xbc6d8eef	-0.01449941
41	0xbd32969b	-0.04360066
42	0xbcdc9b3b	-0.026929488
43	0xbc781488	-0.015141614
44	0x3c8a9b6c	0.016919814
45	0x3cb5d0db	0.022194317
46	0xbbfe5551	-0.0077616354
47	0x3ca5dcd4	0.0202469
48	0xbbf089e4	-0.0073406566
49	0x3cf9d412	0.03049663
50	0xbc57917b	-0.013157244
51	0x3b27e8dd	0.0025620975
52	0x3dace92a	0.0844291
53	0x3cff64a6	0.031175923
54	0xbcc4faeb	-0.024045428
55	0xbca366f0	-0.019946545
56	0x3b38a4c4	0.002817438
57	0xbcccb241	-0.024987342
58	0x3d4fd1ed	0.05073731
59	0x3c9636bb	0.018336644
60	0x3c8883ba	0.016664375
61	0xbb7001c0	-0.0036622137
62	0xbcb4629c	-0.022019677
63	0x3c94f11e	0.01818138
64	0x3c2116b3	0.009832072
65	0x3b50628c	0.003179702
66	0xbc9beca1	-0.019033732
67	0x3ca72f8f	0.02040842
68	0xbcf7ead0	-0.030263335
69	0x3c12c7f6	0.008958807
70	0xbcbd092f	-0.023075668
71	0x3cc134ce	0.02358475
72	0x3ca626dd	0.020282203
73	0x3d36d1bc	0.044633612
74	0x3d8201ce	0.063480005
75	0xbd37c651	-0.044866864
76	0x3cdabc7b	0.026701203
77	0xbc365b91	-0.01113023
78	0x3cad1028	0.021125868
79	0x3e37164f	0.17879604
80	0xbd96d646	-0.07365088
81	0x3b548fe4	0.0032434398
82	0x3d14f48b	0.036366027
83	0xbc29b936	-0.010359099
84	0x3c256180	0.010094047
85	0xbd5b3a63	-0.05352248
86	0xbcc4a49e	-0.024004277
87	0xb9fdf17b	-0.00048435837
88	0xbce523fe	-0.027971264
89	0xbc2aa4e0	-0.010415286
90	0xbba55a13	-0.005046138
91	0xbc0e4e95	-0.008685728
92	0xbcce6fec	-0.025199853
93	0x3d245e8a	0.040129222
94	0x3ca2fcd9	0.019895958
95	0x3d37b39b	0.04484902
