Project_1-Navigation/checkpoint.pth (torch_old, 28333 bytes, 6 tensors)

fc1.weight f4 [64, 37]
0	0xbcb941cc	-0.022614382
1	0x3d0f6126	0.035004757
2	0xbbf6d167	-0.007532287
3	0xbed5df9e	-0.4177217
4	0xbacf5373	-0.0015817716
5	0x3e12997d	0.14316364
6	0xbe7d4c36	-0.24736103
7	0x3db8f3ca	0.09030874
8	0xbde8fed4	-0.113767296
9	0xbdf93ed0	-0.12170184
10	0x3de60355	0.11231104
11	0xbe474521	-0.19459964
12	0xbd8d2956	-0.0689265
13	0xbe759763	-0.2398353
14	0xbf50832c	-0.8145015
15	0xbcd2346e	-0.025659766
16	0xbd184c64	-0.037182227
17	0x3dd69131	0.10476912
18	0x3da8eead	0.08248649
19	0x3db8c770	0.09022415
20	0xbe967061	-0.29382613
21	0x3e4d2875	0.20034964
22	0x3d1aa50d	0.03775506
23	0x3e4dc11c	0.20093197
24	0x3bdca37b	0.0067333556
25	0xbdce9ee2	-0.10088898
26	0x3ddfe266	0.10931854
27	0xbd199f86	-0.03750565
28	0xbd8e73d1	-0.06955684
29	0xbddfb18f	-0.109225385
30	0xbe97a88e	-0.29620785
31	0x3e216e15	0.15764649
32	0x3cf7787c	0.030208819
33	0x3d8ad233	0.067783736
34	0xbe53cc98	-0.20683515
35	0xbd0b4465	-0.034000773
36	0xbc834408	-0.01602365
37	0x3e7b64a8	0.24550116
38	0x3cc41227	0.023934437
39	0x3b8882cb	0.0041659824
40	0xbd551dd1	-0.05203039
41	0xbe812010	-0.25219774
42	0x3dac7a18	0.08421725
43	0xbf09ebab	-0.53875226
44	0x3bf73b16	0.0075448854
45	0xbe90dbd1	-0.28292707
46	0xbead586f	-0.33856532
47	0x3c7d10bd	0.015445885
48	0xbd8063d1	-0.062690385
49	0x3d24655c	0.040135726
50	0x3e31a5a1	0.17348339
51	0xbd8230ce	-0.06356965
52	0x3db6d4ff	0.089273445
53	0x3d89ba2f	0.06724965
54	0x3d298cbc	0.04139398
55	0xbd86a791	-0.065749295
56	0x3c07da3a	0.008291775
57	0xbd557351	-0.052111927
58	0xbd44aba6	-0.04801526
59	0xbdc32ced	-0.09530053
60	0xbe2cb243	-0.16864876
61	0x3e1d43f9	0.15357961
62	0xbd5ed6f6	-0.05440422
63	0xbcedf163	-0.029045766
64	0x3d41aff2	0.047286935
65	0x3d1d3c9d	0.038387883
66	0xbd70552c	-0.058674976
67	0x3d8e546a	0.069496945
68	0xbcfadb9c	-0.030622296
69	0x3dbaef72	0.09127702
70	0x3ddfd073	0.109284304
71	0x3da6391d	0.08116362
72	0xbdc10d22	-0.09426333
73	0x3d1f0b72	0.038829274
74	0x3d0a5350	0.03377086
75	0x3df53dc8	0.119746745
76	0x3e1f48fc	0.15555185
77	0x3d37db35	0.044886786
78	0xbe0bffb9	-0.13671769
79	0xbf321342	-0.69560635
80	0x3e161c93	0.14659338
81	0x3e8c15c7	0.27360365
82	0x3d544151	0.051820103
83	0xbe9422fe	-0.28932947
84	0xbdfc3cc1	-0.123162754
85	0x3da25801	0.07926942
86	0x3d32cc65	0.043651957
87	0x3e15fa7f	0.14646338
88	0x3e47156c	0.19441766
89	0xbe55add5	-0.20867093
90	0x3d1d392c	0.0383846
91	0x3e0439aa	0.12912622
92	0x3e4c9c42	0.19981483
93	0x3df8e16b	0.1215237
94	0xbf08587a	-0.53260005
95	0x3e02b291	0.1276343
96	0x3e3b0a8e	0.18265745
97	0xbd5029b6	-0.05082103
98	0xbeac3166	-0.33631438
99	0xbd6c0c6e	-0.05762904
100	0x3e01bcd8	0.12669694
101	0x3e40c8ac	0.1882655
102	0x3d107344	0.035266176
103	0x3d1a8d35	0.03773232
104	0xbe85f435	-0.26162878
105	0x3d875022	0.06607081
106	0x3d1ca283	0.03824092
107	0xbdb2963e	-0.08720063
108	0xba71f172	-0.00092293986
109	0x3c8ba30d	0.017045522
110	0x3b205df7	0.002447007
111	0x3db9a8a1	0.090653665
112	0x3e2d9a84	0.16953474
113	0x3e044b50	0.12919354
114	0x3d9a237a	0.07526298
115	0xbe1525f4	-0.14565259
116	0xbd2d1489	-0.042255912
117	0x3d6590a1	0.056046132
118	0x3d00cb3d	0.031443823
119	0x3e1084f4	0.14113218
120	0x3dc5aff4	0.09652701
121	0xbb72d1f9	-0.0037051423
122	0x3d9924da	0.07477732
123	0x3c302bb5	0.010752608
124	0xbd930465	-0.071785726
125	0xbd15038b	-0.036380332
126	0xbd41ab2a	-0.047282375
127	0xbc9dfd0c	-0.019285701
128	0xbd71109d	-0.058853734
129	0xba6cede4	-0.0009038134
130	0xbc3ead96	-0.011638066
131	0x3d530782	0.051520832
132	0xbd9660ad	-0.07342658
133	0xbc95fd23	-0.018309182
134	0x3d58068f	0.05274063
135	0x3da44d61	0.08022571
136	0xbdc9398f	-0.098254316
137	0xbdc49625	-0.0959895
138	0x3e077cbd	0.13231178
139	0x3e69db7e	0.22837636
140	0x3eb97f7e	0.3623008
141	0x3e9564ea	0.29178554
142	0xbda26177	-0.07928746
143	0xbe814371	-0.25246766
144	0xbeefed41	-0.46860698
145	0xbfe30a04	-1.7737432
146	0x3c86f26d	0.01647302
147	0x3b1d1a73	0.0023972064
148	0xbdd4e5af	-0.10395371
149	0xbe3578ac	-0.17721814
150	0xbde449a4	-0.11146858
151	0xbde400a3	-0.11132934
152	0x3c3f33b8	0.011670046
153	0x3d9b6e37	0.07589381
154	0x3e24d7ce	0.16097948
155	0xbdb55479	-0.088540025
156	0x3dcb1a3c	0.09917113
157	0xbf1b968f	-0.6077661
158	0x3d2b630c	0.041842505
159	0xbda4dc84	-0.080498725
160	0xbe39f1cd	-0.18158646
161	0x3cb5aab1	0.022176119
162	0xbefa5b8e	-0.48897976
163	0xbe61ac7b	-0.22038452
164	0x3d95bf24	0.07311848
165	0xbd51e2f0	-0.051241815
166	0x3d905d87	0.07049089
167	0x3e05e592	0.13075855
168	0xbebf9863	-0.3742095
169	0x3d32d053	0.043655705
170	0x3d9c95cd	0.0764576
171	0x3e7299ce	0.23691484
172	0x3e37fd0b	0.17967622
173	0xbc4bb1e0	-0.012432545
174	0xbd7aca2d	-0.061227966
175	0x3d821ba7	0.063529305
176	0x3e54ef16	0.20794329
177	0x3e0e3ca4	0.1389032
178	0x3e33010f	0.17480873
179	0xbe7a5c95	-0.2444938
180	0x3d3b53d1	0.04573423
181	0xbda0c8ec	-0.07850823
182	0xbf06ae39	-0.5260959
183	0x3d22f29c	0.03978215
184	0xbc328a91	-0.010897295
185	0xbd175e23	-0.03695501
186	0x3d449c43	0.048000585
187	0x3c11f2c1	0.008907975
188	0xbc2cd01f	-0.010547667
189	0xbd6dd523	-0.05806459
190	0x3e948f14	0.2901541
191	0xbe0b6078	-0.13611019
192	0xbe9dbc06	-0.30807513
193	0xbdd52e97	-0.10409277
194	0xbfa96fac	-1.3237205
195	0x3d68d720	0.056845784
196	0xbe022fa4	-0.12713486
197	0x3c2bac51	0.010478095
198	0xbe5b2106	-0.21399316
199	0x3d3a7917	0.045525637
200	0x3caeaea2	0.021323506
201	0x3d56c358	0.052432388
202	0xbc0d01a0	-0.008606344
203	0xbd907cf5	-0.07055084
204	0xbe034740	-0.12820148
205	0x3dbfc4ac	0.09363684
206	0x3dcbfd2a	0.099603966
207	0x3ddb4d3b	0.1070809
208	0x3cd537bf	0.026027558
209	0x3e03d276	0.12873253
210	0xbb964120	-0.0045854
211	0xbe0e15b4	-0.13875467
212	0x3deb5be4	0.11492136
213	0x3d4f49dd	0.05060755
214	0x3d47b26d	0.048754144
215	0x3ddf95cc	0.10917243
216	0xbdc4e06d	-0.09613118
217	0xbdc89803	-0.09794619
218	0x3cb31c03	0.021863943
219	0xbcd87c27	-0.026426388
220	0x3d2180ed	0.039429594
221	0x3cf25185	0.029579887
222	0x3e5fa3df	0.21839856
223	0x3ce4a8bc	0.02791249
224	0xbe33dc23	-0.17564444
225	0xbe3884f9	-0.18019475
226	0xbf9e3c21	-1.23621
227	0xbd496711	-0.049170557
228	0xbe4e6003	-0.20153813
229	0xbc5fe6ab	-0.013665835
230	0x3db7f096	0.08981435
231	0x3ecfba61	0.40571883
232	0x3d1de4b6	0.038548194
233	0x3c54eb72	0.012995588
234	0x3dd497d9	0.10380525
235	0x3e0301c7	0.12793647
236	0x3df40221	0.119144686
237	0xbe15fd5e	-0.14647433
238	0xbbc1cc8e	-0.0059142774
239	0x3c264431	0.010148094
240	0x3e0194e1	0.12654449
241	0x3ebaf365	0.3651382
242	0xbd7ecf92	-0.062209673
243	0x3d24ce46	0.04023578
244	0x3cbdeaea	0.023183305
245	0xbdc8bf77	-0.09802144
246	0x3da80764	0.08204535
247	0xbd73a020	-0.05947888
248	0xbdd5619e	-0.104190096
249	0xbc902c08	-0.01759912
250	0xbe27e2b2	-0.16395071
251	0x3e05c9a0	0.13065195
252	0xbd975ad6	-0.073903725
253	0x3c28c409	0.010300645
254	0x3db760c8	0.089540064
255	0xbb1b97af	-0.0023741534

fc1.bias f4 [64]
0	0x3da3bb69	0.0799473
1	0xbcb7b3a9	-0.022424536
2	0xbdecf959	-0.11570997
3	0x3cf67c47	0.030088557
4	0x3e32f705	0.17477043
5	0xbca49cb6	-0.020094257
6	0xbd84c98d	-0.06483755
7	0x3d6a7052	0.057236023
8	0x3d6e1921	0.058129434
9	0xbe58e3d0	-0.21180654
10	0x3dfd4b62	0.12367894
11	0x3e6b3206	0.22968301
12	0x3e234539	0.15944375
13	0x3d4bf2ce	0.049792103
14	0xbd9d8728	-0.07691795
15	0xbe2241b2	-0.15845373
16	0x3d01fc47	0.03173473
17	0x3d42db85	0.04757263
18	0xbd1fde70	-0.039030492
19	0xbe581cae	-0.2110469
20	0xbce6eee2	-0.02819008
21	0x3dbd9f14	0.09258857
22	0xbae5b9bd	-0.0017526668
23	0xbde8c966	-0.11366539
24	0xbe08e5e0	-0.1336894
25	0x3e354418	0.17701757
26	0xbd2bf1db	-0.0419787
27	0xbe36822b	-0.17823093
28	0x3df12e52	0.11776413
29	0x3dd0edb7	0.102015905
30	0x3d50ba33	0.050958823
31	0xbde23b28	-0.110464394
32	0x3e0202f3	0.12696438
33	0x3d911189	0.07083423
34	0xbe1e7951	-0.15475966
35	0x3cd0060e	0.025393512
36	0xbd9aa8b7	-0.07551711
37	0x3d4a2021	0.049347047
38	0xbca25b86	-0.019819032
39	0xbdfd51c6	-0.12369113
40	0xbe1a15d2	-0.15047386
41	0x3cb48646	0.022036683
42	0xbddf46c9	-0.10902173
43	0x3e58d60a	0.211754
44	0xbc35e2e1	-0.011101455
45	0xbd71c581	-0.059026245
46	0x3d560b65	0.05225696
47	0xbe3c748f	-0.18403839
48	0xbdf6b407	-0.12046056
49	0x3c7355b5	0.014851977
50	0xbe1358e5	-0.1438938
51	0x3d0e9ed8	0.034819454
52	0xbd9197b3	-0.071090125
53	0xbe35f37f	-0.17768668
54	0xbe211595	-0.15730889
55	0x3d1c93bd	0.03822683
56	0x3e1697c5	0.14706333
57	0xbc46adea	-0.012126425
58	0xbdd0ff6a	-0.10204966
59	0xbde94786	-0.11390595
60	0x3d3e9194	0.046525553
61	0x3c85100e	0.016243007
62	0xbc0d9f20	-0.008643895
63	0x3d419dfb	0.047269803

fc2.weight f4 [64, 64]
0	0x3e2729f4	0.16324598
1	0x3dfd7717	0.1237623
2	0x3dc2282b	0.09480318
3	0x3bc43a53	0.005988398
4	0xbe529649	-0.20565142
5	0xbd90aefe	-0.07064627
6	0xbe8fbc17	-0.2807319
7	0x3c63ead3	0.013910967
8	0xbd2ed228	-0.04268089
9	0x3db0e0e5	0.08636645
10	0xbd53948e	-0.051655345
11	0xbe5a2bbe	-0.21305749
12	0xbe3f3a89	-0.18674673
13	0x3c9e7832	0.019344423
14	0xbd8343b4	-0.06409398
15	0x3d8a77de	0.06761144
16	0xbda793ff	-0.08182525
17	0xbe9a36f3	-0.30120048
18	0xbe165618	-0.1468128
19	0x3e09cffa	0.13458243
20	0xbdbabb96	-0.091178104
21	0xbedb3dda	-0.42820626
22	0xbddf37af	-0.10899293
23	0x3dfeeb6f	0.12447249
24	0xbd309ac8	-0.04311636
25	0xba28d667	-0.000644064
26	0x3bed9a76	0.007251079
27	0x3c06d981	0.008230568
28	0xbd8ae675	-0.067822374
29	0xbe2277b5	-0.15865977
30	0x3e7556e3	0.23958926
31	0x3e21b562	0.15791848
32	0x3d9786b5	0.0739874
33	0xbe98158f	-0.29703948
34	0xbe2b8b62	-0.16752389
35	0xbd19a8fc	-0.03751467
36	0xbe53e2e1	-0.20692016
37	0x3d99c88a	0.07508953
38	0xbd83b4d1	-0.06430972
39	0xbe317552	-0.1732991
40	0xbdc5fec8	-0.09667736
41	0xbdf377fa	-0.11888118
42	0x3df5c782	0.12000944
43	0xbcc747fc	-0.024326317
44	0x3e08054a	0.13283268
45	0x3d171fa3	0.036895406
46	0xbe6a9a70	-0.22910476
47	0x3de3fc59	0.11132116
48	0xbe0b3002	-0.13592532
49	0x3e948c65	0.29013363
50	0xbe5bee19	-0.21477546
51	0xbcebcbc1	-0.02878368
52	0xbe168fb2	-0.14703253
53	0x3dd7460a	0.10511406
54	0x3b6ec1d2	0.0036431444
55	0x3cd8b5c0	0.026453853
56	0xbd1b4d59	-0.03791556
57	0xbdb38321	-0.08765245
58	0xbde18b93	-0.1101295
59	0xbe3d3fbd	-0.18481345
60	0x3e457d5c	0.19286102
61	0x3f42667d	0.75937635
62	0xbe8f15f1	-0.27946427
63	0x3d15f04f	0.03660613
64	0x3e13fb7e	0.14451405
65	0x3d2fe8b5	0.042946536
66	0xbe8da891	-0.27667668
67	0x3a4b20ca	0.00077487214
68	0x3cb8ee2e	0.02257451
69	0x3e2eb954	0.17062885
70	0xbe64f79b	-0.22360079
71	0x3d7646ba	0.060126044
72	0xbd89af04	-0.06722835
73	0xbd8e4b3e	-0.06947945
74	0xbd22bd7a	-0.03973148
75	0x3e82ff25	0.25585285
76	0xbdbbb0d6	-0.09164588
77	0x3d207ec0	0.03918338
78	0x3df5aac0	0.119954586
79	0x3e3914bf	0.1807432
80	0x3e061d23	0.13097052
81	0x3e4ae7b6	0.19814953
82	0xbdf3b855	-0.11900393
83	0xbe34ce8c	-0.17656916
84	0xbd1d8ea0	-0.038466096
85	0xbe1e0e83	-0.15435223
86	0xbd9b46be	-0.075818524
87	0x3d3603a7	0.044437077
88	0xbd1b334d	-0.03789072
89	0xbdfa38a3	-0.12217834
90	0x3d037b3b	0.032099944
91	0xbe6d4e51	-0.23174407
92	0x3c7f3f30	0.01557903
93	0x3cd39755	0.025828997
94	0xbd9bfd17	-0.076166324
95	0x3d8a4384	0.06751159
96	0xbdfe5c7f	-0.12419986
97	0x3dceddf2	0.101009265
98	0x3e371208	0.17877972
99	0xbdffbce5	-0.12487201
100	0x3dcd774e	0.10032521
101	0xbbad260a	-0.0052840756
102	0xbd18716b	-0.03721754
103	0xbe1f995c	-0.15585846
104	0xbd0177a3	-0.031608235
105	0x3c323ce4	0.010878775
106	0x3cbbc58a	0.022921342
107	0xbd10b685	-0.035330314
108	0xbe1caee3	-0.15301089
109	0xbe365b8f	-0.17808364
110	0xbe898eed	-0.26866856
111	0xbe51c66e	-0.20485851
112	0xbd017f39	-0.03161547
113	0xbdd89b40	-0.105764866
114	0xbdceb007	-0.10092168
115	0x3dba6426	0.09101133
116	0xbd13bcd5	-0.036068756
117	0xbdbcf59a	-0.09226532
118	0x3d688cec	0.05677502
119	0xbd899139	-0.06717152
120	0x3d6e40cb	0.05816726
121	0xbe046afc	-0.12931436
122	0x3e5aae61	0.21355583
123	0x3e0e877e	0.13918874
124	0xbe75227e	-0.23938939
125	0xbd9fcdc8	-0.078029215
126	0x3d88ff23	0.066892885
127	0xbce47072	-0.02788565
128	0x3dd13100	0.10214424
129	0xbe1c603f	-0.1527109
130	0x3b5a6060	0.0033321604
131	0x3d9abb42	0.07555248
132	0x3e3f6876	0.18692192
133	0x3c235e4a	0.009971211
134	0xbe8ef67e	-0.27922434
135	0xbdb8bde0	-0.09020591
136	0x3e381a6e	0.17978832
137	0xbe5d87b0	-0.21633792
138	0xbdd7258a	-0.10505207
139	0x3e16cec2	0.1472731
140	0x3de75d96	0.11297147
141	0x3e1fef8a	0.1561872
142	0x3d866042	0.065613285
143	0xbb81bbae	-0.0039591407
144	0xbe043b29	-0.12913193
145	0x3ea78802	0.32720953
146	0xbbdb80a7	-0.006698686
147	0x3d716ea1	0.058943395
148	0xbe1e3f6f	-0.15453885
149	0x3ea28f27	0.31749842
150	0x3d043e2b	0.03228585
151	0xbe81bfb2	-0.25341564
152	0xbdc3c162	-0.09558369
153	0xbc92ed2d	-0.01793536
154	0xbc06a48a	-0.00821794
155	0x3c72f0ff	0.014827966
156	0x3d9472fa	0.072484925
157	0x3e070320	0.13184786
158	0x3d8a34c1	0.06748343
159	0x3cdc4d04	0.026892193
160	0xbe1cdd37	-0.15318762
161	0xbd9684a0	-0.07349515
162	0xbe73ee10	-0.23821282
163	0x39987b1c	0.00029083423
164	0xbc1bf81f	-0.009519606
165	0x3e13289c	0.1437096
166	0xbe311d5c	-0.17296356
167	0xbcd3c527	-0.025850846
168	0xbb809a16	-0.0039246185
169	0x3dceed7a	0.10103889
170	0xbd998644	-0.07496312
171	0xbcba455a	-0.022738148
172	0xbb2435f9	-0.0025056584
173	0x3d90d12b	0.070711456
174	0x3e05770c	0.13033694
175	0x3d6e046c	0.058109686
176	0x3e482252	0.19544342
177	0x3d43450b	0.047673266
178	0xbce262f3	-0.027635073
179	0x3d2c73f2	0.04210276
180	0xbdca835d	-0.09888337
181	0x3eb25727	0.34832117
182	0xbe8c9879	-0.27460077
183	0xbdeea13b	-0.11651846
184	0x3cfe6ec3	0.031058675
185	0xbe1c4322	-0.15259984
186	0x3e2395b4	0.15975076
187	0xbcdd3cf4	-0.027006604
188	0xbe685b15	-0.22690995
189	0x3e1951dc	0.14972633
190	0x3cc42a50	0.023945957
191	0x3c15fc49	0.009154388
192	0xba92e45c	-0.0011206972
193	0xbe049164	-0.12946087
194	0x3e284597	0.16432796
195	0x3dc4dacc	0.09612045
196	0x3d7c5fee	0.061614923
197	0x3d81e474	0.06342402
198	0x3b5115f9	0.0031903966
199	0xbcd43cca	-0.025907893
200	0x3c4d1731	0.012517736
201	0xbdcc44ae	-0.09974037
202	0x3ce168a4	0.027515717
203	0xbc6e5790	-0.014547244
204	0xbde7bbdc	-0.11315128
205	0x3e7482df	0.23878048
206	0x3d4c6e60	0.04990995
207	0x3d217e70	0.03942722
208	0x3e3d6a39	0.18497552
209	0x3d226910	0.039650977
210	0x3de1e39b	0.110297404
211	0xbe23d73b	-0.16000073
212	0xbb84a837	-0.004048373
213	0x3cfa427d	0.030549282
214	0x3db0a4e3	0.086252
215	0xbc31090f	-0.010805382
216	0x3e808df8	0.25108314
217	0xbdd338cb	-0.10313567
218	0x3e35703a	0.17718592
219	0x3d6b9d9b	0.05752335
220	0x3e51bbb9	0.20481767
221	0xbe2d81d9	-0.16944064
222	0xbd8cbb9f	-0.068717234
223	0xbe59daf1	-0.21274926
224	0xbd625168	-0.055253416
225	0x3a1b9726	0.00059353036
226	0xbe0a6307	-0.13514338
227	0x3c8a8102	0.016907219
228	0xbe1919d8	-0.14951265
229	0x3e77e5f8	0.2420882
230	0x3d81f36f	0.063452594
231	0xbd915bb6	-0.070975706
232	0xbd9d9819	-0.07695026
233	0x3dbefce4	0.09325579
234	0x3e32e9de	0.17472026
235	0xbde9de14	-0.11419311
236	0xbb9e3238	-0.004827764
237	0x3e2158e6	0.15756568
238	0x3de0b2d3	0.10971608
239	0x3e5f6400	0.2181549
240	0x3e979346	0.29604548
241	0x3e562b28	0.209149
242	0xbe772dbf	-0.24138544
243	0xbe4247c5	-0.1897269
244	0xbc570059	-0.0131226415
245	0x3d51b474	0.051197484
246	0xbd168b0a	-0.03675369
247	0xbc8744e0	-0.016512334
248	0xbe7fdef4	-0.24987394
249	0xbe2153ba	-0.15754595
250	0xbe12b673	-0.14327411
251	0x3e824e65	0.25450435
252	0xbe08646b	-0.13319556
253	0x3c5a396d	0.013319355
254	0xbe1fe453	-0.15614443
255	0xbdcdf1fe	-0.10055922

fc2.bias f4 [64]
0	0xbd054052	-0.032532044
1	0xbd03b338	-0.03215334
2	0x3d1b12c2	0.037859686
3	0x3d76da19	0.060266588
4	0x3e3978e8	0.18112528
5	0xbc5ea979	-0.01359021
6	0xbd0f7e9e	-0.03503286
7	0x3a2ed4c4	0.0006669278
8	0x3def85b0	0.11695421
9	0x3ed12ad9	0.40853003
10	0xbcf9e3b5	-0.030504087
11	0x3e5c6256	0.21521887
12	0x3dcd3fd6	0.10021941
13	0xbbef8147	-0.007309112
14	0xbdd5c9fc	-0.10438916
15	0x3e043a31	0.12912823
16	0x3d70314c	0.058640763
17	0x3dd807a4	0.10548332
18	0xbb845d31	-0.0040394296
19	0x3e9f23e1	0.3108206
20	0x3e924861	0.28570846
21	0x3ef9ab54	0.48763525
22	0xbe18316d	-0.14862604
23	0xbdfba844	-0.122879535
24	0xbdaf98d0	-0.085740685
25	0xbe50f241	-0.20404913
26	0x3e023893	0.12716894
27	0xbd7ae2e6	-0.061251543
28	0xbc521cab	-0.012824218
29	0x3d7eeb67	0.062236216
30	0x3c9161f9	0.017746912
31	0x3b2edcad	0.0026681826
32	0xb9c0bb26	-0.0003676053
33	0x3e8f72e1	0.28017333
34	0xbc564b6f	-0.013079508
35	0x3b9db482	0.004812778
36	0xbd4b4e97	-0.049635496
37	0xbc65172b	-0.013982574
38	0x3e074d59	0.132131
39	0x3c49254e	0.012276961
40	0xbe1ced98	-0.1532501
41	0x3ee09b7f	0.43868634
42	0x3e57ac97	0.21061932
43	0xbdb6f647	-0.089336924
44	0x3c23370a	0.009961853
45	0xbdb5307f	-0.088471405
46	0x3e0e3fc9	0.1389152
47	0xbe08ddf0	-0.13365912
48	0x3d69b0e5	0.057053465
49	0xbb56894a	-0.003273564
50	0xbe0093a2	-0.12556317
51	0x3ecdc888	0.40192056
52	0x3b1b9c2e	0.0023744213
53	0xbda56889	-0.08076579
54	0x3e0da347	0.13831817
55	0xbe582a6b	-0.21109931
56	0xbe69252d	-0.22768088
57	0xbe0744ad	-0.13209791
58	0x3d1f296c	0.038857862
59	0xbe132a17	-0.14371525
60	0xbd14ea5a	-0.036356308
61	0x3e9702b2	0.29494244
62	0x3db22875	0.08699123
63	0xbe0e46c5	-0.13894184

fc3.weight f4 [4, 64]
0	0x3edccd92	0.43125588
1	0x3d4c0168	0.04980603
2	0xbe13058d	-0.14357586
3	0xbe88920d	-0.26673928
4	0x3e932867	0.28741762
5	0x3e2c425c	0.16822189
6	0xbcc24b74	-0.02371762
7	0xbe65eec8	-0.22454369
8	0x3e3da6ce	0.18520662
9	0x3e097c50	0.13426328
10	0xbdb28cf8	-0.08718294
11	0x3e8c3e4c	0.2739128
12	0x3d7707c3	0.060310137
13	0x3e5a8c9e	0.21342704
14	0xbcc1974f	-0.02363172
15	0xbe38cb8f	-0.18046401
16	0x3ece933b	0.40346703
17	0x3e8661d1	0.26246503
18	0x3e90d9ab	0.28291067
19	0x3e4e21a7	0.20130025
20	0x3dac50fe	0.084138855
21	0x3e42fd7c	0.19042009
22	0xbe1f45d4	-0.15553981
23	0xbe31c430	-0.17359996
24	0xbef02945	-0.46906486
25	0xbe31a43a	-0.17347804
26	0xbee00fdf	-0.4376211
27	0x39c737bc	0.00037997763
28	0x3e12fe5e	0.14354846
29	0x3db62c08	0.08895117
30	0xbe6ca47e	-0.23109624
31	0x3dce90fe	0.10086249
32	0x3e66ce4c	0.22539634
33	0x3e533cb6	0.20628628
34	0x3cdff903	0.027340418
35	0x3ec110fb	0.37708268
36	0x3ddfc53d	0.10926292
37	0xbd9b2692	-0.07575716
38	0x3e129330	0.1431396
39	0x3dc83f63	0.09777715
40	0x3cb4fe99	0.022094058
41	0x3e0d7bb6	0.13816723
42	0x3e0cd1d7	0.13751923
43	0xbe9064a2	-0.28201777
44	0x3e08186c	0.13290566
45	0xbdf83192	-0.1211883
46	0x3de5ef6a	0.11227305
47	0x3e20594d	0.15659066
48	0x3e4823b5	0.19544871
49	0x3e4df92b	0.20114581
50	0xbe19016a	-0.14941946
51	0x3e8f7ac5	0.28023353
52	0xbe3320d5	-0.17492993
53	0x3e0ab5d9	0.13545932
54	0x3e5c4b1b	0.21513025
55	0xbe4ba6e3	-0.19887881
56	0xbe334fb0	-0.17510867
57	0xbc4d09d0	-0.0125145465
58	0x3c7e4a70	0.015520677
59	0x3aa1499e	0.0012305265
60	0xbde94bff	-0.11391448
61	0x3e13acc8	0.1442138
62	0x3de787e7	0.11305218
63	0x3e53d0d0	0.20685124
64	0x3ef0b43d	0.4701251
65	0x3dd49bbd	0.10381267
66	0xbdbab1e0	-0.09115958
67	0xbd8b5e7b	-0.0680513
68	0x3e843538	0.25821853
69	0x3e542c24	0.20719963
70	0xbe0abd81	-0.13548853
71	0xbe2a0df5	-0.16606887
72	0x3e260bbf	0.16215418
73	0x3df84cf2	0.12124051
74	0x3c2ee0fb	0.010673757
75	0x3e55ddea	0.20885435
76	0x3e03ea6d	0.12882395
77	0x3eced247	0.40394804
78	0xbc6fd914	-0.014639158
79	0x3dfaaff8	0.122405946
80	0x3e45a500	0.19301224
81	0x3e2adce0	0.1668582
82	0x3edfd054	0.4371363
83	0x3dfbebde	0.123008475
84	0x3deeca25	0.1165965
85	0x3e803eac	0.25047815
86	0xbddb9b42	-0.107229725
87	0x3da2d39f	0.0795052
88	0x3e21b072	0.15789965
89	0xbe552b64	-0.20817333
90	0x3cb15b8d	0.0216501
91	0x3e4db9d3	0.20090418
92	0x3d621fef	0.055206235
93	0x3e128ab1	0.14310719
94	0xbdb8f763	-0.0903156
95	0x3e6ed4a7	0.23323308
96	0x3de0ddea	0.10979827
97	0x3e3e8bc0	0.18607998
98	0x3e29dd6e	0.16588375
99	0x3e92a24b	0.28639445
100	0x3db2d3b2	0.08731784
101	0x3d06d933	0.03292198
102	0x3e3bba33	0.18332748
103	0x3df8ffe9	0.12158186
104	0x3de319d0	0.11088908
105	0x3dfef324	0.12448719
106	0x3d77c398	0.060489267
107	0xbe2792d5	-0.16364606
108	0x3e8a1aa4	0.2697345
109	0xbe169625	-0.14705713
110	0x3df78bb6	0.120871946
111	0x3e9fa0f1	0.31177476
112	0x3e8158d9	0.25263098
113	0x3debe776	0.11518757
114	0xbe523a05	-0.20529945
115	0x3e4791b5	0.19489177
116	0xbd19275d	-0.037391055
117	0x3eae71f9	0.3407133
118	0x3e5162f4	0.20447904
119	0xbe167df9	-0.14696492
120	0xbe391077	-0.18072687
121	0xbd231f04	-0.0398245
122	0xbea2bdde	-0.31785482
123	0xbe8288b0	-0.2549491
124	0xbe2a75e8	-0.1664654
125	0x3df06041	0.11737109
126	0x3d249490	0.040180743
127	0xbe344a64	-0.17606503
128	0x3e1c5d2c	0.15269917
129	0x3e924c34	0.28573763
130	0x3e8147d7	0.25250122
131	0x3dd90726	0.105970666
132	0x3e0ed8a4	0.1394983
133	0x3e1f7ddf	0.1557536
134	0xbec07493	-0.3758894
135	0xbe0f3fff	-0.13989256
136	0x3e361d79	0.1778468
137	0x3e0a1600	0.13484955
138	0xbecb03cf	-0.39651343
139	0x3e7541c1	0.23950864
140	0x3e87ab5f	0.26497933
141	0x3d67c606	0.056585334
142	0xbd985c66	-0.074394986
143	0x3dbdc40f	0.09265911
144	0x3e8158a9	0.25262955
145	0x3cceefde	0.025260862
146	0xbd3d4346	-0.046206735
147	0x3d4cc4a6	0.049992226
148	0x3dd33b84	0.10314086
149	0x3e673c99	0.2258171
150	0xbe8b72cc	-0.2723602
151	0x3e16d287	0.14728747
152	0xbd83d7d9	-0.06437654
153	0xbbc552f0	-0.00602185
154	0x3e3ead4e	0.18620798
155	0x3e156565	0.1458946
156	0xbd891d50	-0.06695044
157	0x3e5492ae	0.20759079
158	0xbeacc445	-0.33743492
159	0xbd7be2eb	-0.061495703
160	0x3d9c6f4e	0.07638417
161	0x3e8e90a9	0.27844742
162	0x3e8a6bca	0.27035362
163	0x3f047319	0.51738125
164	0xbddd7461	-0.10813213
165	0x3e3f2f28	0.18670332
166	0x3e84d2b0	0.25941992
167	0x3ea13bf3	0.3149105
168	0x3da8c0ce	0.082398996
169	0x3e4a94d6	0.19783339
170	0x3df9f4a2	0.12204863
171	0x3c80c116	0.01571707
172	0x3e023356	0.12714896
173	0x3ba88a9a	0.0051434757
174	0x3ddfbbcc	0.10924491
175	0x3ee2a0ff	0.44263455
176	0x3ec3bf38	0.38231826
177	0x3c3efff0	0.0116577
178	0xbe0063b1	-0.12538029
179	0x3e88291b	0.2659386
180	0xbe61baaa	-0.22043863
181	0xbdeae144	-0.11468747
182	0x3e59f19d	0.21283574
183	0xbe232a06	-0.15934
184	0xbe4a4f52	-0.19756821
185	0xbbb4edb3	-0.0055215
186	0xbe3e4b20	-0.18583345
187	0xbe848e14	-0.25889647
188	0xbebffaf7	-0.37496158
189	0x3e5e7be5	0.2172695
190	0xbee1e2d7	-0.44118378
191	0xbeac99c5	-0.33711067
192	0x3f01f372	0.50762093
193	0x3e45c1f4	0.19312268
194	0x3d6ce371	0.057834093
195	0xbe0bbbd3	-0.13645868
196	0xbcb20e67	-0.021735383
197	0x3ea119ee	0.31465095
198	0xbe92f779	-0.28704432
199	0xbd89ca57	-0.067280464
200	0x3ead6f26	0.33873862
201	0x3e35a40b	0.17738359
202	0x3ccf9ced	0.025343383
203	0x3db82aa9	0.08992512
204	0x3e90a110	0.2824788
205	0x3de5cc46	0.11220603
206	0x3d32aab0	0.04361981
207	0x3d8f1fc8	0.06988484
208	0x3ec17e03	0.37791452
209	0x3e0955ea	0.1341168
210	0x3ecafe31	0.39647058
211	0x3e45340c	0.19258136
212	0x3d80b7a9	0.062850304
213	0x3e816488	0.25272012
214	0xbe14a2a9	-0.14515175
215	0x3db5e1e0	0.08880973
216	0xbe5beee9	-0.21477856
217	0xbee3854b	-0.44437632
218	0x3e634755	0.2219518
219	0x3e9aa969	0.30207375
220	0x3e7f748d	0.24946804
221	0xbc7170a6	-0.01473633
222	0x3dab4dde	0.08364461
223	0x3e058ce5	0.13042028
224	0xbd9ef39c	-0.077613086
225	0x3e68a072	0.22717455
226	0xbd4b35c0	-0.049611807
227	0x3e3b33e7	0.18281518
228	0xbd625c94	-0.05526407
229	0x3d981c2d	0.07427249
230	0x3e735acc	0.23765105
231	0x3ecae457	0.39627334
232	0xbd9d5b9f	-0.07683491
233	0x3e45c385	0.19312866
234	0x3e21963f	0.1577997
235	0xbeb9778a	-0.36224014
236	0x3ea08de2	0.31358248
237	0xbe21dd9c	-0.15807194
238	0x3deb284c	0.114822954
239	0xbccebac4	-0.025235541
240	0x3da4f19a	0.08053894
241	0x3d705044	0.058670297
242	0x3e13127b	0.14362518
243	0x3e5d925b	0.21637861
244	0xbf2f6d98	-0.685266
245	0x3ed53ac7	0.41646406
246	0x3de43e2e	0.11144672
247	0xbcf90ffe	-0.030403133
248	0xbe4fdb36	-0.20298466
249	0xbd9fde0b	-0.07806023
250	0xbf3d0007	-0.73828167
251	0xbf01779e	-0.50573146
252	0xbe7083a5	-0.23487718
253	0x3d905836	0.07048075
254	0xbe8a4da1	-0.2701235
255	0x3d6b3813	0.057426523

fc3.bias f4 [4]
0	0x3e967809	0.29388455
1	0x3e70334e	0.23457071
2	0x3e18abcd	0.14909287
3	0x3e260498	0.1621269
