Project_1-Navigation/checkpoint.pth (torch_old, 28333 bytes, 6 tensors)

fc1.weight f4 [64, 37]
00000000: b56c 823c ec3d af3d 2bc5 99bd 0d65 68bd
00000010: ac0d 643d ffbb 453e bf9a 0dbe 1571 fb3d
00000020: bf90 81bd b2ee 6fbe ea6d 3ebd d8a8 dabc
00000030: 1212 40bd c9de 2abd 2acc dc3b 876f dabc
00000040: 4c8f 2e3e 4e4f 913d 1be6 1c3d 602f 183e
00000050: cf74 143e 3d87 f53d 9790 4b3c f828 ab3d
00000060: a9a2 2f3c 944e 903d 95d9 bf3d 63db 99bd
00000070: fe72 8fbc 811a 24bd b6e8 373b 19bc 373e
00000080: e1b2 61bd 7b28 fabd bc1b acbd fa06 0fbe
00000090: fb72 93bd 5fd6 543e 84bc a63d 0345 163e
000000a0: 8966 933d 1211 6fbc 63cd 073e 49e8 2cbe
000000b0: e6c9 c3bd 6dd1 61bd 426e 77bd 8d32 b43d
000000c0: f424 bebb be26 a03d ed37 333e 8138 083e
000000d0: 42de 2b3e 247a 323d 08d9 033e 4842 a2bd
000000e0: e94e 2d3d bff0 0cbd 2235 84bd 7b36 7dbd
000000f0: 24b3 3e3d 8f6c a93d 63ef cf3c 212c 183d
00000100: 1aed c83d eae3 e9bc 54c6 59bd b6d4 8d3d
00000110: dfd4 2c3e d65c 543e 2d26 78bd ef88 9b3b
00000120: 4421 193d c8f1 d63d 609e 093d 22e8 183e
00000130: de25 3c3e 04fb 24bd fc76 07be 2948 64be
00000140: f5db bf3d 2a30 7e3e 9506 873d 1ddb 1dbe
00000150: bb4e 873d 7bd8 96bd 7a72 063d 2307 203d
00000160: 96ab 913d 99d4 3dbe 661c 283e f722 573e
00000170: acb6 d3bb d15c e1bd 2f7d 53bd c29d e8bc
00000180: b4ed 703d c5e6 e73c dbc5 853c e42a 1abe
00000190: 99bc 3f3e 7d58 813e 78bc c9bd c809 3cbe
000001a0: 2e7a 50be d3ad e0bb 4efd 1f3d 0cfb 00be
000001b0: 0af3 05bd 7918 18bb 9543 88bb c6bc 043e
000001c0: e81e fabd 4af6 023e a395 b73d 146b d4bd
000001d0: fc33 de3d 1e68 32be 15c9 87bb 7ffe 26bd
000001e0: 7683 69be b2e8 c53c 2d4b bdbd d670 383d
000001f0: c8a1 31be 1a8d 81bd 4c21 753d 8159 b4be
00000200: 6507 e1bd 6f70 a8bd 3b4c bc3d f0e9 093d
00000210: 75c8 b3bd c4c6 173d a9dd ae3d 9c39 1abc
00000220: 529e e83d 9c5e 64be 0ef5 4b3d cdbe 173d
00000230: c7f1 a83e bcf7 043e aa2e 2a3e 1723 f63c
00000240: 41b4 73be 299a 1ebe 35ed bb3c 836b 133d
00000250: 9bee c8bd d664 3bbe 5993 07be 506d e1bd
00000260: bdb5 7e3d e28f fb3d 2725 363c acd4 06be
00000270: f383 5c3b 1c1d 593b 4ddb 00bd 06ec c2bd
00000280: 7507 80bd 7873 bdbc a797 1fbe 5582 49be
00000290: be31 a4bc 268e 26bc 9449 bbbc db23 2f3e
000002a0: 12b9 7bbd 551e 4abe 3164 613d 8a6b 74bc
000002b0: efe0 833e 113c a6bc c767 85bd f973 d93d
000002c0: 9eca b8bc 215c a53d 4e83 fb3d 099a 8cbe
000002d0: adb1 453d 953d 0b3d 325f da3e 7a95 d9bc
000002e0: 35b4 6f3d 0030 633d 5d66 293b 9354 25bb
000002f0: a8d6 79bd 253f 103e a0ab 6d3e 80c8 df3d
00000300: 28a3 90be 2620 383d 7741 2cbf a8b0 84bd
00000310: 72dd 9ebd 921a 733d 6927 b73b 2260 8e3d
00000320: 7318 063c ca72 073e 032a 84bd 983e 4abd
00000330: d27a dfbb ac21 ea3d c647 2c3d 5c3a 193e
00000340: a3e5 e53d f9ee 163e 35ee 223d dd80 0cbd
00000350: 5e19 eb3c f1de d53d f3cd 513c cbb3 933d
00000360: 198d edbd a865 68bd c74a 1c3e 5fb2 66be
00000370: 9748 923a 835e 0e3e c374 b83c cc6d c6bc
00000380: 17a9 05be b79a d53c 061b 7fbd 47e8 92bd
00000390: ba4c 8ebd 8af0 98bd b440 c73b 8392 423e
000003a0: 4e53 f1bc 752a f13d 9935 be3c 3ad5 e4bc
000003b0: 2f3f bd3c 24be 1fbe 0784 eebd 247b 533d
000003c0: 21ed 6f3d 059e c53d e886 e5bc 7097 efbc
000003d0: 3e97 133b 82f3 f8bd e518 023e d48c 08be
000003e0: 42df 8d3b 6124 85bd 02cf 10be c8db b13d
000003f0: d41a 9a3d 8cfd 9abd 2586 76bd 1275 8dbd
0.015920976 0.085567325 -0.0750831 -0.056736995 0.0556771 0.19309996 -0.13828562 0.12277428
-0.06326436 -0.23430899 -0.04649154 -0.02669184 -0.046892233 -0.04171637 0.0067382054 -0.026664509
0.17046851 0.07095204 0.038305383 0.14861822 0.14497684 0.11988685 0.01242461 0.083574235
0.010719934 0.070462376 0.09367672 -0.07512548 -0.017510887 -0.04006434 0.002806229 0.17942847
-0.055102233 -0.12214752 -0.084037274 -0.13967505 -0.07199665 0.20784901 0.08141425 0.14674763
0.071972914 -0.014591472 0.13261943 -0.16885485 -0.095599934 -0.055131365 -0.060407884 0.08798704
-0.005802745 0.078198895 0.17501803 0.13302805 0.16784003 0.043573514 0.1287576 -0.079227984
0.042311583 -0.03440928 -0.06455447 -0.061819535 0.04655756 0.08272659 0.025382703 0.03715146
0.098108485 -0.02855106 -0.053167656 0.06925337 0.16878079 0.20738539 -0.060583282 0.0047465484
0.03738524 0.10495335 0.033598304 0.14932302 0.1837382 -0.04027845 -0.13228983 -0.22293152
0.09368125 0.2482306 0.06593052 -0.15415616 0.066068135 -0.07365509 0.032824017 0.039069306
0.071128055 -0.18538131 0.16417083 0.21009432 -0.006460985 -0.110040314 -0.051633056 -0.028395537
0.05882044 0.028308282 0.016329696 -0.15055424 0.18724288 0.25262824 -0.09850401 -0.18363106
-0.20359108 -0.006856659 0.03905993 -0.12595767 -0.032702483 -0.0023207946 -0.004158447 0.12962636
-0.12212926 0.12789264 0.08964088 -0.10371986 0.10849759 -0.1742253 -0.004143844 -0.04077005
-0.22804055 0.02415881 -0.09242854 0.045029484 -0.17346871 -0.06325741 0.059846207 -0.35224536
-0.109877385 -0.0822457 0.09194227 0.033670366 -0.087784685 0.037054792 0.08538372 -0.009413149
0.11358322 -0.22301716 0.04979425 0.037047196 0.3299696 0.12985128 0.16619363 0.030046029
-0.2379923 -0.15488495 0.022940258 0.035991203 -0.098111354 -0.18300185 -0.13239802 -0.11007178
0.062185038 0.12283303 0.011117256 -0.13167065 0.0033647984 0.0033128923 -0.03145914 -0.09517674
-0.06251422 -0.023126349 -0.15585195 -0.19678624 -0.02004325 -0.010165727 -0.022862233 0.17103522
-0.061455794 -0.19738133 0.05502719 -0.014918217 0.25757548 -0.020292314 -0.065139346 0.10617823
-0.022557553 0.08074213 0.12280904 -0.2746127 0.048265148 0.033994276 0.42650753 -0.026560534
0.05852147 0.0554657 0.0025848367 -0.0025227412 -0.060995728 0.14086588 0.23210001 0.10926914
-0.28249478 0.044952534 -0.6728739 -0.06479007 -0.07757081 0.05935151 0.005589415 0.0695193
0.00818454 0.13227382 -0.064533256 -0.0493761 -0.0068200612 0.11432204 0.042060636 0.14963669
0.1122544 0.14739598 0.039777953 -0.03430258 0.02869862 0.10442913 0.01280545 0.07212027
-0.11599178 -0.056737572 0.152629 -0.2252898 0.001116055 0.13903241 0.022516614 -0.024222277
-0.13052784 0.02607475 -0.06228163 -0.0717321 -0.06948228 -0.07467754 0.0060807113 0.19001202
-0.029458668 0.11775676 0.023218917 -0.027933706 0.023101417 -0.15599877 -0.11646276 0.051631108
0.058575753 0.096492805 -0.02801843 -0.029247016 0.0022520567 -0.121558204 0.12704809 -0.13334972
0.004329593 -0.06501079 -0.14141467 0.08684498 0.07524648 -0.075678915 -0.060186524 -0.06907095

fc1.bias f4 [64]
00000000: 8df6 4b3e cf87 7f3d 0590 9fbd 56c8 a1bc
00000010: a45c 093e f647 683c 4d75 e4bd fd91 af3d
00000020: 083e d13d 719c 3abe de88 953e 1a0b 513e
00000030: f77c f83d be11 2e3e 781e 4abb cce2 b93c
00000040: 2bc2 e53d ac41 07bc 6120 bb3d 1191 1abe
00000050: c31c 8abd 814d dc3d 5ef7 983d 2e76 84bd
00000060: fc96 e9bd 924c 293e 8780 bc3a 0615 13be
00000070: 793c 233e 9ce0 1d3e 8f1a 64bd 697c 1abe
00000080: 8200 263e e20a 803d 5c52 b13b 0457 4a3d
00000090: cadf 6f3d 54ab 303d ecba 05bd 680f c9bd
000000a0: 63c8 57bd 2565 56bc 1e8a dabd 0246 7a3e
000000b0: 3bd5 993d 5848 e7bc 0f62 063d dbfd d4bd
000000c0: 01a7 08be 8935 413d fdc6 f1bd c163 8e3d
000000d0: 2b47 7ebc 5193 c43a 0775 1fbe a5a8 0a3c
000000e0: b554 093e 7b77 c13c c369 d1bd 145a 41bd
000000f0: 0afd 5b3d 1ffc b03d 8b4b d23d 264b 5a3d
0.1991827 0.062385377 -0.077911414 -0.019748848 0.13414246 0.014177313 -0.11155186 0.08572767
0.1021691 -0.1822374 0.29205984 0.20414391 0.1213321 0.16998956 -0.0030840915 0.022691153
0.11218675 -0.0082554035 0.09137035 -0.15094401 -0.06743767 0.1075697 0.074690565 -0.064678535
-0.11405751 0.16533116 0.0014381566 -0.14363489 0.15941037 0.15417713 -0.05568939 -0.15086521
0.16211131 0.06252076 0.0054114293 0.04939939 0.05856303 0.04313214 -0.032648966 -0.09817392
-0.052681338 -0.013085638 -0.10670875 0.24440768 0.075113736 -0.028232738 0.03280836 -0.103999816
-0.13344957 0.047170196 -0.11805532 0.0695262 -0.015519897 0.0014997517 -0.15571986 0.00846306
0.1341122 0.023616543 -0.102252506 -0.047205046 0.053708114 0.08641838 0.10268315 0.053294323

fc2.weight f4 [64, 64]
00000000: bce2 b33d 4a2b 923d 8434 7e3d 2125 ab3c
00000010: d683 8d3d e04b a4bd d488 fabd 5b3d 16bd
00000020: 5e87 ef3c e0b5 ecbc ad18 f33c fe54 01be
00000030: bfd0 15be b7b7 f03d ed90 bf3d 6fff 80bb
00000040: c596 52bd 558b bcbd bcdb a1bb c70e c13c
00000050: d060 72bd d81a f8bc fa95 853d f79b 23bc
00000060: 3703 ecbd 1289 27bc dc90 cf3d bfa9 0e3d
00000070: 7a25 cc3d 8681 c6bd 822c da3d df6f 99bc
00000080: 8a3b f13d 2176 653c bc95 b93d e145 813d
00000090: 9a90 32bd b3d3 f53d 2b9a 963e 1bb8 eebd
000000a0: 7f58 8dbe d9a2 8fbc 46a2 ca3d 695a fa3b
000000b0: 07aa 5e3d 3b6f 9ebd 5b08 adbd 12dc f03d
000000c0: ba21 6a3b 3b27 d0bd c33b 87bd d44e a43c
000000d0: 8240 b2bd 06e6 38bd 3458 9b3d bd9b 2fbd
000000e0: 4d8a fe3b 5fe6 debc 2633 87be c94a e23d
000000f0: 9f3f f13d d478 e73d 186a 84bd 189a 283e
00000100: a6d4 6f3d 4218 d53d e8d9 0dbe 11be 8f3d
00000110: b6cf 663d 1ffc c43d df03 dcbd c6ba b33d
00000120: e677 6bbd 8b05 edbd 24f9 d23c d50f 1e3e
00000130: 343f 95bd dc70 f53d 7300 b2bd a080 993d
00000140: 2fd9 943d 3a98 653d db8a 9fbd 2cbd abbd
00000150: 8c6c de3c 2173 b9bd 35de 783d 270d d2bc
00000160: addf 6d3b eea3 a73d 699a 0fbe 83f4 82bd
00000170: ced5 723d e03d bd3b a5c2 85bd df30 c1bd
00000180: 7dea a4bd 41c6 f83d 5b7c b13d afb5 54bd
00000190: c81b f83c 9fac 343d bb36 a53e ebde 23be
000001a0: 7e4b 2d3d d793 cd3d 7e6e 28bd e289 91bd
000001b0: 3f04 513c 6d27 74bd db00 01be 3668 85bd
000001c0: 16ae d6bd 604c 6bbd 5dcb b43c b69f d33d
000001d0: d20e ebbd 008e 84be 7253 babd d279 143d
000001e0: 1068 adbd 07d5 143d 786c e93d 0d26 0d3e
000001f0: f385 f9bd 113e 873c 5eca 26bd ac50 fb3b
00000200: ee0d 64bd 1427 72bd 19ee ba3d d78b f0bc
00000210: c9e1 1a3d f4c3 3a3d 3dbd bcbd 3064 573c
00000220: ef2d fa3d f8ed 88bd 9b72 973d f9bb 833d
00000230: 4fc5 883d 31e6 303e 58b1 9c3d e536 a13c
00000240: 9584 bebd b09d c63d 3adb ae3d 2510 28bd
00000250: 8b12 92bd 34d4 dc3d bdc5 4f3d 2aad 0d3d
00000260: 0d49 ae3c 7446 003e dd1e a53d 682d 433c
00000270: ec84 003d dc2a 673e 5551 d03c f2ab 53bc
00000280: adc6 adbd 1937 43bd ccec adbd 09e0 c23d
00000290: 6291 1b3e 329a f23d 34a5 973e 5e9c 903a
000002a0: 85d9 2c3e 495b 4ebc be58 8bbd c888 9fbd
000002b0: 4b48 503c 02d9 153d b843 3fbc e18a 89bd
000002c0: 9346 28bd 8e25 0ebe 9904 883c b85a 8d3d
000002d0: 95fc 10be 6f55 6bbd 2803 35be 4b13 42bd
000002e0: 7ad6 c73c 0958 27bb 794c 9c3d 324b 1a3e
000002f0: 4a6d 8fbd bbf7 1a3e 540c 3c3d 6c8c 333e
00000300: 0549 b7bb 1dd7 c0bd b5ef bc3d 6511 0a3d
00000310: c27e 143d e098 633b a7cc 3bbd 8076 c9bc
00000320: 252e 0fbe a7a8 423b e861 1a3d 3c51 6f3d
00000330: 1d9d babc 5624 8a3d c9a5 933d 3e14 41bd
00000340: 51b6 3bbd 4119 6fbc c58e 89bc 667c a4bd
00000350: bd70 0a3d 6b67 993d b5a3 3dbc bb00 353d
00000360: 8c4f 313d 49d2 a03d 13f4 043e f96f a63d
00000370: 7e96 0b3e 8e71 5cbe 361d 673e 01a3 a33b
00000380: c133 c0bc a922 0fbd c259 c93d a7d5 da3d
00000390: 2df6 d2bd 1f90 fcbb 4efe b03e 0ae1 01bc
000003a0: 5478 f2bc 8f9b 313d eccb 1b3d 056a b5bd
000003b0: 1278 3d3d 38df e73c 96e2 023d 6ebf d73b
000003c0: 9ac4 a4bb 4a4b 2f3d 5fd4 29be c654 6d3b
000003d0: b9fe e83d e184 97bd 8bfb 20bd fe07 983d
000003e0: 2fff f4bd 5269 58bd 3510 42bd 14c2 0e3e
000003f0: e03e 96bd 3e67 90bd c740 e4bd b387 00be
0.087834805 0.07137163 0.0620618 0.020891728 0.06909911 -0.080222845 -0.12233129 -0.036679607
0.029239353 -0.028895319 0.029674852 -0.12630078 -0.14630412 0.11753791 0.09353814 -0.0039367
-0.051413316 -0.09206263 -0.0049395245 0.023566617 -0.05917436 -0.030286238 0.065227464 -0.009985915
-0.11524051 -0.010225551 0.101350516 0.03482985 0.099680856 -0.096926734 0.106530204 -0.018730102
0.11778934 0.014005215 0.09061763 0.063121565 -0.043594934 0.12003269 0.29414496 -0.11656209
-0.2760658 -0.017533707 0.098942325 0.0076401723 0.05436137 -0.07736059 -0.08448859 0.11760725
0.003572567 -0.101637326 -0.066031955 0.02005712 -0.0870371 -0.045141242 0.07585183 -0.042873133
0.0077679516 -0.027209459 -0.2640621 0.110494204 0.11779713 0.11302343 -0.06465548 0.16465032
0.058552407 0.104050174 -0.13852656 0.07018674 0.056350432 0.09618401 -0.10742926 0.087758586
-0.05748739 -0.11573323 0.025753565 0.15435727 -0.07287446 0.11984417 -0.08691492 0.074952364
0.07267987 0.056053378 -0.077901565 -0.08385691 0.027151369 -0.09055162 0.06075879 -0.025641037
0.0036296651 0.08185564 -0.14023747 -0.06394293 0.05928593 0.0057751983 -0.06531266 -0.094331495
-0.080525376 0.12147189 0.08666297 -0.05193108 0.030286685 0.044109937 0.3226832 -0.16003005
0.042308323 0.10037964 -0.041121 -0.07106377 0.01275736 -0.05960791 -0.12597983 -0.06514017
-0.10482423 -0.057445884 0.022069627 0.10333197 -0.11477436 -0.25889587 -0.09097947 0.03624899
-0.08467114 0.03633597 0.11397642 0.13784046 -0.12183752 0.016509088 -0.040720336 0.007669529
-0.055677347 -0.0591193 0.09127445 -0.029363556 0.03781298 0.04559703 -0.09215782 0.013146445
0.122157924 -0.06686014 0.07394906 0.06432337 0.06678259 0.17275311 0.07651013 0.019679496
-0.09302632 0.09698045 0.08537908 -0.04103102 -0.07132443 0.10782662 0.050725687 0.03458897
0.021275068 0.12526876 0.08062527 0.011912681 0.031376764 0.22574943 0.025429407 -0.012919413
-0.0848516 -0.047659967 -0.08492431 0.095153876 0.15192178 0.11845817 0.29618227 0.0011032929
0.16879852 -0.012595006 -0.068040356 -0.07789761 0.0127125485 0.036583908 -0.01167386 -0.06715942
-0.04108293 -0.13881513 0.016603755 0.06902069 -0.14158852 -0.057454523 -0.17676985 -0.04738168
0.024394263 -0.002553465 0.076317735 0.15067747 -0.07003267 0.15133564 0.045910195 0.17534035
-0.0055934214 -0.094160296 0.09225408 0.033707995 0.0362537 0.0034728572 -0.04584947 -0.024592638
-0.13982446 0.0029702575 0.037691027 0.05842708 -0.022779996 0.06745212 0.072093554 -0.047138445
-0.045828167 -0.014593423 -0.01679171 -0.080315396 0.03379892 0.074904285 -0.011574675 0.04419015
0.043288752 0.07852609 0.12983732 0.08126826 0.13631627 -0.21527693 0.22569737 0.004993797
-0.023462178 -0.034945164 0.09831573 0.10685282 -0.103008606 -0.0077076103 0.3456902 -0.007927189
-0.029598393 0.043361243 0.038036272 -0.08858112 0.046257086 0.028304681 0.03195437 0.0065840995
-0.0050283195 0.04279641 -0.1658492 0.003621386 0.113767095 -0.073983915 -0.03930239 0.074233994
-0.11962735 -0.052834816 -0.047378737 0.13941222 -0.07336211 -0.07050942 -0.11145168 -0.12551765

fc2.bias f4 [64]
00000000: 713e 943a 23dd 2dbc 98ed 0e3e 3349 483d
00000010: 5174 f83d e1c6 22be e7b5 37bd 6d32 4f3d
00000020: 75ff c43d e80c 473e 631d 28bd d0cc 393e
00000030: dc04 ee3d 261d 40bd 76c5 3dbd ea9f 533d
00000040: 283d 02bc 7152 523c 53b1 2cbd 2947 1f3e
00000050: 4eaa 193e 28a0 7d3e 0a0e c8bd ff44 9dbd
00000060: d131 a2bd 5099 76bd 2fff ad3d d358 77bd
00000070: 4039 34ba a646 f33d ddb1 bf3d 0902 d7bb
00000080: a53f 2f3c 8a24 8d3d f6fb a83d 5fe5 11bd
00000090: c87e 95bd 8ec8 02be 6cf7 393e 3805 18bd
000000a0: 6212 bbbd 3b52 7d3e 96d1 e53d c8fc 16bd
000000b0: a1d3 6b3d 2a70 a1bd 8ae4 3b3d 95e9 88bd
000000c0: 83cc ae3d 1654 9bbd 65d2 61bd 2dd0 423e
000000d0: 83c4 a0bd 4855 a9bd 064e e23d 30d9 85bd
000000e0: b9ac 43be ed31 f0bd e300 163d 40f3 1abd
000000f0: 6c3f 273d 927a 073e 177a d03d f357 28bd
0.0011310113 -0.010611805 0.13957822 0.048897933 0.121315606 -0.15896179 -0.04485121 0.0505852
0.09619037 0.19438517 -0.04104365 0.18144536 0.116220206 -0.046902798 -0.04633089 0.051666178
-0.007949151 0.012837038 -0.042161297 0.15554489 0.15006372 0.24768126 -0.09768303 -0.076791756
-0.07919658 -0.060204804 0.08495938 -0.060387444 -0.0006874986 0.118787095 0.093600966 -0.006561522
0.010696326 0.06891735 0.08251183 -0.035619136 -0.07299572 -0.12771818 0.1816079 -0.037114352
-0.091343656 0.247384 0.11221616 -0.036862165 0.057574872 -0.07882722 0.04587225 -0.06685177
0.08535101 -0.075843975 -0.05513229 0.19024725 -0.07849982 -0.08268219 0.11050038 -0.06535566
-0.19108857 -0.117282726 0.03662194 -0.037829638 0.04083197 0.1323035 0.10179537 -0.0410995

fc3.weight f4 [4, 64]
00000000: f5d1 043e 320c 263e a62f f63d 19bd 45bc
00000010: ea7b 0f3e 69ea 18be 3ae7 f93d 88ff aebd
00000020: d62d af3d fac6 093d 09fa c6bd 5663 933e
00000030: 8cd8 9c3b e9cb b83d 2863 31bd 750e b2bc
00000040: d40f e9bc 0ae1 4e3e 5415 b23d 7fe8 073e
00000050: 71d1 ab3d f28e 823d 9bcc dc3c b03c 40be
00000060: 190b cabd 152b 04be ede7 46bd c688 23be
00000070: 9718 0f3e 1d5f 493e fded 37be 38a7 f33d
00000080: ae17 1d3e aebb a53e 65a3 9b3d 61ca 1a3d
00000090: 6e67 9c3e ea74 02be 5126 d93d 74c1 9c3d
000000a0: de6a 633e fdce 5b3d 9a9e 5c3d ea4f 433d
000000b0: 8837 163e 8a87 883a e25b f23d 12fd 5f3e
000000c0: 6df4 37bd 3337 1f3e 4d5c ea3c deda 003e
000000d0: 5abb 2b3c 94a6 23be 7495 9f3d b22f 45bb
000000e0: 6542 b4bd ec35 c3bd c75f 373e 0160 d93d
000000f0: 421d 8abd 4161 103e c41a 71bd a756 8f3e
00000100: f274 513e bf82 f83d 46fc 263e c47c ec3c
00000110: ecc6 4a3e f77a 46bc 0e61 a13d 5de9 c1bc
00000120: cf9b 63bd 7b78 773d 8fed 973d d35b 483e
00000130: cbeb 22bd ff93 623d 0870 17be c3b1 1f3d
00000140: 5a19 ebbd 2872 3d3e cee8 e4bd 544a 9d3d
00000150: f1d5 df3d 4f28 2b3e 3cbf 3abd c69f 08bd
00000160: 2a2f 743c da04 40be f46a 803d b88e 073c
00000170: 9e66 c33c a67b 4b3e 19c5 3fbd 885f ee3d
00000180: 670e 983d f40b 823e 2a3f 253e 6791 813b
00000190: cc6b 003e 116a 01be 186a 233e 641b b33d
000001a0: 3574 e43d 6925 bf3d da89 94bc b26c 573d
000001b0: cab1 2e3e bd63 63bd 6a00 f03d de6b 9dbb
000001c0: 5177 163d b3ec c23c d630 a03d 8a30 193d
000001d0: 1da0 8f3d 0161 75bd 3ee1 b13d 3df1 2ebc
000001e0: 15c3 c7bd 34ac 4ebd fa0e 933d a8e0 ea3c
000001f0: e402 d1bd 6a30 27bd 0a7b cbbd 39cd 363e
00000200: 8ecd 063e 7416 003e 95b9 303e 5836 443e
00000210: 706b 9d3e 7789 2ebd b333 7d3e d185 2b3d
00000220: eeb6 d43c d33a a53d cefb debd 6cfe 3a3e
00000230: a688 343e 701b 12be 83ab 6ebe 039b 113e
00000240: 9cb1 003d 7c63 2a3d 6a0a b7bd 2c51 583d
00000250: 292e 743d 20f5 3f3e a100 bcbd de84 a83d
00000260: 1bc3 933d 2db5 cfbd c1e8 003d baf0 61bb
00000270: 89fe ac3d 9c79 153e 543a 5c3d 4ad4 7ebc
00000280: 64ad 5cbc b9e2 823d 7f75 123e d5a6 523e
00000290: c1bd 913d bac5 edbd 6f67 d43d 69fa 06bc
000002a0: 2b61 963e 015c cb3d 430a dd3d 70bd f43c
000002b0: 3b9a 383d ba6a 1fbd b11c f03d 7632 bd3c
000002c0: ce0e 023e 2d87 5c3d 30f9 a33d 42af 363e
000002d0: 87cc 21be e1bf 1dbd 8e7e a03d 155b 003d
000002e0: 73ad f1bd 0560 7cbd 4fcf 013e e21b 853d
000002f0: f2b7 0dbe 3ba4 f23d 1039 d6bd 4721 283d
00000300: af8a f23d cf83 113e b3eb 1d3d 6f80 cabd
00000310: a04a d23d 9404 bbbc ba2e 023b b16f 7a3d
00000320: 8cba bc3d f11f 1f3e 901d 903d 0f44 8b3d
00000330: 1781 fc3d a11d 893c 2979 67b9 c8dc eebc
00000340: 83a3 f03d 70ca 3e3e 148c 853d b2bf 063e
00000350: d10c 523c f1db 163e b5c3 2bbd 484a ef3d
00000360: 7233 423d 6ff4 57be 9210 40bd beea 8e3c
00000370: 0a9e 4b3e 3179 993b 503d 17be 061d d83d
00000380: f45f d13c 8720 893e 4aea ffbc 5f0e 05be
00000390: a2d8 393d 5e8e 80bd d691 2e3e d23e 5b3e
000003a0: 771d 3abd 0b8c 1a3e c3b5 333e f8ed 14be
000003b0: 60c6 d53e 7c60 08be 4db3 c63d 9488 f13c
000003c0: b1f8 2e3d 0b80 1dbd 4472 8c3e d7c0 2d3e
000003d0: 8d6e 92bd 164d 1fbd c0f5 a03d af7a 363e
000003e0: 19ce 9ebd c412 07be f1c0 c1bc 278f 40bd
000003f0: 3247 04be 853c aa3a e455 27bd 3527 ca3d
0.12970717 0.1621559 0.12020807 -0.01206901 0.14012113 -0.1493317 0.12202306 -0.085448325
0.085536644 0.033637024 -0.09715659 0.28786725 0.0047865566 0.09023268 -0.043307453 -0.02173541
-0.02844993 0.20203033 0.08695474 0.13272284 0.08389557 0.06374921 0.026953032 -0.1877315
-0.09865398 -0.1290706 -0.048561025 -0.15970144 0.13974224 0.19665189 -0.17961879 0.11897129
0.15341064 0.3236975 0.075995244 0.03779066 0.3054766 -0.12739912 0.106030114 0.07654086
0.22208735 0.053664196 0.05386219 0.047683634 0.14669621 0.001041637 0.118339315 0.21873882
-0.044910837 0.155484 0.028608466 0.12583491 0.01048168 -0.15981513 0.07792178 -0.0030088243
-0.08801726 -0.09531769 0.1790763 0.106140144 -0.06743862 0.140996 -0.058863416 0.27995798
0.20454767 0.12134313 0.16307172 0.028868087 0.19802445 -0.012114278 0.0787984 -0.023670847
-0.055568513 0.060417634 0.074183576 0.19566278 -0.03977565 0.05531692 -0.1478883 0.038987886
-0.11479445 0.18500578 -0.111772165 0.076801926 0.10929478 0.16714595 -0.04559253 -0.033355497
0.014903823 -0.1875185 0.062704 0.008273773 0.023852643 0.19871387 -0.046818826 0.11639315
0.07424622 0.25399745 0.16137376 0.003954101 0.12541121 -0.12638117 0.1595844 0.08745459
0.11154977 0.09333307 -0.018132139 0.052593894 0.17060009 -0.05551504 0.11718829 -0.0048041185
0.036734883 0.023794508 0.07821815 0.037399806 0.07012961 -0.059906963 0.0868554 -0.010677633
-0.09754006 -0.050457194 0.07180591 0.028671578 -0.102056295 -0.040817656 -0.09935577 0.17851724
0.1316435 0.12508565 0.17258294 0.19161355 0.3074603 -0.042611565 0.24726753 0.041875664
0.025966134 0.080678605 -0.10887872 0.18261117 0.17630252 -0.14268279 -0.23307614 0.14219289
0.03141938 0.041598782 -0.08937533 0.052811787 0.059614334 0.18745852 -0.091798075 0.082284674
0.07214948 -0.101419784 0.03147197 -0.003447576 0.08446986 0.14597172 0.053766564 -0.015553543
-0.013469074 0.063909 0.14302634 0.20571454 0.07116271 -0.11609979 0.10371291 -0.008238413
0.29371008 0.09929658 0.10792973 0.029875487 0.04506896 -0.03892014 0.117242225 0.02309535
0.1270096 0.05383985 0.08006513 0.17840293 -0.15800677 -0.038513068 0.078366384 0.031336863
-0.11800661 -0.06161501 0.12676738 0.06499459 -0.13839701 0.11847731 -0.104601026 0.04104736
0.11842858 0.14210437 0.03855486 -0.09887778 0.1026814 -0.022829331 0.0019864277 0.061141673
0.092152685 0.15539528 0.070368886 0.068000905 0.123293094 0.016737761 -0.00022075012 -0.029158011
0.117499374 0.18631911 0.065208584 0.13159063 0.0128204385 0.14732338 -0.041934688 0.1168409
0.047412343 -0.21089338 -0.046890803 0.017445918 0.19884506 0.0046836366 -0.14769483 0.10552411
0.02555845 0.2678263 -0.031239647 -0.12993763 0.045372613 -0.062771544 0.1704782 0.21410683
-0.045438256 0.15092485 0.17549805 -0.14543903 0.4175291 -0.13318056 0.09702168 0.02948407
0.04271764 -0.03845219 0.27430928 0.16968094 -0.07149992 -0.038891874 0.07859373 0.17820238
-0.07754154 -0.13190752 -0.023651572 -0.04701152 -0.12917784 0.0012988007 -0.040853396 0.098707594

fc3.bias f4 [4]
00000000: a9cb f23d 768a 0e3e 5324 5fbc a942 38bb
0.11855251 0.13920006 -0.0136195 -0.0028115904
