Project_3-Collaboration and Competition/checkpoint_actor.pth (torch_old, 300759 bytes, 14 tensors)

fc1.weight f4 [256, 24]
-0.024275105 -0.03847096 0.009977973 0.015962154 0.046775047 -0.051124148 0.024360877 0.06383185
-0.017568022 0.04578818 -0.013806335 -0.0034815306 0.03617768 -0.04986366 0.028395921 -0.08421687
0.099660516 -0.053664833 0.015060101 -0.15603977 0.036956932 -0.14033501 -0.0055511864 -0.08963217
-0.043381274 -0.054989237 0.03880324 0.01222736 -0.12921365 -0.032326285 -0.031401835 -0.024515014
-0.026902674 -0.016282508 0.03466699 0.06447444 -0.004788545 0.044008736 -0.0645526 -0.0026402734
0.013273466 -0.028404232 -0.04298115 -0.012706623 -0.112915345 0.058213178 0.0073779714 0.05296223
0.010083125 0.011966189 -0.01773389 0.0031285225 0.030042335 0.05921299 0.012521591 -0.0695044
-0.068407856 -0.004260847 0.008739364 -0.037162036 0.07739469 0.00040597678 -0.0071812426 0.017938646
-0.0012377108 0.0012733316 0.020372698 0.070737556 0.105672345 0.16417713 0.01758544 0.06654256
0.04735197 -0.027453708 -0.037475895 -0.028922422 0.0073222704 -0.029569406 -0.059448894 0.01221132
0.021857025 -0.02922358 0.019613063 0.04033083 -0.036794063 -0.18950382 -0.033286113 0.026823645
-0.025093466 0.03403282 -0.06149937 0.03675435 -0.057077378 -0.1179603 0.04318637 0.007310492
-0.022071682 0.037568115 0.0048722215 -0.00023114639 0.0013052603 -0.045149993 -0.019225124 -0.07586519
0.0093452195 -0.0410396 -0.008388121 -0.13060983 -0.031115975 -0.13474582 -0.02158796 -0.03890783
-0.027427332 -0.03177178 0.001880558 -0.075881705 -0.02184288 -0.025631776 0.0619265 -0.12721914
-0.014980828 0.08435589 -0.0058925184 -0.029107142 0.005412133 -0.1591999 0.004684705 -0.09749137
-0.031534232 -0.03182793 -0.0082808295 0.005618691 -0.0023557565 -0.096334174 -0.041293442 -0.034124438
0.014420292 0.018553292 -0.0129887005 0.01070662 0.06947533 0.0014837898 0.005257539 -0.019378861
-0.0070598037 0.005467102 0.013365347 0.033692807 -0.0057256976 -0.04152809 -0.023165233 0.0061590844
-0.030797422 -0.08977777 0.028927483 -0.051076874 -0.039638434 0.0901775 0.00533405 0.0522727
-0.0065674353 -0.014761538 -0.016666783 0.056852754 0.08980335 0.20200032 0.04927403 0.007828751
0.021678885 0.08865835 -0.016927471 -0.07768263 -0.09103617 0.0088533675 -0.017569603 -0.08550237
-0.012816408 0.038003653 -0.03935729 0.02325498 0.013725463 0.00032702388 -0.07100424 0.0108102765
-0.0018744455 0.076692015 0.040898275 -0.03570108 -0.056429956 0.058172617 -0.019606804 -0.008711001
-0.012647455 -0.00620529 -0.026841681 -0.028174615 -0.024535395 0.0224002 -0.04011311 -0.05002051
-0.045280233 -0.008194373 -0.012690013 0.06911791 -0.038574003 0.12681584 0.04661319 -0.017620828
0.018871553 -0.03062253 0.005774278 0.018376453 -0.038801707 0.15863147 -0.010951429 -0.029033815
-0.0063043623 -0.0623539 0.014163244 -0.09628476 -0.005210886 -0.106206425 0.03496007 -0.09747477
0.043556336 -0.07963354 -0.035193097 -0.020447714 0.042761717 -0.05804726 0.0055131065 0.042757172
0.0994759 -0.030166462 -0.028181583 0.0048620002 -0.029864086 0.01150927 0.009956841 0.032401644
0.009912931 0.13391736 -0.023825355 0.0028227067 0.012086851 -0.07115651 -0.02016176 -0.034153987
0.04598982 0.07824552 -0.029475678 -0.05334782 0.0294055 -0.11796014 0.056909587 -0.03522163
00000000: 96dc c6bc ba93 1dbd a77a 233c 10c3 823c
00000010: 3197 3f3d 8e67 51bd 7690 c73c 46ba 823d
00000020: d0ea 8fbc 638c 3b3d f733 62bc 642a 64bb
00000030: 0c2f 143d d63d 4cbd 909e e83c e579 acbd
00000040: d01a cc3d a8cf 5bbd a4be 763c e4c8 1fbe
00000050: 2760 173d fbb3 0fbe bae6 b5bb 1291 b7bd
00000060: 90b0 31bd 653c 61bd 25f0 1e3d 4455 483c
00000070: 9550 04be 9168 04bd 369f 00bd b6d3 c8bc
00000080: ff62 dcbc e562 85bc f9fe 0d3d 2d0b 843d
00000090: 3ae9 9cbb 8142 343d 2734 84bd 7008 2dbb
000000a0: f478 593c feaf e8bc 010d 30bd 712f 50bc
000000b0: 2940 e7bd f170 6e3d e9c2 f13b ecee 583d
000000c0: b133 253c d60d 443c aa46 91bc e607 4d3b
000000d0: 581b f63c 5289 723d 5c27 4d3c 5358 8ebd
000000e0: 6b19 8cbd 939e 8bbb 8d2f 0f3c 3837 18bd
000000f0: 1b81 9e3d 48d9 d439 a150 ebbb 11f4 923c
00000100: af3a a2ba ebe5 a63a a5e4 a63c dade 903d
00000110: be6a d83d 0d1e 283e 570f 903c 7747 883d
00000120: 24f4 413d 99e6 e0bc 5380 19bd b7ee ecbc
00000130: a8ef ef3b 8a3b f2bc af80 73bd fd11 483c
00000140: 810d b33c 4a66 efbc 93ab a03c f131 253d
00000150: 5fb5 16bd 4a0d 42be 0557 08bd 43bd db3c
00000160: d090 cdbc 0066 0b3d c3e6 7bbd bb8b 163d
00000170: f8c9 69bd 2b95 f1bd 31e4 303d da8c ef3b
00000180: accf b4bc 06e1 193d 28a7 9f3b e35f 72b9
00000190: 4515 ab3a 33ef 38bd 027e 9dbc 355f 9bbd
000001a0: b11c 193c 2419 28bd 546e 09bc 95be 05be
000001b0: eee6 febc cffa 09be 3cd9 b0bc d15d 1fbd
000001c0: 49af e0bc 2023 02bd 0e7d f63a de67 9bbd
000001d0: d7ef b2bc bbf9 d1bc a4a6 7d3d bc45 02be
000001e0: 2672 75bc c8c2 ac3d 0716 c1bb 1a72 eebc
000001f0: 4358 b13b 4c05 23be 2782 993b 8ea9 c7bd
00000200: 0a2a 01bd 015e 02bd 51ac 07bc ff1c b83b
00000210: 0963 1abb da4a c5bd 5023 29bd 11c6 0bbd
00000220: 1743 6c3c 13fd 973c 8fce 54bc d26a 2f3c
00000230: 1549 8e3d b97b c23a 6f47 ac3b 6bc0 9ebc
00000240: ed55 e7bb 6025 b33b 54fa 5a3c 7801 0a3d
00000250: a29e bbbb 5c19 2abd 04c5 bdbc 25d2 c93b
00000260: e04a fcbc 68dd b7bd 54f9 ec3c fc35 51bd
00000270: e95b 22bd fbae b83d 41c9 ae3b e61b 563d
00000280: a433 d7bb 61da 71bc c788 88bc 6fde 683d
00000290: d2ea b73d 2cd9 4e3e 91d3 493d 2944 003c
000002a0: eb97 b13c 8292 b53d 7bab 8abc 1218 9fbd
000002b0: 2c71 babd b70d 113c 21ee 8fbc de1b afbd
000002c0: e9fb 51bc b8a9 1b3d 1c35 21bd 3a81 be3c
000002d0: c4e0 603c 6774 ab39 ac6a 91bd 961d 313c
000002e0: f4af f5ba b410 9d3d f384 273d 4c3b 12bd
000002f0: 1923 67bd 6946 6e3d 739e a0bc 96b8 0ebc
00000300: 4537 4fbc bf55 cbbb 16e3 dbbc 73ce e6bc
00000310: 74fe c8bc a080 b73c a54d 24bd 4ee2 4cbd
00000320: c477 39bd b141 06bc c6e9 4fbc b18d 8d3d
00000330: c6ff 1dbd 03dc 013e 79ed 3e3d 8e59 90bc
00000340: 8498 9a3c 1adc fabc 2836 bd3b 378a 963c
00000350: 8aee 1ebd 4a70 223e 9f6d 33bc 53d8 edbc
00000360: d394 cebb ce66 7fbd f30c 683c f230 c5bd
00000370: 14c0 aabb c182 d9bd 4a32 0f3d daa0 c7bd
00000380: 2168 323d e916 a3bd a326 10bd f781 a7bc
00000390: e926 2f3d f7c2 6dbd 4aa7 b43b 2522 2f3d
000003a0: 05ba cb3d a81f f7bc 10dd e6bc 6a51 9f3b
000003b0: 87a5 f4bc 6191 3c3c 0522 233c 96b7 043d
000003c0: d969 223c a221 093e 642d c3bc 29fd 383b
000003d0: ed07 463c 81ba 91bd 462a a5bc 0de5 0bbd
000003e0: d25f 3c3d 303f a03d fa76 f1bc 3e83 5abd
000003f0: cee3 f03c 1695 f1bd 071a 693d 8e44 10bd

fc1.bias f4 [256]
0.051790453 0.038633563 0.13192797 0.10442071 -0.11297376 -0.19631678 0.100799285 -0.12175659
-0.07112301 0.06584698 -0.09651454 -0.2026291 -0.005063444 0.11204669 -0.19948888 0.12624867
0.014300542 0.18838961 -0.12072346 0.13874711 -0.01867552 0.13770996 0.110187106 0.17719582
0.07066435 0.08547311 -0.073372506 -0.104122534 0.19382195 -0.10543533 -0.11781428 0.06848347
0.00829431 0.14235488 -0.19667333 0.055170607 0.048375856 -0.013223939 -0.048181042 -0.0135455625
-0.16365452 -0.0043809563 0.0729127 -0.062660426 -0.13832057 -0.012900756 0.19708161 -0.19338408
-0.017919952 -0.12149796 -0.14185292 -0.05753101 0.024154732 -0.14844546 0.11087883 -0.02301634
0.0016226388 -0.06741575 -0.15756968 -0.07656306 0.20162046 0.114593126 0.16525002 0.10725816
-0.09028287 -0.1308607 0.118663535 -0.14569776 -0.13855255 0.10179647 0.16394791 -0.011199757
0.14458054 0.18428802 0.08479953 -0.1573321 -0.13741589 0.18989713 0.15275037 -0.18370223
-0.08751698 -0.20143431 0.004917096 -0.03966779 0.025405675 -0.05183302 -0.023728255 -0.016670678
0.1644579 0.05599344 -0.16655348 -0.1353918 0.126873 0.05678794 -0.10362333 -0.034370296
-0.11823959 -0.14691438 -0.14852545 0.08354929 -0.017077116 0.19789357 0.02615195 -0.17587616
0.037460435 -0.046739258 0.032135762 -0.11113744 -0.016942706 0.15573354 0.17298032 -0.18414697
-0.1901633 -0.07937225 -0.06711267 0.19953302 0.17014045 -0.03749078 -0.16892165 0.043643977
-0.056025937 0.18377362 -0.006108974 0.17436081 -0.09929533 -0.1614007 -0.06438012 0.079576924
-0.12396604 0.00795008 -0.08598457 -0.009460311 -0.14111762 -0.10448241 -0.12090749 0.025082875
-0.08615911 -0.16507302 0.06827342 -0.016411474 0.08153958 0.15316038 -0.14697342 -0.15949388
0.071050175 0.0085470565 0.1560105 -0.028485306 -0.092365555 -0.0011120987 -0.12174755 0.055305924
0.039061904 0.030866424 -0.043452296 0.07585477 -0.1132436 0.013665995 -0.18290989 0.083288044
-0.11150958 -0.15545768 0.12135383 -0.15287109 -0.15852995 -0.10937879 0.09375816 -0.06189543
-0.18545622 0.05309597 -0.121254325 -0.109376706 0.081174046 -0.12072608 0.071140595 -0.12042206
-0.09576623 -0.16437982 0.18202937 -0.06403484 0.1461123 -0.036735628 -0.07502842 0.12393137
-0.040104013 -0.060219906 0.13138267 0.075555824 -0.13932161 -0.16890742 0.12671064 -0.07138573
-0.072916575 -0.06564834 0.0019327595 -0.0875463 -0.1633266 0.02171443 0.08196937 -0.05794856
-0.016527992 0.10853469 -0.06321706 0.10083488 0.16560996 0.12975524 -0.055717744 0.104331136
-0.19141494 -0.088178426 0.11640763 0.10987784 0.14825813 -0.06661343 -0.17807989 0.19095448
0.13510223 -0.07745422 0.1397114 0.14418079 0.027583385 0.027558489 0.020206757 0.11667148
0.0012306178 0.07963896 0.0047197407 0.07765943 0.07231521 0.16159552 0.1796094 -0.040000867
-0.17162997 0.12935974 -0.02581248 -0.0017930451 -0.095647566 0.025529517 0.14080691 -0.19696541
-0.16632727 0.17084904 -0.120315224 -0.16636914 0.13368794 0.05218287 -0.13085254 0.14927423
-0.033970475 0.1237695 -0.036259346 -0.071419686 0.010496834 0.17647204 0.02253991 -0.017504394
00000000: 3a22 543d 3a3e 1e3d 2018 073e 86da d53d
00000010: c95e e7bd 4407 49be db6f ce3d 855b f9bd
00000020: f1a8 91bd c8da 863d 6aa9 c5bd 017e 4fbe
00000030: 3feb a5bb bc78 e53d d046 4cbe 5547 013e
00000040: d24c 6a3c 35e9 403e dd3d f7bd b913 0e3e
00000050: 67fd 98bc d703 0d3e c7a9 e13d d272 353e
00000060: 79b8 903d 870c af3d 5344 96bd 323e d5bd
00000070: 4379 463e 7aee d7bd 9d48 f1bd 1041 8c3d
00000080: dce4 073c 7ac5 113e bc64 49be 93fa 613d
00000090: c325 463d 38a9 58bc 7c59 45bd 35ee 5dbc
000000a0: 0d95 27be 208e 8fbb 4153 953d 1c54 80bd
000000b0: e8a3 0dbe b15d 53bc c3cf 493e 7a06 46be
000000c0: ddcc 92bc ecd3 f8bd e441 11be a3a5 6bbd
000000d0: 25e0 c53c 1602 18be 7114 e33d c38c bcbc
000000e0: b9ae d43a 4511 8abd f259 21be 18cd 9cbd
000000f0: 9875 4e3e cdaf ea3d 4d37 293e 2baa db3d
00000100: 3ae6 b8bd 5900 06be de05 f33d cb31 15be
00000110: b8e0 0dbe ab7a d03d f6e1 273e 307f 37bc
00000120: ec0c 143e 00b6 3c3e 60ab ad3d ab1b 21be
00000130: c0b6 0cbe 6574 423e 986a 1c3e 701c 3cbe
00000140: 1a3c b3bd cc44 4ebe 971f a13b b17a 22bd
00000150: 901f d03c dc4e 54bd c261 c2bc f290 88bc
00000160: a767 283e 6159 653d ff8c 2abe 26a4 0abe
00000170: ffea 013e 799a 683d 7838 d4bd dec7 0cbd
00000180: 9927 f2bd b970 16be 0e17 18be e41b ab3d
00000190: 4fe5 8bbc 9da4 4a3e 9d3c d63c e118 34be
000001a0: 1d70 193d aa71 3fbd caa0 033d 079c e3bd
000001b0: 6ecb 8abc 9d78 1f3e c121 313e 0691 3cbe
000001c0: 2bba 42be eb8d a2bd 5e72 89bd 6252 4c3e
000001d0: 4c39 2e3e ef8f 19bd ccf9 2cbe 07c4 323d
000001e0: 747b 65bd 272f 3c3e ca2d c8bb a48b 323e
000001f0: 5a5b cbbd 3a46 25be b9d9 83bd 3af9 a23d
00000200: e8e1 fdbd 0d41 023c ae18 b0bd 6cff 1abc
00000210: 2381 10be e0fa d5bd 599e f7bd 9a7a cd3c
00000220: 3074 b0bd e708 29be efd2 8b3d 5b71 86bc
00000230: 39fe a63d 13d6 1c3e 3380 16be 5d52 23be
00000240: c182 913d f408 0c3c 37c1 1f3e 045a e9bc
00000250: 272a bdbd d7c3 91ba c856 f9bd 7788 623d
00000260: 60ff 1f3d 95db fc3c 09fb 31bd bf59 9b3d
00000270: 43ec e7bd 56e7 5f3c bb4c 3bbe ec92 aa3d
00000280: 225f e4bd 4c30 1fbe 5b88 f83d 3d8a 1cbe
00000290: ad55 22be fd01 e0bd 4704 c03d 1086 7dbd
000002a0: 3ce8 3dbe 297b 593d 3054 f8bd e500 e0bd
000002b0: 943e a63d 3c3f f7bd 29b2 913d d79f f6bd
000002c0: 1621 c4bd 2f53 28be e865 3a3e b324 83bd
000002d0: 769e 153e 1978 16bd 80a8 99bd bbcf fd3d
000002e0: 1b44 24bd 26a9 76bd 2e89 063e 03bd 9a3d
000002f0: 53aa 0ebe 11f6 2cbe 6fc0 013e ae32 92bd
00000300: 4955 95bd a372 86bd a654 fd3a 794b b3bd
00000310: 173f 27be 76e2 b13c 8fdf a73d 785b 6dbd
00000320: b665 87bc 7047 de3d f277 81bd 8482 ce3d
00000330: a895 293e 8fde 043e 4a38 64bd 90ab d53d
00000340: 4702 44be e496 b4bd 2067 ee3d a207 e13d
00000350: fbd0 173e 9f6c 88bd 935a 36be 9289 433e
00000360: 3d58 0a3e 51a0 9ebd 8110 0f3e 21a4 133e
00000370: 8df6 e13c 57c2 e13c a488 a53c 75f1 ee3d
00000380: ae4c a13a c019 a33d 0ea8 9a3b e80b 9f3d
00000390: ff19 943d 4c79 253e 87eb 373e f3d7 23bd
000003a0: c4bf 2fbe e176 043e b274 d3bc 9c04 ebba
000003b0: dfe2 c3bd 4723 d13c b02f 103e 4db1 49be
000003c0: b251 2abe 0df3 2e3e d467 f6bd ac5c 2abe
000003d0: 7ee5 083e b5bd 553d 35fe 05be 58db 183e
000003e0: a024 0bbd dd7a fd3d ae84 14bd 7c44 92bd
000003f0: eafa 2b3c 16b5 343e 9ea5 b83c 6065 8fbc

bn1.weight f4 [256]
0.7914682 0.3354512 0.60565054 0.8190893 0.30483484 0.3597252 0.32996437 0.48260894
0.6412501 0.47294578 0.42548028 0.6949104 0.3396553 0.4434244 0.43132773 0.36716998
0.6873186 0.8584392 0.53866947 0.85708004 0.52479476 0.4165998 0.96632373 0.1076037
0.94945186 0.8125681 0.8806001 0.42132467 0.8196819 0.39679927 0.21367492 0.6778613
0.17838763 0.10152116 0.42870927 0.6834355 0.4211946 0.42861766 0.42999443 0.6656167
0.18031332 0.46491787 0.33250922 0.7588757 0.34063712 0.117575414 0.485573 0.82561874
0.13596593 0.38431013 0.6742057 0.7149451 0.5225897 0.14976409 0.68301016 0.34597698
0.7899007 0.4828452 0.16161348 0.7736092 0.87726915 0.9666869 0.36912903 0.80626696
0.108993776 0.80070215 0.08105695 0.18969542 0.76273686 0.31784865 0.9062629 0.0036489747
0.8811852 0.6646726 0.6031132 0.65394014 0.6890882 0.22019772 0.86639524 0.15947913
0.6717307 0.8055803 0.23339309 0.9482564 0.6571319 0.16535033 0.81183326 0.2116374
0.6765074 0.5292161 0.44018352 0.44348934 0.16638337 0.17105588 0.12140274 0.21171741
0.52097636 0.28762802 0.8117929 0.5332507 0.22030579 0.340172 0.7566902 0.3542905
0.699638 0.35522962 0.54897153 0.5102178 0.14703223 0.7977757 0.5369975 0.2341496
0.6816158 0.1987859 0.56771886 0.748216 0.74346954 0.7336724 0.38828102 0.5755163
0.35134998 0.34893644 0.3817057 0.51564693 0.44144034 0.5493469 0.82662207 0.704308
0.4790812 0.1594241 0.7343485 0.68106455 0.5178262 0.63049144 0.4210631 0.79169947
0.95704335 0.5208663 0.8608967 0.46147394 0.751556 0.5325663 0.31445187 0.67309237
0.7215069 0.2050194 0.9099422 0.2656629 0.15478069 0.5461037 0.24529454 0.21158354
0.3103502 0.07314125 0.7274518 0.7700753 0.5376593 0.7985016 0.84742886 0.8569372
0.56472903 0.8275073 0.7784816 0.59996325 0.7506497 0.19979602 0.95249337 0.843051
0.779151 0.71383303 0.85439926 0.16805701 0.8601841 0.5431245 0.84084004 1.008841
0.4883328 0.15994081 0.29817724 0.44961244 0.8147527 0.83468556 0.3345598 0.11624058
0.79798067 0.20629473 0.3789143 0.23654343 0.591791 0.76302034 0.36875224 0.15433419
0.8624422 0.99483883 0.2613153 0.24047041 0.36887443 0.8777999 0.43950835 0.61073047
0.30098468 0.74992806 0.66254467 0.52115536 0.9089083 0.68708295 0.064828396 0.2231678
0.15720737 0.8328358 0.39019606 0.572984 0.23182446 0.75204736 0.39933303 0.19558929
0.8553263 0.6233192 0.21876931 0.7476752 0.35574135 0.20108648 0.9059479 0.88227785
0.4629013 0.4520229 0.23038685 0.38758644 0.28302455 0.2189737 0.10691639 0.7784096
0.73236555 0.8979594 0.7574202 0.1691011 0.23402666 0.8490585 0.7352174 0.56110173
0.39760137 0.21901454 0.54501516 0.38185868 0.916339 0.29978544 0.5678179 0.51924086
0.8551045 0.8817377 0.7090426 0.04794488 0.72771305 0.7740964 0.31301838 0.7425246
00000000: a99d 4a3f 42c0 ab3e ea0b 1b3f d6af 513f
00000010: 5013 9c3e e72d b83e 17f1 a83e 8518 f73e
00000020: f728 243f f325 f23e 8dd8 d93e a6e5 313f
00000030: 4de7 ad3e 8608 e33e fdd6 dc3e b4fd bb3e
00000040: 1df4 2f3f acc2 5b3f 3ee6 093f 9969 5b3f
00000050: f358 063f 924c d53e fe60 773f 545f dc3d
00000060: 470f 733f 7704 503f 026f 613f deb7 d73e
00000070: acd6 513f 4629 cb3e 99cd 5a3e 5188 2d3f
00000080: 3fab 363e 53ea cf3d c87f db3e a1f5 2e3f
00000090: d2a6 d73e c673 db3e 3b28 dc3e db65 2a3f
000000a0: 0ea4 383e b709 ee3e a63e aa3e ae45 423f
000000b0: fd67 ae3e 61cb f03d 069d f83e c05b 533f
000000c0: a73a 0b3e 4cc4 c43e bf98 2c3f a406 373f
000000d0: 70c8 053f c25b 193e c1d9 2e3f e523 b13e
000000e0: ef36 4a3f 7c37 f73e 017e 253e 410b 463f
000000f0: b694 603f cb78 773f 7bfe bc3e 8367 4e3f
00000100: 2138 df3d d1fa 4c3f 3001 a63d 843f 423e
00000110: b942 433f 0fbd a23e d800 683f a323 6f3b
00000120: 5a95 613f fc27 2a3f a065 1a3f 9f68 273f
00000130: 1668 303f 837b 613e 14cc 5d3f 7f4e 233e
00000140: 8bf6 2b3f 833a 4e3f 99fe 6e3e eec0 723f
00000150: cc39 283f 9951 293e 4ed4 4f3f 79b7 583e
00000160: 972f 2d3f b57a 073f bc5f e13e 0911 e33e
00000170: 6760 2a3e 4629 2f3e 00a2 f83d 73cc 583e
00000180: b55e 053f fb43 933e a9d1 4f3f 1e83 083f
00000190: d797 613e 062b ae3e 73b6 413f 9065 b53e
000001a0: 7a1b 333f a8e0 b53e 6689 0c3f a29d 023f
000001b0: 9e8f 163e 073b 4c3f ab78 093f eac4 6f3e
000001c0: 607e 2e3f 888e 4b3e 0656 113f 158b 3f3f
000001d0: 0554 3e3f f4d1 3b3f c5cc c63e 0955 133f
000001e0: 25e4 b33e cca7 b23e ee6e c33e 7001 043f
000001f0: 7804 e23e 00a2 0c3f 819d 533f 874d 343f
00000200: 224a f53e 1240 233e 43fe 3b3f 3f5a 2e3f
00000210: 4290 043f e367 213f 9595 d73e d1ac 4a3f
00000220: cb00 753f 7e57 053f ba63 5c3f 5046 ec3e
00000230: f965 403f 4456 083f d6ff a03e c84f 2c3f
00000240: adb4 383f 9bf0 513e f9f1 683f f804 883e
00000250: d47e 1e3e 74cd 0b3f 7e2e 7b3e 5ba9 583e
00000260: 39e6 9e3e 14cb 953d 483a 3a3f a823 453f
00000270: 0aa4 093f 9a6a 4c3f 19f1 583f 3d60 5b3f
00000280: 1592 103f 85d7 533f 924a 473f 3197 193f
00000290: 942a 403f 5497 4c3e 9bd6 733f 31d2 573f
000002a0: 7176 473f c3bd 363f e9b9 5a3f 2317 2c3e
000002b0: 0635 5c3f 350a 0b3f 4b41 573f b421 813f
000002c0: c206 fa3e 86c7 233e b0aa 983e 9a33 e63e
000002d0: a293 503f f4ad 553f 6c4b ab3e 8b0f ee3d
000002e0: 7648 4c3f ed3e 533e 0e01 c23e 7138 723e
000002f0: 9d7f 173f 4d55 433f 18cd bc3e c809 1e3e
00000300: 03c9 5c3f c2ad 7e3f 1ecb 853e e03d 763e
00000310: 1cdd bc3e 7fb7 603f 3d07 e13e d558 1c3f
00000320: aa1a 9a3e 49fb 3f3f 879c 293f 706a 053f
00000330: 37ae 683f abe4 2f3f c0c4 843d 1a86 643e
00000340: f8fa 203e ba34 553f c7c7 c73e 14af 123f
00000350: 6463 6d3e 2d86 403f 6175 cc3e 8f48 483e
00000360: aaf6 5a3f d991 1f3f 1005 603e a467 3f3f
00000370: bb23 b63e 9de9 4d3e 34ec 673f f6dc 613f
00000380: 6601 ed3e 8c6f e73e 88ea 6b3e bb71 c63e
00000390: 98e8 903e a43a 603e fbf6 da3d da45 473f
000003a0: 4f7c 3b3f abe0 653f 4ae6 413f d728 2d3e
000003b0: afa4 6f3e e65b 593f 3537 3c3f 5da4 0f3f
000003c0: 6892 cb3e 5945 603e 1d86 0b3f fb82 c33e
000003d0: 3195 6a3f 7a7d 993e 845c 113f f8ec 043f
000003e0: 21e8 5a3f 90b9 613f d183 353f da61 443d
000003f0: 674b 3a3f 2f2b 463f f243 a03e 1816 3e3f

bn1.bias f4 [256]
0.05016761 0.051340308 0.017990172 -0.017124936 -0.20225948 -0.078594685 -0.08904431 -0.046478298
-0.113461666 -0.073267475 0.008928741 0.03289695 -0.03397528 -0.06311969 -0.01519604 -0.075849965
-0.14965731 -0.027706841 0.07451507 -0.09636778 -0.00087399303 -0.017424263 -0.044940364 -0.0139094945
0.03151359 -0.09854871 -0.17783959 -0.00075131643 -0.028516859 -0.169533 -0.010343966 0.0075979154
-0.019281974 0.055772573 -0.104031324 0.0027004757 0.0019447079 -0.111264676 0.042454563 -0.07409627
0.070783325 -0.11606029 -0.06612536 -0.17206107 -0.0511159 0.03329488 -0.084737316 0.16022621
0.092436895 0.04508358 -0.021920929 -0.15265742 -0.10986271 -0.009944355 -0.07430453 -0.02284725
-0.02557862 -0.1677665 -0.05470416 -0.0020753695 -0.03103705 -0.095840216 0.017420243 -0.14947622
-0.0775602 0.13407843 0.045910437 0.014160712 -0.039780267 0.07546658 -0.007066496 -0.009874368
0.079301655 -0.13170448 -0.20537166 -0.04513359 -0.10879943 0.024975836 -0.099456735 -0.0011512695
-0.010114026 -0.04095747 0.03699158 -0.12584308 0.093917884 0.023016674 0.068847135 -0.015545547
0.050279107 -0.002803296 -0.1197314 -0.089957245 -0.07866543 -0.022342538 0.042363487 -0.06708574
-0.114584975 -0.024634387 -0.04374312 -0.11791051 -0.17572 -0.03342258 -0.023021672 -0.09482919
-0.14691001 0.021638848 -0.14510997 -0.039085403 -0.09307168 -0.023240054 -0.14952618 0.009679404
-0.110264406 0.032009028 -0.078278534 -0.022412412 -0.0677613 -0.077837326 -0.1660336 0.043690782
-0.052310083 -0.042813335 -0.07023051 -0.12534143 -0.0393986 -0.059528485 -0.14283831 0.02677395
0.06828376 0.03274787 -0.08416653 -0.061547566 0.14795673 -0.05274046 -0.074973 -0.14833897
-0.026327247 -0.0060441205 -0.17716682 -0.067206874 -0.07691956 -0.14334676 0.09196292 -0.06758445
-0.10872446 -0.04908719 -0.11583869 -0.07262593 -0.076502815 -0.0031946187 -0.057234004 0.032039616
-0.13363951 0.03911381 0.07268766 -0.041270994 -0.21971914 -0.033278104 0.016178437 -0.061775185
-0.023471478 -0.073800705 -0.1336945 -0.03867375 -0.031588312 -0.17336479 -0.032122254 -0.20002735
-0.066897154 -0.14037623 -0.20981407 -0.070461124 -0.039736092 -0.102308325 0.04549453 -0.11370985
-0.022179266 -0.08434277 -0.058510136 -0.048635066 -0.013907706 -0.101900846 -0.14472103 -0.039991878
0.027212128 0.00503093 -0.11530708 -0.13824517 -0.108444765 -0.11278176 0.041062117 -0.039615966
0.007992712 -0.055866253 0.06040629 -0.08595173 -0.08289303 -0.019619942 -0.014507622 -0.07181377
-0.059867155 -0.017058352 0.00691001 -0.022289118 -0.06338753 0.07977688 0.11411257 -0.09159267
0.035606682 -0.069005124 -0.15373957 -0.06674023 -0.045415103 -0.10565397 0.061852727 -0.13003922
-0.14297083 -0.07201933 -0.028553942 0.043685004 -0.044672314 -0.08073036 -0.0040376475 -0.040569022
-0.025694959 -0.18555987 0.14448397 -0.11978196 0.047615256 -0.029359631 -0.0571117 0.00013958241
-0.10444001 -0.08415203 -0.0148387635 -0.016630393 0.0071683396 -0.11624634 0.022124877 -0.13000275
-0.043312337 0.060081773 0.07349372 -0.10078548 -0.15669712 -0.14096816 0.11622801 0.040842626
-0.07123034 -0.09006738 0.026981743 0.001949472 -0.09525178 -0.072466835 0.08836422 -0.0800207
00000000: 8d7c 4d3d 374a 523d 2060 933c 9849 8cbc
00000010: 1c1d 4fbe 40f6 a0bd dd5c b6bd 0760 3ebd
00000020: 975e e8bd 420d 96bd db49 123c f4be 063d
00000030: aa29 0bbd e544 81bd d0f8 78bc 3a57 9bbd
00000040: c43f 19be 75f9 e2bc 5b9b 983d 785c c5bd
00000050: ae1c 65ba 54bd 8ebc 6313 38bd a6e4 63bc
00000060: 6514 013d e8d3 c9bd 951b 36be fef3 44ba
00000070: 309c e9bc 0f9a 2dbe bd79 29bc eff7 f83b
00000080: 3bf5 9dbc c871 643d 600e d5bd 77fa 303b
00000090: 92e5 fe3a bcde e3bd d6e4 2d3d c9bf 97bd
000000a0: d9f6 903d 04b1 edbd bc6c 87bd c730 30be
000000b0: e85e 51bd 3660 083d c28a adbd 5712 243e
000000c0: 8e4f bd3d 8fa9 383d 8593 b3bc 3a52 1cbe
000000d0: b3ff e0bd a6ed 22bc f92c 98bd 282a bbbc
000000e0: 418a d1bc fbca 2bbe 7811 60bd ec02 08bb
000000f0: 6941 febc e047 c4bd e6b4 8e3c 4b10 19be
00000100: e2d7 9ebd db4b 093e 950c 3c3d 5502 683c
00000110: a2f0 22bd 398e 9a3d 118e e7bb 1ac8 21bc
00000120: e868 a23d 8add 06be f34c 52be 00de 38bd
00000130: 3cd2 debd 209a cc3c f9af cbbd 32e6 96ba
00000140: 4db5 25bc 05c3 27bd 7c84 173d 02dd 00be
00000150: 0558 c03d 778d bc3c baff 8c3d c0b2 7ebc
00000160: 77f1 4d3d 81b7 37bb bc35 f5bd 813b b8bd
00000170: 571b a1bd b307 b7bc 5685 2d3d 4064 89bd
00000180: 87ab eabd 0ece c9bc fc2b 33bd 117b f1bd
00000190: f2ef 33be 1ee6 08bd f297 bcbc ce35 c2bd
000001a0: 946f 16be f443 b13c b597 14be 0418 20bd
000001b0: 5d9c bebd ed61 bebc 641d 19be 5d96 1e3c
000001c0: 4ed2 e1bd e61b 033d 7f50 a0bd 3c9a b7bc
000001d0: 70c6 8abd 2d69 9fbd b604 2abe 1bf5 323d
000001e0: 1943 56bd 095d 2fbd 03d5 8fbd 8159 00be
000001f0: 6d60 21bd 24d4 73bd 3544 12be 0b55 db3c
00000200: 5bd8 8b3d a122 063d 805f acbd 4d19 7cbd
00000210: f881 173e 6106 58bd 728b 99bd 2ce6 17be
00000220: 3dac d7bc c20d c6bb 386b 35be c2a3 89bd
00000230: 0188 9dbd 7ec9 12be 0e57 bc3d b769 8abd
00000240: eeaa debd a60f 49bd d63c edbd e7bc 94bd
00000250: 82ad 9cbd cf5c 51bb 346e 6abd f93b 033d
00000260: ccd8 08be cd35 203d 45dd 943d c60b 29bd
00000270: 0efe 60be 9f4e 08bd a488 843c fa07 7dbd
00000280: 4247 c0bc d324 97bd 36e7 08be 5e68 1ebd
00000290: bf62 01bd 8a86 31be a092 03bd f8d3 4cbe
000002a0: 6001 89bd c9be 0fbe 80d9 56be ec4d 90bd
000002b0: 50c2 22bd 0787 d1bd 7958 3a3d b6e0 e8bd
000002c0: 4bb1 b5bc e7bb acbd 53a8 6fbd 9035 47bd
000002d0: 26dd 63bc 64b1 d0bd c031 14be 86ce 23bd
000002e0: f8eb de3c 80da a43b 1e26 ecbd 2490 0dbe
000002f0: 4a18 debd 20fa e6bd c030 283d 5a44 22bd
00000300: ddf3 023c 03d4 64bd 966c 773d 7607 b0bd
00000310: d2c3 a9bd 00ba a0bc 61b1 6dbc 1913 93bd
00000320: 4337 75bd f5bd 8bbc 5d6d e23b ab97 b6bc
00000330: 52d1 81bd 1062 a33d dab3 e93d f094 bbbd
00000340: 50d8 113d 8f52 8dbd e86d 1dbe 1aaf 88bd
00000350: 3005 3abd 1c61 d8bd 4959 7d3d 0029 05be
00000360: f266 12be df7e 93bd f5e9 e9bc 0cef 323d
00000370: 51fa 36bd f555 a5bd 3e4e 84bb b42b 26bd
00000380: 3c7e d2bc 6803 3ebe 9bf3 133e 3f50 f5bd
00000390: 3708 433d 9c83 f0bc f5ed 69bd de5c 1239
000003a0: a5e4 d5bd e657 acbd 491e 73bc 763c 88bc
000003b0: 64e4 ea3b 9012 eebd 3b3f b53c 711f 05be
000003c0: 4768 31bd 4e18 763d e083 963d 9e68 cebd
000003d0: 3675 20be f559 10be f308 ee3d 994a 273d
000003e0: 36e1 91bd 3f75 b8bd d108 dd3c 6d85 ff3a
000003f0: 5d13 c3bd 7e69 94bd 4df8 b43d e5e1 a3bd

bn1.running_mean f4 [256]
-1.038382 0.51723707 1.4191629 -1.8366134 -0.54923 -1.2480363 1.5872275 -0.49225846
1.2322898 -1.3963289 -2.2336702 -1.059093 -0.45029652 -0.78642184 0.24412678 -0.080601
-0.14970386 1.0223196 0.1610786 -1.1759953 1.821395 0.4057539 0.35535803 0.3273758
-0.52575743 -0.016033754 -0.7261092 -0.05986871 -2.5377707 0.4798244 -1.6613405 -0.4993037
0.30385026 -1.4474585 0.012973045 -0.25593972 -0.14251289 -0.9087542 1.6080593 -0.09835519
0.65492064 0.9630816 1.627338 0.8515791 -0.74157155 -0.89273185 -0.6696738 -0.052669898
0.9519953 0.43296254 0.15862373 -0.20405851 -0.411442 0.18005933 0.86643136 0.57045573
-1.3914677 0.12627816 1.5168005 0.76458067 -0.043765735 0.042102598 1.067284 -0.062190507
0.023280805 1.3905289 -0.4132887 -0.42825612 0.06073173 0.5347073 0.32192275 -0.2179511
-0.6754727 1.090553 0.5274965 -1.1181871 0.03175303 -1.582473 -0.81040615 -1.3360127
-0.0015640869 -0.85365963 0.8723034 -2.8209274 0.47671252 -0.95976233 0.97313267 0.60397524
1.8676742 0.77205217 1.5303836 -0.32652393 0.76112026 0.09316061 -0.40836442 2.4389324
0.3253332 -0.8135286 -0.22607929 -0.073782735 -0.7013178 -1.8952329 1.2060361 0.74640214
-0.1051969 0.88500184 1.9174628 0.58465075 -1.3017846 -0.9705975 -0.55322784 0.8895201
0.5244057 2.1539748 0.106479935 0.7383032 -1.1530046 1.7389828 -0.6630527 0.18080083
-0.34601018 -0.521556 -0.038258635 -0.58633816 -1.0263426 0.20259938 -0.37490687 1.2973163
0.17227289 0.011740715 0.16744688 1.4151946 2.0751348 -0.77224195 -0.57094014 0.21568897
0.039052423 -0.07610638 -0.45580247 0.84771043 0.4801169 1.1607323 -0.7978804 -0.57565033
-0.76117873 -1.6463463 -0.5735458 1.5540756 1.2466346 -2.0708365 1.1256918 -2.4785476
0.08987064 -1.0269483 0.5256611 1.0472007 0.44081149 1.4164304 0.3845692 1.5753323
1.014837 -2.075669 -1.8514678 1.8020003 0.56902856 -0.48185122 0.8841122 -0.02558088
-0.9078097 0.32954812 -0.403712 0.43389937 -1.094377 0.91618687 -0.3626723 -0.3514946
-0.13049006 -1.8646698 0.6351667 -0.7892481 -0.67726296 0.14382666 1.132239 -0.5450519
0.40522525 2.269746 -2.7057695 -0.0120283775 -0.72958016 -0.16476634 0.6851346 2.1463735
-0.058222894 0.5801257 0.97702366 0.32000238 -0.69690454 0.8911185 1.9948097 1.2561362
-0.8543313 -0.7985745 0.7959161 -0.8265186 -1.7227535 0.36887804 1.0191077 -0.63477784
0.23999695 -1.9637576 0.6844876 -1.5101435 -0.3384998 0.35974815 1.1358744 -1.6982831
-0.83776623 -0.2013169 -1.8823279 0.27680433 1.1074207 0.42699742 1.3101145 -0.099926755
2.280625 0.5576133 -0.28059146 1.1453538 0.7787501 -1.8555858 -2.6586218 0.6323036
-0.55816245 -0.9514954 -1.6561677 0.98938614 -0.36207065 0.44862583 1.2789439 -2.3249583
1.353026 0.9485028 0.71388996 -0.63115996 0.5415394 -1.8943721 -0.110273786 0.8690718
-0.3471392 1.6055707 1.3493587 1.5530317 -0.88315994 1.226058 -0.6954501 0.43470848
00000000: b4e9 84bf a669 043f 21a7 b53f 2616 ebbf
00000010: 569a 0cbf a7bf 9fbf 452a cb3f 4d09 fcbe
00000020: acbb 9d3f e8ba b2bf 74f4 0ec0 5c90 87bf
00000030: 448d e6be f152 49bf 5ffc 793e 2312 a5bd
00000040: f84b 19be 5edb 823f caf1 243e 0487 96bf
00000050: 7923 e93f fabe cf3e 7df1 b53e cd9d a73e
00000060: 0a98 06bf 3859 83bc 4be2 39bf e438 75bd
00000070: d66a 22c0 8bab f53e cea6 d4bf bca4 ffbe
00000080: 4392 9b3e 5246 b9bf e58c 543c 880a 83be
00000090: e6ee 11be 1ea4 68bf e3d4 cd3f 726e c9bd
000000a0: e1a8 273f 848c 763f 9d4c d03f 1701 5a3f
000000b0: a2d7 3dbf 138a 64bf be6f 2bbf 64bc 57bd
000000c0: f7b5 733f 44ad dd3e 426e 223e b7f4 50be
000000d0: 87a8 d2be 7961 383e 72ce 5d3f 6309 123f
000000e0: 9d1b b2bf 104f 013e 8526 c23f 8fbb 433f
000000f0: b343 33bd c673 2c3d c39c 883f 79bb 7ebd
00000100: 63b7 be3c dafc b13f 949a d3be 6344 dbbe
00000110: d6c1 783d 94e2 083f 0fd3 a43e 932e 5fbe
00000120: c7eb 2cbf 3e97 8b3f 030a 073f c120 8fbf
00000130: 770f 023d 7a8e cabf c776 4fbf 7702 abbf
00000140: 0c02 cdba 7089 5abf 474f 5f3f 138a 34c0
00000150: aa13 f43e fcb2 75bf 391f 793f 1f9e 1a3f
00000160: f30f ef3f 36a5 453f 9ce3 c33f 252e a7be
00000170: c7d8 423f fdca be3d 2415 d1be 7817 1c40
00000180: 1392 a63e 6943 50bf 5481 67be 671b 97bd
00000190: 9089 33bf fe96 f2bf 645f 9a3f 3614 3f3f
000001a0: 7971 d7bd 7b8f 623f 6c6f f53f acab 153f
000001b0: e1a0 a6bf 1479 78bf 57a0 0dbf 97b7 633f
000001c0: 743f 063f b9da 0940 2712 da3d 7001 3d3f
000001d0: a895 93bf fd96 de3f d2bd 29bf da23 393e
000001e0: 3f28 b1be b284 05bf 16b5 1cbd 421a 16bf
000001f0: 325f 83bf 3676 4f3e cbf3 bfbe 760e a63f
00000200: 4e68 303e 215c 403c 3277 2b3e 1925 b53f
00000210: 02cf 0440 a6b1 45bf 2229 12bf 92dd 5c3e
00000220: 6ff5 1f3d a9dd 9bbd f15e e9be 8d03 593f
00000230: e2d1 f53e e092 943f e441 4cbf d25d 13bf
00000240: 9cdc 42bf 7abb d2bf e6d3 12bf f3eb c63f
00000250: b991 9f3f 9688 04c0 ab16 903f 86a0 1ec0
00000260: 190e b83d 0b73 83bf ba91 063f ac0a 863f
00000270: 0bb2 e13e 974d b53f 41e6 c43e 7da4 c93f
00000280: 2ee6 813f c3d7 04c0 e6fc ecbf f2a7 e63f
00000290: dbab 113f 34b5 f6be 2d55 623f fe8e d1bc
000002a0: 3766 68bf 88ba a83e 57b3 cebe 0f28 de3e
000002b0: 8c14 8cbf 398b 6a3f 2fb0 b9be 1af7 b3be
000002c0: 309f 05be 80ad eebf 499a 223f 2a0c 4abf
000002d0: 1b61 2dbf 4c47 133e 35ed 903f 8588 0bbf
000002e0: af79 cf3e 8543 1140 542b 2dc0 ac12 45bc
000002f0: c4c5 3abf 82b8 28be fb64 2f3f 2f5e 0940
00000300: 217b 6ebd 1e83 143f 391e 7a3f 5ad7 a33e
00000310: 5668 32bf 5820 643f ed55 ff3f 12c9 a03f
00000320: 75b5 5abf 616f 4cbf 28c1 4b3f b996 53bf
00000330: 3083 dcbf 95dd bc3e 1f72 823f cd80 22bf
00000340: c3c1 753e 695c fbbf 943a 2f3f 624c c1bf
00000350: d94f adbe e930 b83e 5564 913f 5761 d9bf
00000360: d977 56bf 0426 4ebe 1ff0 f0bf 4cb9 8d3e
00000370: f6bf 8d3f 689f da3e d5b1 a73f 66a6 ccbd
00000380: c3f5 1140 bfbf 0e3f afa9 8fbe f49a 923f
00000390: 2b5c 473f d683 edbf dc26 2ac0 a6de 213f
000003a0: bce3 0ebf 3495 73bf 4efd d3bf 6948 7d3f
000003b0: 5361 b9be 49b2 e53e 6fb4 a33f 1ecc 14c0
000003c0: f52f ad3f 14d1 723f 7ec1 363f b393 21bf
000003d0: 53a2 0a3f c97a f2bf 39d7 e1bd 7d7b 5e3f
000003e0: 3bbc b1be 5783 cd3f c9b7 ac3f bec9 c63f
000003f0: c516 62bf 78ef 9c3f 0509 32bf 1c92 de3e

bn1.running_var f4 [256]
3.640137 3.3495674 2.384584 4.781361 4.1066704 1.8934032 1.3377935 6.2591214
2.7744708 2.1924634 3.2753797 2.8213878 5.7670417 3.976125 0.90464014 6.2966447
2.556705 7.949597 2.0862246 0.83528453 3.3078244 2.6571126 1.1366388 6.9083157
3.8439722 2.923025 4.2744727 3.9546502 5.5734115 3.1209617 4.23593 6.426827
1.5632108 5.9089975 6.5155983 4.1463737 1.3005865 0.5897843 5.3367414 4.2048354
3.843282 3.0708997 3.2411993 6.6145473 1.7121114 3.1264124 4.6841254 0.27890733
5.4997773 1.2826914 5.3277745 5.239541 3.817722 3.6775773 2.7449732 1.1456288
2.6772084 0.60261226 1.1206067 0.63990957 6.2043505 4.2974973 3.2905548 2.1385798
1.318733 1.1323161 12.6330185 5.8344026 2.6244905 3.4081633 7.8802023 4.6519876
1.1542122 1.4222422 3.4656959 3.8844268 3.005182 5.2723722 2.4387882 2.7148464
2.7317052 5.015848 2.219587 1.5231166 13.649045 4.0201745 5.556217 4.916756
4.2429805 1.5087252 4.013962 6.7948885 4.450756 2.4697323 2.9520266 1.0163211
8.027725 1.8072313 1.9763162 0.4391626 2.2814229 1.3304031 4.953178 2.5362096
0.82865536 0.80108494 6.4225664 3.0304396 3.1716611 6.2700424 3.1576371 6.774414
4.9334326 4.0243855 3.7744858 0.38273543 1.5612942 2.137242 6.989104 2.6087809
2.220355 1.2864618 2.8457403 2.3368523 2.257887 2.2005513 4.024904 1.7287203
8.248347 2.326615 1.4209715 4.6299624 1.3082685 3.90221 3.1950483 4.5026164
0.533652 3.8559852 10.58365 6.3630476 2.5115876 2.066436 3.960739 10.754651
2.1557276 6.8589525 12.654822 2.2467873 3.9655454 22.745163 1.5977196 3.737744
1.8638799 4.532332 5.094084 1.2003423 3.3919263 7.331523 2.7200472 5.8420806
0.9203595 2.3366804 2.4362473 7.0908704 3.212618 4.3280573 5.30411 0.39662734
4.7989016 3.8243423 4.78208 2.3120792 1.2143313 5.425129 2.1015623 2.3069599
0.5828148 0.9881908 4.015237 0.53266484 6.22607 3.9897978 4.0274725 2.3190603
2.2035716 3.4157858 2.0021183 4.932318 1.6879811 1.3649722 8.026264 4.51688
1.8360757 4.850096 4.6744637 10.958893 6.1427636 2.8786006 1.015527 3.3306732
3.8020804 1.3361907 5.014616 6.791074 2.7531528 1.7445099 7.715324 1.7834687
3.4527302 4.1766005 0.90154415 3.5130925 2.7043467 1.2368575 6.28933 1.2873499
5.8968596 2.6468105 2.002917 9.636563 4.1889987 4.96993 1.3591495 0.14130229
0.7618812 4.7559276 4.6895075 9.669296 5.5197086 8.331351 2.5521345 0.4014374
3.6835308 0.9583606 0.7013262 2.2459414 7.8204265 0.7912832 4.414465 2.2198315
1.597222 3.3467817 5.8587165 0.7228516 0.85822505 1.2718443 3.7881405 0.7294304
4.719063 1.2307296 2.6048307 3.4190164 2.078031 2.3733416 8.126709 1.0984566
00000000: 01f8 6840 505f 5640 069d 1840 e900 9940
00000010: d869 8340 095b f23f d13c ab3f b94a c840
00000020: ee90 3140 5251 0c40 d29f 5140 9e91 3440
00000030: 9b8b b840 d578 7e40 7f96 673f 1d7e c940
00000040: 0ea1 2340 1963 fe40 b484 0540 35d5 553f
00000050: 65b3 5340 220e 2a40 617d 913f ec10 dd40
00000060: a403 7640 d712 3b40 7bc8 8840 fd18 7d40
00000070: 6359 b240 d6bd 4740 bd8c 8740 91a8 cd40
00000080: 4b17 c83f 8216 bd40 c87f d040 18af 8440
00000090: 9e79 a63f 1bfc 163f 96c6 aa40 038e 8640
000000a0: 55f8 7540 9f89 4440 cf6f 4f40 5faa d340
000000b0: 7726 db3f 2417 4840 5be4 9540 f1cc 8e3e
000000c0: 2dfe af40 3b2f a43f 217d aa40 52aa a740
000000d0: 8f55 7440 6d5d 6b40 a4ad 2f40 f7a3 923f
000000e0: 6257 2b40 cc44 1a3f 0a70 8f3f 1dd1 233f
000000f0: 0a8a c640 1985 8940 7398 5240 7ede 0840
00000100: 3ecc a83f bcef 903f d820 4a41 6db3 ba40
00000110: a7f7 2740 591f 5a40 9e2a fc40 15dd 9440
00000120: 3abd 933f 080c b63f f6cd 5d40 739a 7840
00000130: e754 4040 46b7 a840 1b15 1c40 0bc0 2d40
00000140: 42d4 2e40 d481 a040 b70d 0e40 7cf5 c23f
00000150: 7d62 5a41 45a5 8040 88cc b140 1156 9d40
00000160: 7fc6 8740 e81d c13f 6072 8040 ba6f d940
00000170: 986c 8e40 1810 1e40 01ee 3c40 cf16 823f
00000180: 9071 0041 5b53 e73f eef7 fc3f ecd9 e03e
00000190: d502 1240 a64a aa3f 6f80 9e40 4251 2240
000001a0: c222 543f e713 4d3f aa85 cd40 b9f2 4140
000001b0: 7ffc 4a40 30a4 c840 ba16 4a40 00c8 d840
000001c0: aede 9d40 c4c7 8040 2d91 7140 e6f5 c33e
000001d0: 7dd8 c73f 93c8 0840 bda6 df40 44f6 2640
000001e0: 4c1a 0e40 c8aa a43f 9c20 3640 fd8e 1540
000001f0: 3881 1040 d5d5 0c40 03cc 8040 b546 dd3f
00000200: 3bf9 0341 43e7 1440 65e2 b53f a728 9440
00000210: 5875 a73f cfbd 7940 ac7b 4c40 6f15 9040
00000220: 6b9d 083f 76c8 7640 a156 2941 169e cb40
00000230: dabd 2040 7d40 0440 bf7c 7d40 0d13 2c41
00000240: 71f7 0940 8a7c db40 277a 4a41 5dcb 0f40
00000250: 7fcb 7d40 18f6 b541 1382 cc3f 3337 6f40
00000260: 9e93 ee3f dd08 9140 bc02 a340 d1a4 993f
00000270: 5215 5940 d69b ea40 4115 2e40 53f2 ba40
00000280: ae9c 6b3f 2c8c 1540 7aeb 1b40 69e8 e240
00000290: 899b 4d40 727f 8a40 45bb a940 bd12 cb3e
000002a0: 9a90 9940 06c2 7440 cd06 9940 1bf9 1340
000002b0: 356f 9b3f a89a ad40 ff7f 0640 3ba5 1340
000002c0: 5a33 153f 13fa 7c3f d27c 8040 b95c 083f
000002d0: f73b c740 d958 7f40 0ee1 8040 7c6b 1440
000002e0: 5107 0d40 3c9c 5a40 b522 0040 8dd5 9d40
000002f0: c40f d83f 69b7 ae3f 946b 0041 488a 9040
00000300: 8704 eb3f fd33 9b40 3595 9540 a057 2f41
00000310: 8591 c440 fe3a 3840 cafc 813f c029 5540
00000320: 4955 7340 4c08 ab3f bc77 a040 7a50 d940
00000330: a833 3040 1a4c df3f efe3 f640 b448 e43f
00000340: 88f9 5c40 b6a6 8540 99cb 663f 82d6 6040
00000350: 0414 2d40 5951 9e3f 3142 c940 e2c7 a43f
00000360: 13b3 bc40 5865 2940 cb2f 0040 5d2f 1a41
00000370: 470c 8640 ab09 9f40 9cf8 ad3f 8cb1 103e
00000380: a50a 433f 8f30 9840 7210 9640 70b5 1a41
00000390: 74a1 b040 374d 0541 2c56 2340 3489 cd3e
000003a0: f8be 6b40 1f57 753f 1d8a 333f 81bd 0f40
000003b0: ef40 fa40 8991 4a3f 4c43 8d40 b811 0e40
000003c0: c571 cc3f ac31 5640 9b7a bb40 cd0c 393f
000003d0: a3b4 5b3f cbcb a23f e570 7240 f3bb 3a3f
000003e0: 9002 9740 8c88 9d3f 8cb5 2640 2ad1 5a40
000003f0: 76fe 0440 d4e4 1740 0007 0241 3a9a 8c3f

fc2.weight f4 [256, 256]
0.020102644 0.067281425 0.11841346 0.0664929 -0.072799355 0.031159839 -0.03285465 -0.019812403
-0.017099682 0.018109899 0.015444526 0.080111936 0.055008605 0.00385087 -0.01028702 0.06384858
-0.0479695 0.06795428 0.022506842 -0.03792987 0.013046653 -0.015636936 0.005396802 0.079792574
0.016756654 -0.0056198696 -0.042068675 -0.002713651 0.06252426 -0.035090026 -0.056361575 0.07210871
0.046397302 0.03194444 0.015479668 0.03213752 -0.09285715 -0.00043016014 0.0064669773 -0.05127904
-0.049912166 0.056260724 -0.049277086 0.03409438 -0.011012938 0.106740184 0.028360166 -0.008051939
-0.0054769795 -0.026215633 0.023928346 -0.03089007 -0.008011425 0.009669528 0.041017562 0.042370692
-0.047884133 -0.0035713322 0.030435322 0.07169415 -0.008964359 0.0032810573 0.03356855 0.06838884
-0.027342997 -0.07788392 0.00011957133 0.011746298 -0.053248513 -0.02175051 -0.04087722 -0.004374396
0.0018140747 0.04864822 0.077865735 0.009134471 0.02239857 0.058136832 0.036518715 0.02453268
-0.006679064 0.026104268 -0.054262824 -0.010523212 -0.005550403 0.07146984 -0.050005946 -0.0023773115
0.00050071924 0.04934794 0.005669346 0.012978428 -0.049086295 -0.07874943 0.06272841 -0.27125663
-9.876846e-05 -0.09951619 -0.017006934 0.018175498 0.06815561 -0.012925252 -0.059272815 -0.07964949
-0.037650984 0.06577703 -0.052030638 -0.010591526 0.14007299 0.009660529 0.009108359 0.0013700988
-0.055453625 -0.084775634 0.011653649 -0.06957331 -0.013777474 -0.06417431 -0.007150282 0.12956521
0.06297604 0.03334271 -0.06082129 0.03439499 0.0468383 0.01275374 0.018282874 -0.03551728
-0.0012225921 0.0685518 -0.0083487015 -0.062708534 0.050386947 0.024766263 0.026081897 -0.0704197
0.015020454 -0.006180315 -0.07339722 -0.013286058 -0.03708192 0.012380599 -0.14257182 -0.030597374
-0.051128052 -0.03080173 -0.055835333 -0.055160545 -0.14524683 -0.013072736 -0.21218939 -0.032678913
0.0099763 -0.02804623 0.11255631 0.04088832 -0.00088869035 0.015999459 -0.049735013 0.0020101422
0.075648904 0.025260726 0.043584336 -0.039275903 0.036010813 0.025499754 0.03849934 -0.05367586
-0.00515703 0.025770582 0.0155050885 -0.1230149 0.09316164 0.03183103 0.016822431 0.012257225
0.12744977 0.11721723 0.04385131 0.037647147 -0.016086515 0.026232753 -0.046304945 0.077870734
-0.014912898 -0.0051863063 -0.029791152 0.049219042 0.042040646 -0.067542106 -0.014436884 -0.02821974
0.046816725 0.031530272 0.06613353 0.058462553 0.009513107 0.019153915 -0.01726448 0.016865421
0.06738224 0.031906232 0.047249157 0.02780084 0.033372916 0.004459855 -0.06006628 0.12479211
-0.047742303 0.029627666 -0.09139479 0.033691004 0.0716897 0.036466908 -0.0025539314 0.100366354
0.045559272 0.011788191 0.0767225 0.0093234675 0.013846156 0.017730514 -0.01850799 0.060483452
-0.20859838 -0.022021376 0.0409789 0.053494487 -0.009251488 -0.03332617 0.019712433 -0.22014667
0.02107792 0.006093482 -0.051135324 0.057684224 0.012524364 -0.030670118 0.021962859 0.024036251
-0.0013540932 0.0008828779 -0.045676738 -0.11334156 0.09126282 0.017518114 -0.043829422 0.00073832803
-0.0048019276 -0.014259902 -0.0738484 -0.033007987 -0.0035371243 -0.008387771 0.07088141 0.030698549
00000000: 4dae a43c d8ca 893d c282 f23d 6e2d 883d
00000010: d417 95bd eb42 ff3c 9992 06bd 9f4d a2bc
00000020: a214 8cbc 365b 943c 0a0b 7d3c ba11 a43d
00000030: b450 613d e15e 7c3b e48a 28bc 0bc3 823d
00000040: ab7b 44bd 9d2b 8b3d 4560 b83c 5a5c 1bbd
00000050: a1c1 553c 0819 80bc a8d7 b03b 4a6a a33d
00000060: 4045 893c e226 b8bb 3450 2cbd 82d7 31bb
00000070: b80c 803d 8fba 0fbd 65db 66bd bbad 933d
00000080: 190b 3e3d 2cd8 023d 6f9e 7d3c a2a2 033d
00000090: e42b bebd 1e87 e1b9 f0e8 d33b f809 52bd
000000a0: b370 4cbd a571 663d c5d6 49bd 8ca6 0b3d
000000b0: 9c6f 34bc 999a da3d 9453 e83c 48ec 03bc
000000c0: 3c78 b3bb 2bc2 d6bc 6105 c43c 2c0d fdbc
000000d0: 5a42 03bc f16c 1e3c 0802 283d e48c 2d3d
000000e0: 2722 44bd 030d 6abb 7f53 f93c 62d4 923d
000000f0: 3fdf 12bc 0207 573b 2d7f 093d 730f 8c3d
00000100: 6cfe dfbc 9b81 9fbd 5ec2 fa38 8b73 403c
00000110: 1d1b 5abd 202e b2bc df6e 27bd 1857 8fbb
00000120: 3fc6 ed3a 5b43 473d 1278 9f3d c0a8 153c
00000130: 357d b73c e320 6e3d a694 153d c2f8 c83c
00000140: 0ddc dabb 9ed8 d53c b242 5ebd 8d69 2cbc
00000150: 28e0 b5bb c85e 923d 09d3 4cbd abcc 1bbb
00000160: b342 033a 1121 4a3d ecc5 b93b 79a3 543c
00000170: b60e 49bd 6247 a1bd c177 803d 26e2 8abe
00000180: ea21 cfb8 25cf cbbd 2052 8bbc c8e4 943c
00000190: 2b95 8b3d 70c4 53bc 0dc8 72bd 461f a3bd
000001a0: eb37 1abd 1cb6 863d 141e 55bd 1488 2dbc
000001b0: 4b6f 0f3e 3247 1e3c 3a3b 153c e394 b33a
000001c0: 5723 63bd d99e adbd f2ee 3e3c 747c 8ebd
000001d0: eaba 61bc d26d 83bd ea4c eabb beac 043e
000001e0: 95f9 803d 5e92 083d bf1f 79bd c3e1 0c3d
000001f0: 84d9 3f3d 10f5 503c f7c5 953c 917a 11bd
00000200: 623f a0ba e364 8c3d fec8 08bc 556d 80bd
00000210: 8b62 4e3d 9ee2 ca3c b4a9 d53c 3438 90bd
00000220: 5a18 763c 3d84 cabb 4851 96bd c4ad 59bc
00000230: 36e3 17bd ffd7 4a3c 59fe 11be 58a7 fabc
00000240: a66b 51bd e953 fcbc 97b3 64bd 06f0 61bd
00000250: 96bb 14be 072f 56bc 2d48 59be 53da 05bd
00000260: a373 233c 35c1 e5bc ec83 e63d 837a 273d
00000270: 00f7 68ba 4c11 833c f1b6 4bbd 97bc 033b
00000280: d0ed 9a3d 95ef ce3c 7d85 323d c5df 20bd
00000290: 1380 133d dce4 d03c 7cb1 1d3d 38db 5bbd
000002a0: 4efc a8bb d41c d33c 0e09 7e3c 3cef fbbd
000002b0: 88cb be3d 4161 023d 32cf 893c 87d2 483c
000002c0: 3182 023e 960f f03d 6e9d 333d e533 1a3d
000002d0: dec7 83bc 12e6 d63c 41aa 3dbd b17a 9f3d
000002e0: 3a55 74bc e4f1 a9bb 930c f4bc e899 493d
000002f0: d032 2c3d 8453 8abd ae88 6cbc 162d e7bc
00000300: e5c2 3f3d e325 013d 0471 873d 6e76 6f3d
00000310: dddc 1b3c ace8 9c3c 3d6e 8dbc 5a29 8a3c
00000320: b3ff 893d 1cb0 023d 5588 413d 96be e33c
00000330: 0ab2 083d fa23 923b 0f08 76bd 0193 ff3d
00000340: 6f8d 43bd b8b5 f23c 312d bbbd 94ff 093d
00000350: 0dd2 923d 535e 153d dc5f 27bb e08c cd3d
00000360: 5c9c 3a3d 4223 413c b020 9d3d 75c1 183c
00000370: fdda 623c 953f 913c 119e 97bc 7fbd 773d
00000380: d09a 55be 2c66 b4bc 7ed9 273d 091d 5b3d
00000390: 8e93 17bc 0681 08bd f87b a13c 216e 61be
000003a0: 9aab ac3c d5ab c73b 4673 51bd 4b46 6c3d
000003b0: fd32 4d3c e63f fbbc 74eb b33c ace7 c43c
000003c0: d47b b1ba ef70 673a 8817 3bbd 9f1f e8bd
000003d0: 00e8 ba3d 2682 8f3c 7b86 33bd 5b8c 413a
000003e0: 7d59 9dbb 5da2 69bc d43d 97bd 6233 07bd
000003f0: 19cf 67bb dd6c 09bc 462a 913d 867b fb3c

fc2.bias f4 [256]
-0.051965635 -0.026924469 -0.049706005 -0.024622733 0.022331508 -0.00015029857 -0.018390484 -0.008460437
-0.06040665 -0.0069183963 -0.047979347 -0.04840906 0.041926973 0.0071312715 -0.03149853 0.004626367
-0.022928402 -0.052590866 -0.049763415 0.05724444 -0.038930286 0.028527979 0.043001037 -0.005746707
-0.0028427914 0.020833664 0.02022522 -0.051273234 -0.037066523 -0.021955865 -0.03256071 0.055652097
-0.05655472 -0.0344779 -0.059631124 0.058322564 -0.060768146 -0.05282556 0.015045352 -0.006112863
-0.033384595 0.0038594436 -0.020294942 -0.056585092 -0.012258422 -0.02828798 0.041539807 0.047620814
0.04976187 0.054122165 0.003462977 0.045578312 0.035297785 0.029844591 0.015796678 0.04504699
0.05464129 -0.048396327 -0.05645083 -0.05619043 0.06025117 0.03104624 -0.00026054564 -0.059309445
-0.04410338 -0.04967381 -0.022626005 0.018944247 0.004386321 0.0080083115 0.038876325 -0.025211338
-0.016607536 0.011711007 -0.0076834173 0.024275433 0.031296924 0.04925752 -0.033976417 -0.04573131
-0.035260238 -0.0058426764 0.021546006 -0.029413303 -0.020627229 -0.00084319623 -0.05136856 0.0070112343
-0.059299905 -0.051160216 0.024528865 0.023300769 0.033812486 0.05239251 -0.0129377125 0.06019002
0.025622644 -0.006790199 -0.047063157 -0.048058867 0.03803194 0.028052222 -0.006966421 0.020557448
0.049282186 0.03840027 -0.039954774 0.03318222 0.026099289 -0.022286188 -0.0038618653 -0.02062624
-0.06212565 -0.021361768 0.059828416 -0.019448588 -0.04378965 0.0044064187 -0.030627448 0.008534394
0.058991503 0.044625577 0.009137481 -0.027731549 0.013441101 0.010202472 -0.0076052668 0.02871087
0.033909302 -0.038320076 0.054798502 -0.038201325 -0.038177077 -0.020610666 0.059135925 -0.035395097
0.010021315 0.019848622 0.052504264 -0.024089638 -0.031463545 0.0043050773 0.051688287 -0.024500636
0.038531903 -0.05743589 -0.044757847 0.057189673 -0.012875806 -0.0043748766 -0.014953986 -0.005074219
-0.0061260182 -0.02604328 0.019732097 0.01339153 0.00012138681 -0.041882154 0.04715678 -0.0036414126
0.0012940394 -0.04514042 0.04529821 0.058138363 -0.028528875 -0.06097603 -0.010547246 -0.056426533
0.025456294 0.0012804426 -0.0147551205 0.0038109717 -0.05620696 -0.039056182 -0.054877244 -0.0054326137
0.04321059 -0.029272648 0.022618704 -0.004424824 -0.0029073092 0.013589561 -0.047507755 0.03952709
0.053007763 -0.0085710995 0.044031434 -0.05415136 -0.025196701 0.03612791 0.061198164 -0.00081381726
-0.028053813 -0.028815558 0.040784694 -0.005441534 0.030578183 0.032546055 -0.033487897 0.05448907
0.00036672998 -0.024022322 -0.014473456 0.044533316 -0.020191392 -0.031469323 0.043254938 -0.041236285
0.054482438 0.0331736 0.05363358 0.030961955 -0.04530029 0.04569094 -0.05885419 -0.054651618
-0.0013178191 -0.023785628 0.0017458155 0.0005462268 0.031385146 -0.008944651 0.054250423 0.03894118
-0.04672714 0.049830932 -0.023764681 -0.0074643153 -0.041541573 0.02192604 0.050315816 0.05237873
-0.021370873 0.020562176 -0.03413043 -0.046615917 -0.023712976 0.059282403 -0.045613263 -0.051942416
0.036717147 0.041841183 0.059185915 0.0056494037 -0.029661492 -0.041546702 0.0017565973 0.058350325
0.022342809 0.018713802 -0.048449468 0.0005341828 0.038377546 -0.018885862 0.015567646 -0.039430447
00000000: ebd9 54bd b490 dcbc 8698 4bbd 9db5 c9bc
00000010: 91f0 b63c 7799 1db9 a4a7 96bc a59d 0abc
00000020: f76c 77bd b7b3 e2bb fe85 44bd 9448 46bd
00000030: 9ebb 2b3d 71ad e93b 9a04 01bd c798 973b
00000040: 58d4 bbbc 8569 57bd b9d4 4bbd 2579 6a3d
00000050: 5d75 1fbd 82b3 e93c db21 303d df4e bcbb
00000060: 204e 3abb 5cab aa3c 5caf a53c e203 52bd
00000070: 11d3 17bd c9dc b3bc 615e 05bd 74f3 633d
00000080: eca5 67bd b338 0dbd c43f 74bd a4e3 6e3d
00000090: 05e8 78bd 9d5f 58bd c880 763c 694e c8bb
000000a0: 49be 08bd b8ee 7c3b 9441 a6bc c5c5 67bd
000000b0: 8cd7 48bc 32bc e7bc a525 2a3d 0b0e 433d
000000c0: 1ad3 4b3d 34af 5d3d 1df3 623b 53b0 3a3d
000000d0: 6994 103d a57c f43c 0968 813c 3183 383d
000000e0: 8ccf 5f3d 3a3b 46bd fc38 67bd f027 66bd
000000f0: eec9 763d af54 fe3c d899 88b9 76ee 72bd
00000100: bfa5 34bd c476 4bbd 2c5a b9bc f730 9b3c
00000110: 21bb 8f3b 4b35 033c c83c 1f3d 0288 cebc
00000120: 870c 88bc 86df 3f3c 2dc5 fbbb 46dd c63c
00000130: 3431 003d 41c2 493d db2a 0bbd c150 3bbd
00000140: 0a6d 10bd ec73 bfbb 4081 b03c 2bf4 f0bc
00000150: 6ffa a8bc f109 5dba d767 52bd 7fbe e53b
00000160: 75e4 72bd 608d 51bd c2f0 c83c 41e1 be3c
00000170: f67e 0a3d 8799 563d b3f8 53bc cf89 763d
00000180: 94e6 d13c 5180 debb 4cc5 40bd 60d9 44bd
00000190: 61c7 1b3d c6cd e53c 9346 e4bb 1868 a83c
000001a0: 1edc 493d 9a49 1d3d 9ea7 23bd 14ea 073d
000001b0: 2dce d53c 8691 b6bc 5917 7dbb 5cf8 a8bc
000001c0: 7777 7ebd e0fe aebc a40e 753d a552 9fbc
000001d0: c75c 33bd b863 903b 6ae6 fabc d8d3 0b3c
000001e0: 13a1 713d 4fc9 363d 60b5 153c 462d e3bc
000001f0: 1038 5c3c 4528 273c 9a35 f9bb 0f33 eb3c
00000200: 7be4 0a3d 83f5 1cbd 6574 603d fe78 1cbd
00000210: 915f 1cbd b3d7 a8bc 8338 723d 73fa 10bd
00000220: 7130 243c 9499 a23c b60e 573d a257 c5bc
00000230: ebdf 00bd 9b11 8d3b 19b7 533d 8fb5 c8bc
00000240: a1d3 1d3d e541 6bbd 0154 37bd b83f 6a3d
00000250: 0bf5 52bc 205b 8fbb 9001 75bc a245 a6bb
00000260: c4bc c8bb b758 d5bc 35a5 a13c 2668 5b3c
00000270: 0c91 fe38 9f8c 2bbd 7827 413d c4a4 6ebb
00000280: c29c a93a 29e5 38bd 9e8a 393d 7e22 6e3d
00000290: 63b5 e9bc 00c2 79bd 5bce 2cbc 821f 67bd
000002a0: b889 d03c 86d4 a73a 76bf 71bc 7fc1 793b
000002b0: 4539 66bd 60f9 1fbd f6c6 60bd 1104 b2bb
000002c0: 96fd 303d 31cd efbc dc4a b93c 1dfe 90bb
000002d0: 8e88 3ebb c0a6 5e3c 7e97 42bd 28e7 213d
000002e0: ab1e 593d cc6d 0cbc 4e5a 343d d1cd 5dbd
000002f0: 5069 cebc dcfa 133d edaa 7a3d 5a56 55ba
00000300: 1cd1 e5bc 9b0e ecbc da0d 273d e54e b2bb
00000310: 197f fa3c 034f 053d 9b2a 09bd ee2f 5f3d
00000320: aa45 c039 76ca c4bc 1322 6dbc 9168 363d
00000330: 6b68 a5bc fae5 00bd 172c 313d 61e7 28bd
00000340: fa28 5f3d 0ae1 073d e3ae 5b3d eda3 fd3c
00000350: cc8c 39bd 6c26 3b3d 1711 71bd 60da 5fbd
00000360: acba acba 14da c2bc d9d3 e43a a930 0f3a
00000370: b68d 003d 968c 12bc b135 5e3d c980 1f3d
00000380: f564 3fbd 851b 4c3d 26ae c2bc 3797 f4bb
00000390: 7f27 2abd 3d9e b33c f517 4e3d 148b 563d
000003a0: f811 afbc 0272 a83c 5acc 0bbd 55f0 3ebd
000003b0: b741 c2bc 1bd2 723d f9d4 3abd 92c1 54bd
000003c0: b864 163d a961 2b3d ee6c 723d a21e b93b
000003d0: a8fc f2bc e02c 2abd a03d e63a c000 6f3d
000003e0: 4408 b73c b04d 993c f372 46bd 6708 0c3a
000003f0: c631 1d3d 86b6 9abc 710f 7f3c d281 21bd
