Project_3-Collaboration and Competition/checkpoint_critic.pth (torch_old, 297283 bytes, 9 tensors)

fcs1.weight f4 [256, 24]
00000000: db7a d53b 9c66 20bd ada4 a8bc 74ce ae38
00000010: 173b f3bb bf45 61bb 2f90 163c 7003 6d3c
00000020: e223 323b 36d8 9ebd f685 b03c b623 a6bb
00000030: 09b5 3b3b 74fc 893d 9c58 da3c 2118 183d
00000040: 4bf4 b6bd dd61 03bd 0bbd 79bc ab2a 493d
00000050: 3635 0dbe 86a0 233e 3b24 873c f17b e93c
00000060: 5890 2e3d 8ad2 8cbb 553a 31bc 8caf d63b
00000070: 2a70 083d 3a58 6a3c 117b 243c dd5c 82bd
00000080: 5170 48bd 85a8 d3bc 27cf eebc 5570 833d
00000090: b6aa 6b3d 22fa 373e 297d 203d 5b87 0fbd
000000a0: 4dcc 8dbd a7ba e33b 3f83 5cbd b981 a3bd
000000b0: 7f64 763b 0282 fcbd 9dd3 673d eb7d f1bc
000000c0: fc6b e53c 757d 1339 7cff 1c3c 5a77 4cbc
000000d0: 24cf a8bc 5ca8 66bc 168f 96bc 2d9f 913c
000000e0: faa6 37bd 2dc3 d1bd 6408 db3b 622e 6a3c
000000f0: 40c4 74bd ae13 af3d a816 3fbd 0547 d5ba
00000100: 09d2 343d 6551 8cbd e7ca 993b 9d14 aa3d
00000110: ce0f d33d 504d 1f3e ffdd f23c 215f a43d
00000120: 6b8d 183d 6ca8 b43c c188 4fbc 5a04 8abd
00000130: 4cc9 f0bc 0c9a 0dbd 13ae 413c b804 b7bd
00000140: c788 01bd 96ad aabc 0384 7cbd fea9 b13c
00000150: 7367 e3bb 9908 88bd 543f a5bd aab1 ffbc
00000160: 49e9 38bd 307b 4abd 44f2 4639 0318 8cbd
00000170: e936 7bbd b27d fabd 5e96 dd3c 819b 143d
00000180: e6fb 7dbd d9b2 90bd 578b c23b 18a5 963d
00000190: d86f e73c 849d 0cbd 30b2 643d 3796 4a3d
000001a0: 129a 07bd e3df 383b 9e89 33bd 27b7 313d
000001b0: cabb 4fbd f25d e4bd 3374 26bc 444c f73c
000001c0: 7e15 283d dfa7 543c 00ca 69bc 3b3c d0bc
000001d0: b0bd 7d3d 5912 18be 2b21 013d 3cd4 0d3d
000001e0: 3aee bebc 51a6 5abd a6f5 323d cb65 3b3c
000001f0: 23b1 423d 7fd9 2c3d 4ab8 44bd d658 b43c
00000200: b08c 32bd dfca 14bd 34d3 a5bc 8ddd 17bb
00000210: 0300 733d c923 5bbe 06d6 9f3c 6eb5 10bd
00000220: 612b 93bc 830f e93c d16f c3bc f1e3 f1bc
00000230: f2c3 103c 52ef e5bd f166 d63c 65d6 38bc
00000240: 1460 9fbc 23bc 08bd 547a 4c3d e70f 22bd
00000250: 06a6 89bb 2c52 f5bd 1ab1 a0bc 9bd8 9bbd
00000260: d35b cdbb 96ea 8ebd 5f6d abbc ce7b 8a3c
00000270: 46ca 12bd 0754 c7bd f19a 97bc 302e dbbb
00000280: 6170 c43d f982 59bd 435a d53c 9f99 9fbd
00000290: 223e 3a3d 5d86 ca3d d97b ad3c b46e 44bc
000002a0: ada6 9cbd db5e db3c 81db 473b f3e1 293c
000002b0: 6bfd 7fbd 50ed a7bd cd28 af3c 495c 1f3c
000002c0: 3fc7 ddbd 5720 9b3b 6134 58bd aa1d 133a
000002d0: 29de 4e3d 725f 853d 13aa 65bd 1aa6 febc
000002e0: 20a6 11bc 367f e23b 5c9f 983c a7ad f73c
000002f0: f1f3 603d 581d 5b3c c96e 883c 2bf9 f7bc
00000300: 3f4f 5f3c 9908 1f3d a038 833c e04d e0bb
00000310: d1a2 113d c791 1ebc 1c2e 05bd d4cb a4bc
00000320: 3fde 45bd 83dc 343d 28d8 683c ca44 43bc
00000330: 076b 083e 3a3a a3bd 042a 19bd 5016 423d
00000340: 0235 54bd 4bf3 fe3d aa96 a2bc 2de3 873b
00000350: ca14 c03c bbf0 a63d cb75 c3ba 7617 4ebc
00000360: b604 87bd 4690 8dbd 3d4c a43b c489 05bc
00000370: c14c 04bd 46d9 b8bc cf48 89ba 5931 4f3c
00000380: 036b b4bb 4200 1ebd 449d f93b 7ad8 23bd
00000390: e507 c8bc d730 163e 2139 43bc 92c8 383a
000003a0: 0372 9e3d 8671 3c3d 1dd3 5d3d c6bb 093d
000003b0: 05ff 843d 21de fd3d 517f 27bd f8f8 923d
000003c0: 2d5f fe3c 2218 b63b d3c4 743d 5427 85bc
000003d0: abe9 823d dfe2 bf3d 056d 6abd f147 4ebc
000003e0: a898 0bbc 8464 c53c 56eb 233d c82c 3abd
000003f0: fd93 53bc 431e ce3d bc8c 0dbd eca8 273d
0.0065148897 -0.039160356 -0.020586336 8.3354214e-05 -0.0074228155 -0.0034373847 0.0091896495 0.014466152
0.0027182032 -0.07756083 0.021548253 -0.005070175 0.002864184 0.06737605 0.02665358 0.037132386
-0.08933314 -0.03207575 -0.015242825 0.049112957 -0.1378983 0.15979204 0.016496768 0.028501483
0.042618126 -0.004297559 -0.01081713 0.0065516885 0.033310093 0.014303261 0.010039107 -0.063653685
-0.04893524 -0.025837192 -0.029151512 0.0641791 0.05753585 0.17966512 0.039181862 -0.035041194
-0.06923733 0.006949741 -0.053836104 -0.07983727 0.0037596521 -0.123294845 0.056598295 -0.029478988
0.028005593 0.00014065749 0.009582397 -0.0124796275 -0.020606585 -0.014078226 -0.018378776 0.017776096
-0.044836976 -0.10242305 0.00668435 0.014293285 -0.05975747 0.085486755 -0.046652466 -0.0016271776
0.044145618 -0.06851462 0.0046933773 0.08304713 0.10305749 0.15556836 0.029646872 0.08025957
0.03724424 0.022052966 -0.012666882 -0.06739111 -0.02939286 -0.03457074 0.011821288 -0.08936447
-0.03162458 -0.020834725 -0.061649334 0.021687504 -0.0069398223 -0.06642265 -0.080687195 -0.031212647
-0.045144353 -0.049433887 0.00018973002 -0.06840517 -0.061331663 -0.12231006 0.02704924 0.036281113
-0.062007807 -0.070653625 0.0059370208 0.07355708 0.028251573 -0.034329906 0.055833995 0.049459662
-0.033105917 0.0028209619 -0.043832414 0.04338756 -0.0507162 -0.11150731 -0.01015954 0.030187733
0.04103612 0.012979477 -0.014269352 -0.025419345 0.06194848 -0.14850749 0.031525772 0.03462623
-0.023306955 -0.053381268 0.0436913 0.011437844 0.047532212 0.042199608 -0.048027314 0.022015017
-0.0435912 -0.036326285 -0.020242311 -0.0023172826 0.059326183 -0.2140037 0.019511234 -0.035329275
-0.01796502 0.02844978 -0.02385703 -0.029527636 0.0088357795 -0.11227287 0.026172133 -0.011281584
-0.019454993 -0.033382546 0.04992135 -0.039565947 -0.0042006997 -0.11978564 -0.019615699 -0.076096736
-0.00626705 -0.069783375 -0.020926176 0.016904738 -0.035837434 -0.09732824 -0.018506499 -0.0066888556
0.09591747 -0.05310342 0.026044017 -0.07792973 0.04546941 0.09888909 0.02117722 -0.011989284
-0.076489784 0.026778629 0.0030495825 0.010368812 -0.062497538 -0.08199561 0.02138176 0.009726592
-0.10829019 0.00473408 -0.052784327 0.0005612025 0.050504837 0.065123454 -0.0560704 -0.031085063
-0.008889705 0.0069121374 0.018630676 0.030234171 0.05492014 0.013373695 0.016654389 -0.03027018
0.013629734 0.03882656 0.016018212 -0.006845221 0.035555664 -0.009678311 -0.032514676 -0.020116724
-0.048307654 0.04415561 0.014211692 -0.011918256 0.13322078 -0.0797009 -0.037393585 0.04738456
-0.051808365 0.12448748 -0.019847233 0.0041469545 0.023447413 0.081513844 -0.0014912424 -0.012578836
-0.065926954 -0.069122836 0.005013971 -0.008150522 -0.03229976 -0.022564542 -0.0010473969 0.012646043
-0.005505921 -0.038574465 0.0076176245 -0.04000137 -0.024417827 0.14667068 -0.011915476 0.000704893
0.0773659 0.046006702 0.05415641 0.03362634 0.064939536 0.12395883 -0.040892903 0.07176393
0.031051243 0.005557076 0.05975802 -0.016254105 0.06392225 0.09369444 -0.057232875 -0.012590394
-0.008520283 0.024095781 0.040019356 -0.045452863 -0.012913701 0.10064366 -0.034558043 0.04093258

fcs1.bias f4 [256]
00000000: 612f 543d 8b31 1e3d d118 073e d4de d53d
00000010: bb5f e7bd 5e02 49be 4462 ce3d ce5e f9bd
00000020: 4bb2 91bd f6db 863d d2ad c5bd 427d 4fbe
00000030: bb2b a6bb b07a e53d 9b47 4cbe 1a48 013e
00000040: cd4b 6a3c 21e9 403e d83f f7bd 270e 0e3e
00000050: 59ef 98bc b203 0d3e a1a1 e13d b672 353e
00000060: 58bd 903d ef0c af3d 5e42 96bd 1c43 d5bd
00000070: 5677 463e 23f1 d7bd c748 f1bd 5646 8c3d
00000080: d9d7 073c eec4 113e 7964 49be 7bf8 613d
00000090: d226 463d 7407 58bc 055b 45bd 02f9 5dbc
000000a0: 6596 27be 7097 8fbb 184f 953d b45e 80bd
000000b0: 0ca6 0dbe b666 53bc 8fcd 493e 03ed 45be
000000c0: b8d2 92bc 0ed1 f8bd b441 11be b9ad 6bbd
000000d0: 9df9 c53c 4902 18be 041c e33d 958e bcbc
000000e0: c291 d33a 323b 8abd 445a 21be 20d8 9cbd
000000f0: 0d77 4e3e d0af ea3d 8c37 293e 55ac db3d
00000100: eae0 b8bd 36fb 05be e805 f33d b731 15be
00000110: d6e0 0dbe d483 d03d 82df 273e 3781 37bc
00000120: 6215 143e 23ba 3c3e 70ac ad3d f01b 21be
00000130: 0ab4 0cbe f774 423e a36e 1c3e 841c 3cbe
00000140: bb3e b3bd e244 4ebe 95c6 a03b c683 22bd
00000150: 3926 d03c 204e 54bd 7167 c2bc c286 88bc
00000160: 2766 283e dc4a 653d 6c8d 2abe dda3 0abe
00000170: 8beb 013e b09c 683d 9638 d4bd f4a3 0cbd
00000180: fc27 f2bd f66f 16be 2b16 18be 7530 ab3d
00000190: a9ee 8bbc b0a3 4a3e 2854 d63c 3c19 34be
000001a0: 0e58 193d ee7d 3fbd 32a4 033d b8a0 e3bd
000001b0: 40d1 8abc 5b79 1f3e 9421 313e 5c92 3cbe
000001c0: 8eba 42be 0489 a2bd 4871 89bd 6c50 4c3e
000001d0: 6b36 2e3e f298 19bd 32f8 2cbe d4bf 323d
000001e0: 406d 65bd 142e 3c3e fff8 c7bb 4a86 323e
000001f0: fc5e cbbd 5c47 25be 76e1 83bd 4b04 a33d
00000200: 91d9 fdbd d039 023c 501b b0bd dff5 1abc
00000210: 327f 10be 3502 d6bd ee9a f7bd 1f7e cd3c
00000220: e16c b0bd 600e 29be 6ad3 8b3d 9a68 86bc
00000230: ebfe a63d 5ed4 1c3e 1d84 16be 4852 23be
00000240: 4885 913d 8cfe 0b3c 9ebf 1f3e 2162 e9bc
00000250: 7527 bdbd cf72 91ba ae53 f9bd da86 623d
00000260: 2607 203d 54e3 fc3c e7e3 31bd 6258 9b3d
00000270: eaef e7bd c8c1 5f3c ba4c 3bbe bd93 aa3d
00000280: 7861 e4bd e430 1fbe 6d8c f83d 6489 1cbe
00000290: 0e57 22be 7202 e0bd a9fd bf3d fb7b 7dbd
000002a0: 0de7 3dbe ed85 593d db4f f8bd a0fd dfbd
000002b0: 8e3b a63d c83d f7bd fcb6 913d bbaf f6bd
000002c0: 6813 c4bd 1755 28be 7e65 3a3e f123 83bd
000002d0: cf9f 153e 0281 16bd 7baa 99bd 30d0 fd3d
000002e0: 533c 24bd f1a3 76bd cb86 063e 89bc 9a3d
000002f0: 8ea9 0ebe f2f7 2cbe a6bf 013e 7433 92bd
00000300: 664e 95bd 0e77 86bd ef8d fd3a 864a b3bd
00000310: 5a3f 27be 48ec b13c d8dc a73d 1c5f 6dbd
00000320: 0889 87bc 4e46 de3d 406d 81bd 6582 ce3d
00000330: 3a92 293e 39de 043e 5c39 64bd 18ad d53d
00000340: d702 44be ed97 b4bd dd57 ee3d b40f e13d
00000350: e6d1 173e 776f 88bd ee59 36be 789b 433e
00000360: 065b 0a3e 28a1 9ebd d80f 0f3e 73a3 133e
00000370: 4101 e23c ecc4 e13c e05d a53c 9a12 ef3d
00000380: 328c a23a b41e a33d 20eb 9a3b 630d 9f3d
00000390: ed1c 943d 7279 253e 53eb 373e 0bf3 23bd
000003a0: c0c1 2fbe ed6d 043e dd7b d4bc 7f48 e9ba
000003b0: ade0 c3bd 21f5 d03c e033 103e b2b4 49be
000003c0: 3453 2abe 94f3 2e3e 9269 f6bd 2a5d 2abe
000003d0: 3fef 083e c0b8 553d a3fe 05be 5ed2 183e
000003e0: 662a 0bbd de74 fd3d 638f 14bd 7c44 92bd
000003f0: f8c5 2b3c a6b6 343e f99c b83c 8164 8fbc
0.051802997 0.038621467 0.1319306 0.10442892 -0.11297556 -0.1962981 0.100773364 -0.12176286
-0.07114085 0.06584923 -0.09652294 -0.20262626 -0.005071131 0.112050414 -0.1994919 0.12625161
0.014300299 0.18838932 -0.12072724 0.13872586 -0.018668817 0.13770941 0.110171564 0.1771954
0.070673645 0.08547389 -0.07336877 -0.10413191 0.1938146 -0.1054404 -0.11781459 0.06849353
0.008291208 0.14235279 -0.19667234 0.05516861 0.048376866 -0.013185371 -0.048182506 -0.013548138
-0.16365965 -0.0043820664 0.072904766 -0.06268063 -0.13832873 -0.012902906 0.1970732 -0.19328694
-0.017922744 -0.12149249 -0.1418522 -0.05753872 0.024166876 -0.14844622 0.11089328 -0.023017207
0.0016141462 -0.06749572 -0.1575709 -0.0765841 0.20162602 0.11459315 0.16525096 0.10726229
-0.09027274 -0.1308411 0.11866361 -0.14569746 -0.138553 0.10181394 0.16393855 -0.011200241
0.14461282 0.1843038 0.084801555 -0.15733314 -0.13740554 0.18989931 0.1527658 -0.18370253
-0.08752199 -0.20143464 0.0049064853 -0.03967645 0.025408851 -0.05183232 -0.023730965 -0.01666582
0.16445218 0.055979595 -0.1665551 -0.13539071 0.12687509 0.056790054 -0.103623554 -0.034336045
-0.11824033 -0.14691147 -0.14852206 0.08358852 -0.017081575 0.19789004 0.026163176 -0.17587751
0.03743749 -0.046750955 0.03213901 -0.11114639 -0.016945481 0.15573637 0.17297965 -0.18415207
-0.19016477 -0.0793629 -0.0671106 0.19952554 0.17012946 -0.037499376 -0.16891554 0.043639973
-0.056012392 0.18376952 -0.0061026807 0.1743404 -0.09930226 -0.16140503 -0.06439488 0.07959803
-0.12395013 0.007948354 -0.085989594 -0.009458034 -0.14111021 -0.1044964 -0.12090097 0.025084553
-0.08614517 -0.1650939 0.068274334 -0.0164073 0.081540905 0.15315387 -0.14698835 -0.15949357
0.071054995 0.008544575 0.1560044 -0.028489174 -0.092360415 -0.0011096838 -0.12174164 0.055304386
0.039069317 0.030870117 -0.043430235 0.07585217 -0.11325057 0.013657041 -0.18290988 0.0832896
-0.11151403 -0.15545994 0.12136159 -0.15286785 -0.15853521 -0.109379664 0.09374554 -0.061885815
-0.1854517 0.053106237 -0.12124606 -0.10937047 0.08116828 -0.12072331 0.071149796 -0.12045237
-0.09574014 -0.16438709 0.18202779 -0.0640334 0.14611743 -0.036744125 -0.0750322 0.12393224
-0.040096592 -0.06021494 0.13137357 0.075554915 -0.13931867 -0.16891459 0.12670764 -0.0713872
-0.07290344 -0.06565677 0.0019344668 -0.087544486 -0.1633276 0.021719113 0.081964195 -0.05795203
-0.016544834 0.10853253 -0.06319666 0.100834645 0.16559687 0.12975396 -0.055718765 0.10433406
-0.19141708 -0.0881804 0.11637852 0.10989323 0.14826164 -0.06661885 -0.17807743 0.19102275
0.13511285 -0.07745582 0.13970888 0.1441782 0.027588489 0.02755972 0.020186365 0.1167347
0.0012401401 0.079648405 0.004727736 0.07766225 0.0723208 0.16159609 0.17960863 -0.040026706
-0.17163754 0.12932558 -0.025937969 -0.0017798095 -0.09564338 0.025507512 0.14082289 -0.19697836
-0.16633302 0.17085105 -0.12031855 -0.16637102 0.13372515 0.052178144 -0.13085417 0.14923999
-0.03397598 0.12375806 -0.036269557 -0.071419686 0.010484211 0.176478 0.022535788 -0.017503979

bn1.weight f4 [256]
00000000: 72e8 483f 0613 be3e 52d0 0b3f b371 543f
00000010: da13 8a3e 49c5 d23e ade3 8c3e b3b0 f43e
00000020: 70d7 253f 1dad ee3e c4a7 053f 3ce5 503f
00000030: 4c8f a73e ff19 ef3e 7576 cf3e 49e8 913e
00000040: 8ce1 323f 16bb 543f 36e9 023f c27e 5c3f
00000050: 206d d53e 1091 d73e 3504 883f a18b 2d3d
00000060: 3f80 633f c0b4 433f 8007 653f e183 bb3e
00000070: 98c0 563f 0e4a d93e d4d3 8e3e fd17 223f
00000080: 49ce 203e 8619 9c3d 2afa cc3e 254c 463f
00000090: 7dc1 293f 1f47 c93e fb3a 013f 4da2 3e3f
000000a0: f8b0 343e c767 cf3e e26f 283e 1846 863f
000000b0: 0288 ac3e 1ece 453d 63b8 f03e 79fe 3c3f
000000c0: a813 c63d 5679 ac3e d55f 363f 4e54 5a3f
000000d0: 7b17 1b3f 1754 c93d 809e 363f 1d66 a03e
000000e0: 3b4d 4a3f fbc4 ae3e cfb8 3c3d 26b4 623f
000000f0: 1764 613f 2a5a 703f b86e d13e 34e1 563f
00000100: ca80 8d3d 4a8f 363f dc61 173e b23b 363e
00000110: cd85 3e3f e743 873e 27f2 4f3f 8465 003d
00000120: 0b31 693f 53e2 2a3f 3c1a 163f fe1c 1f3f
00000130: e102 433f e22e 153f 9412 763f 8a4f f63d
00000140: abcc 163f e47b 4e3f 5755 913e 25cb 603f
00000150: 9ae2 3e3f 3a39 8b3e 5d09 613f b331 fe3d
00000160: 09ad 323f e25f 143f aceb bd3e 03ef df3e
00000170: a594 993e 989f 973e 4300 8e3d b2ad ab3d
00000180: 9726 043f 5a14 7f3e 4103 403f f0e0 0c3f
00000190: e825 483e ef13 993e 00cf 773f 5d83 a43e
000001a0: 3f91 353f 4d0e 723e 0659 273f 2bc0 503f
000001b0: 928e 693d 8f46 573f b365 163f 9291 183e
000001c0: 5af7 1e3f 5df0 b93e f0cb 0b3f 7216 423f
000001d0: fe87 2b3f be73 383f 152e 0d3f 6bec 063f
000001e0: d80e ae3e 49ed f63e 92f5 c83e 4bec cd3e
000001f0: 53d7 d83e ea04 083f 436e 9f3f 5a63 633f
00000200: 42f0 fe3e df31 1b3e 6f6b 383f 63b6 333f
00000210: 644f 093f 60bd 0c3f 6925 b03e 3b40 413f
00000220: 75f5 803f cebd ea3e fc1e 6d3f d4ee 203f
00000230: 294d 563f f93d 003f 4eeb 9a3e 23e0 443f
00000240: 2f2f 493f 3497 0c3e ebf9 a13f 1301 7a3e
00000250: d726 9c3d dddc 5c3f 6370 593e 369c 553e
00000260: 85ac 933e 4942 003e 60e4 2d3f 05bb 3d3f
00000270: 6aa0 063f 603e 4e3f 6758 643f a908 5b3f
00000280: cb3a fd3e 8d9c 553f c6cb 533f 8915 163f
00000290: 17cc 4a3f a5a7 763e 7658 743f 02d6 3c3f
000002a0: d922 583f 377d 2f3f a6ff 403f 9360 633d
000002b0: 6407 913f 1d01 233f f6fd 483f f874 883f
000002c0: fd98 5e3e b94b c93d 31ef ab3e ee5c f83e
000002d0: 393f 833f 7dd0 593f be05 f63e c85c 063e
000002e0: fd74 323f 1fe6 3c3e a99f e23e 730d d43e
000002f0: f3e1 083f f3bc 393f 8380 0a3f 1dc9 dc3d
00000300: 6008 493f 62b7 7b3f 1b75 9c3e 7c78 843e
00000310: 83b8 b93e 2c5d 6a3f af36 a03e 62cd 113f
00000320: ae52 553e 8e55 303f 9dcc 283f bd8c 0b3f
00000330: c56f 5b3f 91b0 433f 2bd9 833d f182 b13d
00000340: 1216 2e3e 47b3 4e3f fd05 893e b38e f43e
00000350: 5934 173e cf6f 3e3f 3ef4 023f b659 d83d
00000360: 841b 563f 8ae7 1a3f 0f48 283e 9dbc 493f
00000370: 2079 b53e f47c 4d3e c2ce 523f 39f3 323f
00000380: 4a9b 3f3e 6b5f e83e 7cd0 c93e 98e5 fe3e
00000390: 0e91 853e d027 8d3e d8e9 b63d 412b 303f
000003a0: a05f 383f 37a4 803f 7777 183f 4b45 cb3d
000003b0: aaea 933e 23c8 6b3f 266b 333f 4c88 ee3e
000003c0: 3456 bb3e 9cd1 b03e 81c0 083f 53b0 a73e
000003d0: e893 4e3f 903c 3a3e cc42 383f f1f7 c73e
000003e0: fbcd 573f 8195 673f 377f 6a3f f927 643d
000003f0: a238 383f 5d13 493f d6cd a13e bc8e 383f
0.78479683 0.3712389 0.54614747 0.8298599 0.2696827 0.41166142 0.27517453 0.4779106
0.64781857 0.4661645 0.52209115 0.81599784 0.32726514 0.4669952 0.40520063 0.28497532
0.6987541 0.8309797 0.511371 0.8613092 0.41684818 0.4210286 1.0626284 0.04236949
0.88867563 0.7644768 0.8946457 0.36624053 0.83887625 0.42439312 0.27895987 0.63317853
0.15703692 0.07622056 0.4003461 0.7745994 0.66310865 0.39312074 0.5048062 0.744664
0.17645633 0.40508863 0.1644893 1.0490141 0.33697516 0.04829227 0.47015676 0.73825794
0.09671718 0.33686322 0.7123998 0.8528489 0.60582703 0.09830492 0.713356 0.31327906
0.79024094 0.3413466 0.046074685 0.88556135 0.8804335 0.9388758 0.40904784 0.8393738
0.0690933 0.7131239 0.14783424 0.1779621 0.74422914 0.26418993 0.8122887 0.031346813
0.9109046 0.66751593 0.5863378 0.62153614 0.7617627 0.5827466 0.961221 0.120268896
0.5890605 0.8065779 0.28385422 0.87809974 0.74564517 0.27192098 0.8790491 0.12411823
0.6979528 0.57958806 0.37093866 0.4373704 0.2999622 0.29613948 0.06933644 0.08382739
0.51621383 0.24910107 0.75004965 0.5503073 0.1954571 0.2989802 0.9680023 0.32131472
0.7092475 0.23638268 0.65370214 0.81543225 0.05702073 0.8409204 0.5874893 0.1489928
0.6209618 0.36316195 0.5460806 0.758155 0.6700438 0.7205161 0.5514844 0.52704495
0.339957 0.4822791 0.39249855 0.4021934 0.4235178 0.531325 1.2455524 0.88823473
0.49792677 0.15155743 0.7203893 0.70200175 0.53636765 0.54976463 0.34403542 0.7548863
1.0074908 0.45847934 0.92625403 0.6286442 0.8371149 0.5009456 0.30257648 0.76904505
0.7858762 0.13729554 1.2654394 0.24414472 0.076245956 0.8627451 0.21234278 0.20860371
0.2884256 0.12525286 0.679266 0.74113494 0.5258852 0.80563927 0.8919739 0.8556009
0.49458918 0.83442 0.8273281 0.5862661 0.79217666 0.24087389 0.9544748 0.7376405
0.84428173 0.6855044 0.7539009 0.055512022 1.133038 0.63673574 0.78512514 1.0660696
0.21738048 0.09828896 0.33580926 0.485084 1.0253669 0.8508375 0.48051256 0.1312133
0.6970976 0.18447159 0.44262436 0.4141651 0.5346977 0.7255394 0.54102343 0.10780547
0.78528404 0.98326695 0.30558094 0.25873172 0.36273584 0.9154842 0.3129172 0.56954014
0.20832321 0.68880546 0.65937215 0.54511625 0.8571742 0.76441294 0.06437906 0.08667553
0.17000607 0.80742306 0.2676238 0.4776512 0.14766063 0.74389356 0.51153934 0.10563986
0.83635736 0.6050955 0.16433738 0.78803426 0.35443974 0.20067197 0.8234674 0.6990238
0.18711582 0.45385298 0.39416873 0.4978454 0.2608723 0.27569437 0.08931321 0.68816
0.7202091 1.0050114 0.5955729 0.09925326 0.28889972 0.9210226 0.7008537 0.4658836
0.36589205 0.3453492 0.5341874 0.32751712 0.8069444 0.18187165 0.71976924 0.39056352
0.84298676 0.904625 0.91600364 0.055702183 0.71961415 0.7854517 0.31602353 0.72092795

bn1.bias f4 [256]
00000000: 9128 e1bd 6571 3d3c 643e 69bc bb3a 66bd
00000010: 2b48 63bb 32dd 523d 5b95 a3bc 34bf b2bc
00000020: c22a c0bb 2341 333b 4476 aabd 2447 0dbd
00000030: e2c0 a7bc 9630 ba3c dcdf e7bd 9673 80bc
00000040: 6acc c2bd daf4 99bd c977 9e3b 51e5 57bd
00000050: e1c7 00bd 383f 45bd e1db b3bd b495 b3bc
00000060: 9679 76bd 21ab 2bbd 6ec4 9fbd d9a3 90bd
00000070: fca5 e3bc b63a 033d b8bd 5c3c 90df 66bd
00000080: 1be6 19bd d91b a7bc 84a8 bfba 119a c7bd
00000090: 6cd2 b2bc ee04 2ebd 297f 1a3d bc8e d03c
000000a0: e4cc 2bbd 3018 50bd 088f 34bd 6281 db3d
000000b0: 001b 1ebd 2eaf acbc 6516 ecbd 3831 55bb
000000c0: 1ba2 30bd 3b50 83bd 67b6 afbc 53a5 713c
000000d0: 7ad4 8a3d b294 b93d ed4a ddbc c402 88bd
000000e0: da07 c4bd 4dcd 9fbc c8ac 1fbd b63f 503b
000000f0: 89a9 b1bd 1043 6dbc ebbd c9bc 059a 263d
00000100: 3ec3 44bd cd9a 60bd 4d67 dfbc bb4d 3bbd
00000110: 8ce6 dabd 2b11 e5bb 890c c3bd b30b d73d
00000120: a544 15bd 679b 47bd 0fe3 c4bc dc46 bcbd
00000130: d238 0c3c dc9a 4c3d 8651 eb3a 3259 37bd
00000140: cc71 83bd 48d2 88bd 947b bebc 38ab 393c
00000150: 1fc1 ac3d 2264 6cbd 2f3d 8abd 9092 a1bb
00000160: 9aa4 05bd 37aa 8fbc 8008 b3bc 0ef7 80bd
00000170: ae1f a9bd 5bd6 293d 94cd 0bbd 6944 09bd
00000180: fbe6 48bd a6f5 383d b2e8 57bc c349 58bd
00000190: 3688 c7bd f748 8dbd 508e 803d d7c0 59bd
000001a0: 393e 873c ee4a 23bd 8ffa c2bc c188 9b3d
000001b0: 20f8 2bbd 92ca 00bd b02c 7dbd e4b5 10bd
000001c0: 52f4 77bd b688 79bd e2b7 0e3c de57 27bd
000001d0: 1980 4fbd 1e06 ca3c d96a 3f3d d0d3 a3bd
000001e0: 4f3a adbc a086 6abc caae 92bd d305 20bd
000001f0: 4594 56bc 5307 0dbd d3be de3d da1e ce3c
00000200: 5e78 883c 1b1d 7cbd 548a 15bd d0ad 30bd
00000210: c9fc ebbb ceb2 b8bc d170 d3bd a88a 3fbd
00000220: e726 acbc 9186 d5bc 605d f9bc 7f28 b5bd
00000230: 118f 98bd 753f 25bd 395b 7fbd d9ea 1b3d
00000240: 9fe0 51bd 30b7 39bd 444f 803d 06c6 12bd
00000250: 2c04 8e3d 33cc 923c 187b 79bd bcad 1e3d
00000260: 7a82 cbbd e30b 11bd ac21 16ba 2243 98bd
00000270: 7483 9dbd 4a68 08be 4b3d 7bbd 0255 e3bd
00000280: 4ff5 39bd 8735 d1bb d841 663b e15a c4bd
00000290: 3811 7dbd 22b1 043d 123a 9bbd 6776 00be
000002a0: 0635 b5bd 634b d3bc 1dfd 65bd 76f7 46bc
000002b0: fb4a 1d3d f9ad a93b 77ad 07bd ad0a 133c
000002c0: 1a2a 73bd 6b5e 2fbd e820 04bd de41 183b
000002d0: ee4a 8b3d bef5 2c3d a93a 94bc 428e 45bd
000002e0: 8320 4abd 5afb cbbd a62f 8dbd d57a a0bd
000002f0: c18a c7bd 71c6 acbc 6fe3 7cbd 0415 833c
00000300: 202a 2abc ce16 32bd 7494 633d e815 cbbc
00000310: 927c a7bd f4bd c3bd 9f9f aabd ccd2 15bd
00000320: bda8 57bc 43e2 2bbd 5ce0 9d3c 85b9 8abd
00000330: 4204 2abc c092 99bd cc47 90bc bcb8 7ebc
00000340: e3f2 17bd b377 58bc e359 45bd b74f bcbd
00000350: 99f9 23bd e23c 20bd 31be 3d3d 3f20 6e3c
00000360: 6c53 1fbd 9aac adbd 0b0d 983c 7333 f4bd
00000370: f422 20ba d4fa bd3d c2bf 3abd c787 cebd
00000380: eb53 35bd d3bf 013d b5dc 64bd c799 763d
00000390: 4161 97bd 9878 7e3c d8f6 9f3d 251c bfbc
000003a0: 7b3d 0bbd ad95 85bc e2b4 00ba 9142 b0bc
000003b0: 71b9 073c d306 d1bc 00d8 3dbc 5204 8bbd
000003c0: e10b 903c 37d0 fdba 46c0 78bd 0856 5dbb
000003d0: 03f1 b3bd c7cd d8bc b1cf 783d 3075 a8bc
000003e0: 711e 81bd e4c0 a4bd e768 82bd 0915 033c
000003f0: d2a1 28bb 5332 bf3c 165b 9bba 7def 0c3d
-0.109940656 0.01156268 -0.0142360665 -0.056208353 -0.0034680467 0.05148048 -0.01996868 -0.021819688
-0.005864472 0.0027352057 -0.08323339 -0.034491673 -0.020477716 0.022728246 -0.11321995 -0.015680116
-0.09511645 -0.07517405 0.004836057 -0.052708928 -0.03144062 -0.048155993 -0.08782173 -0.02192197
-0.060174547 -0.041911248 -0.07801138 -0.070625015 -0.027789108 0.032038413 0.013472967 -0.05636555
-0.03757296 -0.020399021 -0.0014622365 -0.09746183 -0.021828853 -0.04248517 0.037718926 0.025458686
-0.041943446 -0.050804317 -0.044081718 0.10718037 -0.038599968 -0.021079626 -0.11527709 -0.0032530557
-0.043123346 -0.06411787 -0.02144928 0.014748889 0.06778808 0.090615645 -0.027013266 -0.066411525
-0.0957181 -0.019507075 -0.038983136 0.0031776256 -0.086749144 -0.014481321 -0.024626693 0.04067423
-0.04803776 -0.05483513 -0.027270937 -0.045728426 -0.106885046 -0.006990572 -0.09523875 0.10500278
-0.036442418 -0.048732188 -0.024034051 -0.09193203 0.008558469 0.049952373 0.0017953373 -0.044762798
-0.064181894 -0.06680733 -0.023252286 0.011332326 0.084352724 -0.05771268 -0.06749951 -0.0049308017
-0.03262768 -0.01753722 -0.021854639 -0.06297122 -0.082579955 0.04146419 -0.0341316 -0.033512507
-0.049048405 0.045156144 -0.0131780375 -0.05280472 -0.09742777 -0.068986826 0.06277144 -0.053162422
0.016509162 -0.03986638 -0.023801116 0.07594443 -0.041984677 -0.031443186 -0.061810195 -0.035329714
-0.060535736 -0.060921393 0.008710833 -0.04085528 -0.050659273 0.02466112 0.046732757 -0.079993844
-0.021145968 -0.014314324 -0.071622446 -0.039068054 -0.013096874 -0.034430813 0.108762406 0.025161196
0.016658958 -0.061551195 -0.036508873 -0.04313451 -0.007201765 -0.022546198 -0.103242524 -0.046763092
-0.021014644 -0.026065143 -0.030440032 -0.08845615 -0.07449163 -0.04034372 -0.062342856 0.038065765
-0.051239606 -0.045340717 0.06265119 -0.03583338 0.069343895 0.017919635 -0.060908407 0.038739905
-0.09936996 -0.035411727 -0.00057270634 -0.074346796 -0.07691088 -0.13321033 -0.06133775 -0.11100198
-0.04539996 -0.006384555 0.003513446 -0.09587646 -0.061784 0.03239549 -0.075794354 -0.12545167
-0.08848004 -0.025792783 -0.05614959 -0.01214396 0.038401585 0.00517821 -0.033124413 0.008974713
-0.059366323 -0.042814653 -0.032257944 0.002323262 0.06801401 0.042226546 -0.018094378 -0.04823137
-0.04934741 -0.09960051 -0.06893854 -0.07835928 -0.09743262 -0.021090718 -0.061740335 0.016001232
-0.01038602 -0.04347878 0.055561498 -0.02479072 -0.08178057 -0.09557715 -0.083312266 -0.036577985
-0.013162789 -0.041963827 0.019272022 -0.06773666 -0.010376992 -0.074986935 -0.01761236 -0.015546974
-0.03709687 -0.013212132 -0.048181426 -0.09194892 -0.040032957 -0.039120562 0.04632396 0.014534055
-0.038897917 -0.08480187 0.018560907 -0.11923876 -0.0006108724 0.09276357 -0.04559303 -0.10084491
-0.044269484 0.03167708 -0.055874545 0.060205247 -0.073915966 0.0155316815 0.078107536 -0.02332885
-0.03399418 -0.016306723 -0.0004909766 -0.021516116 0.008283959 -0.02551595 -0.011587143 -0.067879334
0.01758379 -0.0019364421 -0.06073024 -0.0033773202 -0.08786204 -0.02646531 0.060744945 -0.020563692
-0.06304634 -0.080446035 -0.06367665 0.008000621 -0.0025731218 0.023339426 -0.0011852707 0.03440808

bn1.running_mean f4 [256]
00000000: dbb1 db3f dc41 503f f192 4b3f ddd6 74bf
00000010: fe99 44bf fb94 37bf 9633 2fbf 84e9 523f
00000020: 1fa0 c73d 6d2b 7d3f 4c28 da3e 5393 193f
00000030: a939 c9be e359 533f 5157 b0bd c81b 863f
00000040: bc5d 79bf 8606 e0bc f3a7 c23f 1f05 93be
00000050: 33f7 c1be e429 71bc 8d6c d93e d7cb 3bbf
00000060: 0363 f93e f9ca aebc 2194 32c0 6aee 133f
00000070: 99b7 47bf 1631 e53e bb3f 0ac0 9d28 57bf
00000080: 8f7b abbf 6c84 903e bef4 0b3f 3820 90bf
00000090: f4f8 a7bf d8f8 e8bd 46ba b53e 287c 273e
000000a0: 7ef6 66be b4c9 583f 5803 f33e 633a 4cbd
000000b0: 9558 693f 5a18 053f f4ce 053f c62a c83f
000000c0: 1456 183f 0809 ffbd 62e9 c9be 61e7 9cbe
000000d0: ff5b 9c3e 13bc f6be 72f4 bb3d f90a adbe
000000e0: baed 66bf 37a5 853e 41e3 52bf adb3 e3be
000000f0: adc3 82bf 498b d9be 7ee3 81bf a4a9 5d3f
00000100: aa1c 69bf 11e4 c0be 1f48 07bf da37 d23e
00000110: 507e a6be f7ec bcbe 7c75 22bf fef5 39be
00000120: cec6 a73e 7dbc ec3f dca1 a2bf 8db2 dd3f
00000130: 0f83 eb3d 1406 0c3f 32b1 b3be 33bc 743f
00000140: 017c 2e3f e644 1ac0 7151 bd3f 7a62 063e
00000150: 10d8 eb3d ccd5 f9bf 98a7 b13f f689 ed3e
00000160: ad9f 893f 0dbc d33f 4260 403f 0c2e 8a3e
00000170: 169a 573e d9f2 d83e fdeb 39bd 7a1a 35be
00000180: 6a52 08c0 2320 11bf ac29 803e a68b 02c0
00000190: f190 383f 042d 63bf 36e7 d03e 80c6 de3d
000001a0: 9831 593d c94c 4d3f e85a 993f 9652 6bbe
000001b0: c7f0 ec3e de62 d23f 9960 293f 2e40 d13f
000001c0: a783 06bf 168b b6be 43d9 66bf eaa1 983f
000001d0: 6bfe 043f 7752 0040 c1b2 79bd 5533 f0bf
000001e0: 28f1 a23e 9c7c c23f 7047 db3e 0b6d f8bd
000001f0: 8e11 083f 9190 febf 9742 4fbe 5a2d ea3e
00000200: 1d93 603e 0463 acbf 4296 8a3f f175 c3be
00000210: cb09 753f 13ab 5c3f 0283 8f3f 9230 73bf
00000220: 47d7 853e 6488 ccbe 9c79 f13f 5efa 95bd
00000230: 945a 0c3f 22a7 f03d 5efa 8f3e 8d93 0c3f
00000240: 59d7 37be 650e b3be 7583 a33e 2df3 1fbf
00000250: b802 06be 907a 183f 56aa c7bf 1f93 0d3f
00000260: 653e a63f 5cfd b03e 47cb 333f 30a6 c83d
00000270: a039 f5be 07e0 2e3f 1592 983e 2add 8cbe
00000280: 0adb b63f 4055 d3bc fc22 6d3e c872 673e
00000290: 1e53 593f d82a f93e f7ef 263e e61f 4cbe
000002a0: ee9d 1d3f 703a 533f bde2 05bf 0461 e13f
000002b0: 890c dfbe 0f8d cc3c f859 d9be 80d0 1b3f
000002c0: 74eb 53be 1aff 2bbf 2b14 9dbf 72d3 823f
000002d0: 3e50 cebc 5831 eabf 232f e73e 3472 89bf
000002e0: 2855 4d3f 93a5 8dbf b0d8 dc3d 258a de3f
000002f0: aa1d 093f 69c5 653e 9c33 983f 0ff3 293f
00000300: ef8c 34bf a8e7 903f 0ae2 86be c377 dd3d
00000310: 0963 5abf 334a 813f 7eb5 f83f 5465 593e
00000320: 4afd 3fbe aab4 d43f c613 64bd 2800 17bd
00000330: 5111 733f e457 b53e 1ec7 42be c17e 36bf
00000340: b703 3d3f ded2 833f 7d86 0abf 9399 b53f
00000350: 5ec8 aa3f fac1 d43d 3867 3bbf ca07 e9be
00000360: 84c6 823e d5dc edbf f1c6 9b3f cce3 02c0
00000370: 831c 9dbf d5a9 5abe 307a 51bf 1598 643f
00000380: 0a1b 673f c1e3 053f fdd4 07c0 2459 543f
00000390: 9a80 87be 9b87 0e40 fed1 893f 8c33 54bf
000003a0: c56b 0abf af37 2a3f 8df6 3cbe 79db 9fbf
000003b0: 9638 993f c405 453f 3cac 42bf 2667 80bf
000003c0: a3fc 62bf 4c45 483e ea1b 033f ad38 f4bf
000003d0: 640b a1bf be39 9ebf 205b cd3e 176a 263f
000003e0: f1dc aabd 0c52 f73f 094a b13e 1b5d fe3f
000003f0: 0ce3 613f 9143 ebbe 25af 2c3e f65e 493f
1.7163652 0.81350493 0.7952109 -0.95640355 -0.76797473 -0.717117 -0.6843809 0.82387567
0.097473375 0.9889439 0.4260887 0.59990424 -0.39301804 0.8255903 -0.08610404 1.0477228
-0.9740865 -0.02734686 1.5207504 -0.28714845 -0.3788391 -0.01471946 0.4246563 -0.7335791
0.48708352 -0.02133702 -2.790291 0.57785666 -0.7801452 0.44764012 -2.1601398 -0.84046346
-1.3397082 0.2822603 0.5467032 -1.1259832 -1.312285 -0.11375588 0.35493678 0.16355956
-0.22554967 0.84682775 0.4746349 -0.04986037 0.9115079 0.5199028 0.5226891 1.5638053
0.59506345 -0.124528944 -0.3943587 -0.30645278 0.30538937 -0.48190364 0.091774836 -0.33797434
-0.9020649 0.2610261 -0.8237801 -0.4447302 -1.0215966 -0.4248908 -1.014755 0.86586976
-0.9105936 -0.37674 -0.52844423 0.41058236 -0.32518244 -0.3689954 -0.63460517 -0.18160245
0.32768863 1.8495022 -1.2705646 1.7320114 0.11499607 0.54696774 -0.35096127 0.9559967
0.68157965 -2.4104552 1.4790479 0.13123503 0.1151582 -1.9518371 1.387927 0.46394318
1.0751854 1.6541764 0.7514688 0.26988256 0.21054873 0.42372778 -0.04539107 -0.17685881
-2.1300302 -0.5668966 0.25031793 -2.0397735 0.72096163 -0.88740563 0.408014 0.108777046
0.053025812 0.8019529 1.1980867 -0.22980723 0.4627745 1.6436422 0.6616302 1.6347711
-0.52544636 -0.3565299 -0.90175265 1.1924412 0.5195071 2.0050333 -0.06096149 -1.8765665
0.31824613 1.5194278 0.4282794 -0.12130173 0.53151786 -1.9887868 -0.20240246 0.45737725
0.2193112 -1.3467717 1.0827105 -0.3817592 0.9571807 0.8619854 1.1211855 -0.9499599
0.26140806 -0.39947808 1.8865237 -0.073231444 0.5482571 0.11750628 0.28120703 0.54912645
-0.17953242 -0.3497192 0.3193623 -0.6248043 -0.13086975 0.59562016 -1.5598857 0.55302614
1.2987791 0.34568298 0.7023205 0.09797323 -0.47895527 0.6831059 0.29798952 -0.27512485
1.4285595 -0.025797486 0.23157877 0.2260238 0.8489245 0.486655 0.16302477 -0.19934043
0.61569107 0.82511044 -0.522991 1.7607732 -0.4356425 0.024969606 -0.42451453 0.6086502
-0.20695287 -0.6718613 -1.227178 1.0220778 -0.025184747 -1.8296309 0.4515315 -1.0737977
0.80208063 -1.1066154 0.10783517 1.7385908 0.5356089 0.22438587 1.189075 0.66386503
-0.7052755 1.1320696 -0.2634433 0.10813858 -0.85307366 1.0100769 1.9430387 0.2123006
-0.18748966 1.6617634 -0.05568292 -0.036865383 0.949483 0.35418618 -0.1902127 -0.7128716
0.73833793 1.0298727 -0.5411146 1.4187492 1.3342397 0.103885606 -0.73204374 -0.45513755
0.2554208 -1.8583018 1.2170087 -2.0451536 -1.2274326 -0.21353848 -0.8182707 0.8929456
0.90275633 0.5230065 -2.1223748 0.8294852 -0.26465303 2.2270267 1.076721 -0.82891154
-0.54070693 0.66491216 -0.18453427 -1.2488853 1.1970394 0.7696192 -0.7604406 -1.0031478
-0.88666743 0.19557685 0.5121447 -1.9079796 -1.2581601 -1.2361372 0.40108585 0.6500563
-0.083429225 1.9321914 0.34626797 1.9872164 0.8823707 -0.45949987 0.16863687 0.78660524

bn1.running_var f4 [256]
00000000: 2f10 fc3f d9dd e43e a5bc ff3f e7b1 1341
00000010: 933e 3640 279f 373f 7f58 2e40 eadd ad40
00000020: b90b fe3f 4dfe 1a3f 1e23 a53f ca4e a940
00000030: c5f6 6d40 6535 283f 71dd 1141 fda8 3e41
00000040: 3580 3340 a91c 8c40 4a53 6840 481d 6c3f
00000050: 8a66 c540 ff36 903f 5120 e540 bca3 dd3f
00000060: 324f a440 6054 2241 735d 5840 f14c 9840
00000070: 6ce9 1f40 424f 253f 7356 813f d2c6 3a3f
00000080: cb74 3140 b63a f03f 5c25 893f 789b 883f
00000090: d241 323f 2464 ec3f 1b72 4a3f 0970 4a3e
000000a0: 4db3 5c40 58fe 1f40 ad10 0740 6acd 0f3e
000000b0: e905 5e3f f631 3740 361b 3e40 7df5 da3f
000000c0: 8cde 8240 99f2 1540 a20e 6340 e821 c33d
000000d0: fac2 8d3e 18ee 583f e539 cb3f 318c a63f
000000e0: 5d97 1f41 140e 2b40 3290 fa40 5995 903e
000000f0: 9b6e 5240 dfbc 9440 a174 663f 63de 223f
00000100: 6545 4041 1a1d 6740 6eb2 b53f 7577 dd3f
00000110: c5df d240 7a07 d73f aaba 5b40 7a4d d53f
00000120: f0a4 d33e 6682 763f 8521 4c3f 351f 3b40
00000130: 323d 1f3e 001a 4341 edd9 0641 e9b2 b440
00000140: 94a7 7540 d477 3140 e5b9 de3f 69d0 a140
00000150: a97a 0541 aa1a fe3e eb98 b540 9f05 d93f
00000160: 8daf ef3e d842 2540 e3c0 4040 f0c2 e83f
00000170: 674d 573e 9495 563e 0e50 9740 6f01 4e40
00000180: 92fb 3f40 06f8 633f aa34 b140 daf8 3240
00000190: bfb9 2741 e6d8 df40 b2bf 7040 8a0b c640
000001a0: 5142 bb40 c6e7 a03f a621 3a3f 77e6 6841
000001b0: 2470 1141 51e9 5b3f 4b58 2d40 588c ed40
000001c0: 077e 2640 73a1 2e3f 71e9 3b40 5427 0c40
000001d0: 281d 1440 68de e03f 34ba 2741 4e7f 983f
000001e0: 7bb4 473f 9128 203f ca55 2640 8719 2341
000001f0: 0c56 2340 fd8e 2e40 3ee0 0f3e 98af ef40
00000200: 61b7 c840 23c0 c63f 959e 3240 aa16 c23f
00000210: 868f 9e3f dbb1 2a40 051d db40 0d4c 613f
00000220: a3c4 843e 212b 7440 4e37 0740 3ff3 b43f
00000230: 6217 6f3f 02fc a740 b58c 5a3e cca9 8c40
00000240: f5db 4e40 c83e f440 c262 7741 be21 5a3f
00000250: 7894 173f 3d6d bd40 87e6 743f 5b75 e43e
00000260: 822a 4140 aba5 1640 d7e4 fb3f f6f4 a040
00000270: 2481 bd40 faa2 c840 df1b 0340 59e3 a440
00000280: 474a 5a3f eeb6 4b40 2c93 4d3e 8967 9b40
00000290: 1264 a83e 570f ab3e 2479 9f40 f418 fe40
000002a0: 92fd 7f3f 2f8b 5040 fc82 0041 d80e 2241
000002b0: 8929 f240 40d7 0541 23d2 0141 3e16 fc40
000002c0: 946b 6140 8bc5 2b40 ffff 8340 7e32 3c3f
000002d0: bb96 c53e a841 3a40 9597 cd3e bd0b 8b3f
000002e0: bb0e 9d40 51f6 c340 a2dd 1f3f 6d0c 553f
000002f0: 52cc 9540 7025 6440 caa1 af3e a389 9640
00000300: ad32 d73f 9011 363f a7be 1d40 fb51 4b40
00000310: b4ca 3040 183d 3e41 89db 8b40 e11a 9640
00000320: 1d00 1640 2c92 b140 54d4 5e3e 91aa 913f
00000330: 88c4 5d40 ad2d f93f 0a44 8f40 dac6 c33f
00000340: 3a8f 173f 3411 5c41 7cf8 8a3f 327a 2941
00000350: d187 2540 44c9 fd3f 8de7 ad3f 89c8 b43f
00000360: f6be 5140 94ad a13f 8499 0d3f 3755 7e3f
00000370: cfaa c83f 61b3 3d3f 4409 a740 d2a2 2640
00000380: 2783 1b3f 45ef af3f a285 5f3f be29 cf3f
00000390: 654e 4940 6e91 1b40 adac ca3e e642 ab40
000003a0: 8cad 9f40 320d ac40 c19e 5a40 0004 913f
000003b0: 7c3d 353f cb84 ab3e 75e5 8c3f 8a73 9141
000003c0: acf5 9240 882c 3e3e 943b 9e40 0bc2 9c40
000003d0: 4d3f a63f 8f47 8f40 4f91 493e 247a 9740
000003e0: 5b15 2740 ac14 7640 0464 043e 6e56 5040
000003f0: 1d89 f63f e344 d13f 455d 5340 55d3 aa40
1.9692439 0.44700506 1.9979445 9.230933 2.8475692 0.7172722 2.7241514 5.433339
1.9847327 0.6054428 1.2901342 5.290868 3.7181866 0.65706474 9.116563 11.916257
2.8047001 4.3784986 3.6300836 0.9223218 6.168767 1.1266783 7.160195 1.7315593
5.1346674 10.145599 3.3807037 4.7593923 2.498622 0.6457406 1.0104507 0.72959626
2.7727535 1.8767917 1.0714526 1.0672445 0.69631684 1.846806 0.7908036 0.197693
3.4484437 2.499899 2.1103928 0.14043203 0.8672777 2.8624244 2.9704108 1.7106167
4.0896664 2.342932 3.547768 0.095279515 0.27687818 0.847383 1.5877043 1.3011533
9.974454 2.6727343 7.830102 0.28238943 3.2880008 4.6480556 0.9002171 0.63620585
12.016942 3.6111512 1.4195077 1.730208 6.5898156 1.6799157 3.433268 1.6664269
0.41336775 0.9629272 0.79738647 2.9237797 0.15550688 12.193848 8.428205 5.6468396
3.8383532 2.7729387 1.740048 5.0566907 8.342446 0.49629718 5.6749167 1.695484
0.46813622 2.5822048 3.0117729 1.818449 0.2102562 0.20955497 4.7285223 3.2188375
2.9997296 0.8905033 5.5376787 2.7964387 10.482848 6.995227 3.7617002 6.1889086
5.8518453 1.2570732 0.72707593 14.556266 9.089878 0.8590289 2.708514 7.423382
2.601442 0.682151 2.9361231 2.1899004 2.3142796 1.7567873 10.48296 1.191385
0.78009766 0.625619 2.5989861 10.193732 2.552127 2.7274773 0.14050385 7.490185
6.272385 1.5527385 2.790929 1.5163167 1.238755 2.6671054 6.8472924 0.8800667
0.25931272 3.8151324 2.1127505 1.4136733 0.93395054 5.2495127 0.21342738 4.395727
3.232175 7.6326637 15.461611 0.85207736 0.5921092 5.9195848 0.95664257 0.44620785
3.0182195 2.3538616 1.9679211 5.0299025 5.922014 6.2698946 2.048576 5.1527524
0.8526959 3.1830401 0.20075673 4.8563886 0.32888848 0.3341014 4.9835377 7.940546
0.9999629 3.258495 8.031979 10.128624 7.56757 8.365051 8.113803 7.877715
3.522191 2.683932 4.1249995 0.73514545 0.3859156 2.9102573 0.4015471 1.0862957
4.908048 6.123818 0.6244756 0.83222085 4.6811914 3.564785 0.34303123 4.7043014
1.681234 0.7112055 2.4647615 3.1768787 2.762372 11.889915 4.3705487 4.690781
2.343757 5.5490932 0.21760684 1.1380178 3.4651203 1.9467064 4.4770555 1.529506
0.5920292 13.7542 1.0857081 10.592333 2.5864146 1.9827046 1.3586289 1.4123698
3.2772803 1.2631097 0.5531237 0.9934878 1.5677127 0.74101835 5.219881 2.6036878
0.60747 1.3744894 0.8731328 1.6184614 3.1454098 2.4307513 0.39584866 5.3519163
4.989935 5.3766108 3.4159396 1.1329346 0.7079694 0.3349975 1.1007525 18.181416
4.5924892 0.18571675 4.9447727 4.898687 1.2988068 4.477485 0.19684337 4.7336597
2.6106784 3.8450117 0.12928778 3.2552752 1.9260594 1.6349148 3.3025677 5.3382974

fc2.weight f4 [256, 258]
00000000: 9a1b 873d 0a1e e6bd 65dc 01bb 92e0 793d
00000010: d143 4dbb 0a6a 89bd fdc5 d0bc 50a8 37bd
00000020: 0c74 24bd 7c7b fdbd c7be 9a3d 8395 053d
00000030: 668d a43d b843 b93c f8ae 9abc 33d5 32bd
00000040: 910d 503d ffe9 1fbd 8072 11bd 64c4 2abc
00000050: 260b a8bc bc6c 2b3d 0685 b33c 8db7 97bd
00000060: fade 1a3c b941 f9bc c21e 85bd b268 36bd
00000070: e570 0abd a4ba 373d 0c28 3bbd 5905 73bd
00000080: 5b02 c83d c683 733d 307e 883c fcc3 a43b
00000090: bcbe d9bb 3fde 10be 9e32 72bc af7a bebc
000000a0: 856e 54bd e464 9dbd cb7d f4ba 43c8 98bb
000000b0: 1a32 5c3a 99c2 46bd 81f2 963d c29d f0ba
000000c0: 299a 623d f71e 153d a152 ffbb 7dfb a23c
000000d0: 97e2 dfba 5484 11be cf9f ccbd fc4a 3d3d
000000e0: 5094 9f3d 7ded 8dbd 6cb8 de3d 952b 44be
000000f0: 6484 123c 3cfe 873d a13e e3bd 7dc3 f5bc
00000100: 99fa b33c 2c60 0dbc 1544 513a 76db 0f3d
00000110: 606b 2c3c 140f 97bc b74b 92bc 9ff9 f5bd
00000120: 149f 34be 3020 6cbb 6c57 743d 7a78 07bd
00000130: 21f9 95bd e4f8 633d 62a4 5a3d b2dc 913d
00000140: cef7 7aba a7ea 39bd 2800 413d 98db c1bd
00000150: 7b88 43bc 68cd ddbb b4c6 8c3d 9e27 cabd
00000160: 4368 e5bd d1e4 bebd aded 483c 480c 333d
00000170: 2d98 923d 19e6 10be d63c 68bc 2dc2 a03d
00000180: 0c42 a3bd 7bf9 78bc e21b aabd dd84 6a3d
00000190: a207 15bd b559 43bd 9932 13bd cbeb 92bd
000001a0: b222 403d efa4 c43b a131 4bbd 000e 5d3c
000001b0: 6b6e 25be 44ee c3bb fcac 983d 044c 5dbd
000001c0: ef26 0cbd 0ca0 17bd 65e0 81bd dad2 533d
000001d0: cc8e c1bc 1b0a 9ebd ebd5 903c 62d2 84bd
000001e0: 91e0 27bd 6139 793c 9593 953d 6a9d 1cbd
000001f0: b747 c7bc 4095 563d 7bc9 ac3d 4680 b23d
00000200: 96a9 79bd 03c0 debb 959f db3c fd1f 7aba
00000210: 0d9c 803b 24da f43c ef05 6fbd 173a 13bd
00000220: 72ef fdbc 9a27 22bc a014 d9bb a834 afbd
00000230: feb9 573b 9430 8bbd cc6d 2d3d 959d 57bd
00000240: a623 c13c 9016 8fbd e3c1 04bd bdcb fdbd
00000250: b76c a6bd a0b9 0e3b 841a 8a3c 37c8 ebbd
00000260: 73e5 cdbb e948 a53d 52db 13bd 96d8 323d
00000270: 6686 693d eb90 df3c ba0c 7a3c cc0b 82bc
00000280: 126c 32bd a834 e23c f4b9 90bd 5111 113d
00000290: 7be4 93bd b87f abbd c48c 253d e8bb eb3c
000002a0: e4d2 16bd b8bc 94bd 957b 663c 67bd b7bd
000002b0: da19 8dba 3ac4 eb3c 362a 503d 2166 b63d
000002c0: 43fb 66bd f576 b43d 4b35 37bc 0c7a 973c
000002d0: d63e cdbc 3f4a 5bbc a99c 663d deca cdbd
000002e0: 9cdd 073d cd6a 2d3d fa92 11bc 6ea5 9bbb
000002f0: 469b 823d c3ae bdbb 37b6 d1bc 6daf 8abd
00000300: b7a7 91bd 5c46 0d3c 3003 c2bc f820 da3c
00000310: 65e6 913d 2b01 b63c 3bf8 8dbc bf80 1bbb
00000320: dbea a1bd 0651 533c 774f 593c 0583 d63c
00000330: 0ea7 273d 727b 6e3d 7cbf 6dbd 7639 0f3d
00000340: 63d2 2abd 325e fcbc 216a ad3c 2835 3dbd
00000350: b120 95bc 7151 75bb 3f35 febc c9ef 10bd
00000360: 05ae 5d3d a3f1 4b3d b9b9 163a b88a 833c
00000370: 5198 ee3b 0f55 a1bd c3ef 6fbc 8b48 953b
00000380: 60bc 7f3d 23d3 9fbc 6658 4bbe c8c9 85bb
00000390: f514 9a3d 7bbe e4bd b560 cdbd 5e8a 1fbd
000003a0: 657d 043d 3c98 133d 3843 993b 3671 dabc
000003b0: 7f83 c03c 0202 b23c 81b8 62bc a9b3 893b
000003c0: 4b58 913d d02a b0bc ff9a 21bb 4727 2abd
000003d0: 792a 24bd a2d1 073d d91e f2bb 7eac bbbc
000003e0: 13f0 13bd ea00 06bc 0e01 043d ba99 eabc
000003f0: 00d2 d8bd f70d 82bd 21eb 713d 5bc2 3e3d
0.065970615 -0.11236198 -0.0019815203 0.061005183 -0.003132094 -0.067096785 -0.025485033 -0.04483825
-0.040149733 -0.123770684 0.07555919 0.03261329 0.08034782 0.022615299 -0.01888226 -0.043660354
0.050794188 -0.039041515 -0.035509586 -0.0104228 -0.020513128 0.041851744 0.021914016 -0.074080564
0.009452576 -0.030426847 -0.06500007 -0.04453344 -0.03379907 0.04485573 -0.04569249 -0.05933127
0.09766074 0.05945184 0.016661733 0.005028246 -0.0066450518 -0.1414728 -0.014782576 -0.02325186
-0.051863212 -0.07685259 -0.0018653212 -0.004662545 0.00083997997 -0.048525427 0.07370473 -0.0018357562
0.0553228 0.036406484 -0.0077918326 0.01989531 -0.0017081079 -0.14210635 -0.099914186 0.04621409
0.0779196 -0.06930063 0.108750194 -0.1915725 0.008942697 0.06640288 -0.1109593 -0.030000443
0.02197008 -0.008628886 0.00079828623 0.035121404 0.010523647 -0.018439807 -0.01785837 -0.12010502
-0.17638808 -0.0036029927 0.059653684 -0.03307388 -0.07322908 0.055657282 0.053379424 0.071221724
-0.0009573669 -0.045389798 0.04711929 -0.09465712 -0.011934395 -0.006768871 0.06873837 -0.09870838
-0.11201527 -0.09320987 0.012263698 0.043712884 0.071579315 -0.14150275 -0.014174661 0.07849536
-0.07971582 -0.0151961995 -0.083060995 0.057255615 -0.036384232 -0.047692973 -0.035936926 -0.0717388
0.046908088 0.006001107 -0.049607877 0.013492107 -0.16155402 -0.005979331 0.07454869 -0.054027572
-0.034216817 -0.037017867 -0.06341628 0.051714756 -0.023627661 -0.07716771 0.017680129 -0.0648544
-0.040985648 0.015211434 0.0730354 -0.03823606 -0.024326188 0.05238843 0.08436867 0.087158725
-0.060952745 -0.006797792 0.026809493 -0.000954151 0.0039248527 0.029889174 -0.058355268 -0.03594407
-0.030997965 -0.009897137 -0.006624773 -0.08554965 0.0032917256 -0.06796375 0.04234104 -0.052640516
0.023576569 -0.06986725 -0.032411467 -0.123923756 -0.081262045 0.0021778122 0.016858347 -0.11512797
-0.006283456 0.08070547 -0.036097832 0.043663584 0.057012938 0.027290782 0.015261823 -0.015874766
-0.043560095 0.027613 -0.07066718 0.035416905 -0.072213136 -0.0837397 0.040417448 0.028776124
-0.036822215 -0.07262558 0.01406755 -0.089716725 -0.0010765151 0.028780092 0.050821505 0.08906198
-0.056391966 0.08811752 -0.01118214 0.018490814 -0.025054377 -0.013384401 0.056301747 -0.100484595
0.033170328 0.04233818 -0.00888514 -0.0047499454 0.06377272 -0.0057886555 -0.025599582 -0.06771741
-0.07112067 0.008622732 -0.02368316 0.026627049 0.071240224 0.022217354 -0.01733028 -0.0023727862
-0.07906123 0.012897735 0.013263575 0.026185522 0.0409308 0.058223195 -0.05804394 0.03496691
-0.041704547 -0.030806635 0.02116877 -0.046193272 -0.018204065 -0.0037432576 -0.03103125 -0.035384927
0.054121036 0.04979099 0.0005749721 0.016057357 0.007281341 -0.07877552 -0.014644566 0.004555767
0.062435508 -0.019509858 -0.1985794 -0.004082892 0.075235285 -0.11169144 -0.10028211 -0.038950317
0.032346148 0.036033854 0.0046772026 -0.026665311 0.023500202 0.021729473 -0.0138379345 0.0042023254
0.07096919 -0.02150479 -0.0024659035 -0.041541364 -0.040079568 0.033158906 -0.0073889312 -0.0229094
-0.036117624 -0.008178929 0.03222757 -0.028637756 -0.10586929 -0.0635032 0.059062127 0.04657207

fc2.bias f4 [256]
00000000: b4b4 d6bd 17c0 ba3d 0eeb 67bd 1bca ffbb
00000010: 3658 52bd 4f79 d3bd 5c60 063d 7260 8c3c
00000020: 85af 33bc b7a4 cc3c e6fe 643c a85f 5dbc
00000030: c2fe 083e d062 253c 5181 863c 0a80 e1bc
00000040: 69ed 5ebd 8375 9abb 4541 a53d c842 a03c
00000050: 359a 263c 8e9f 20bd d03e 26bc d58a 863d
00000060: c431 67bd 03d7 b53d 6932 233d cb86 683d
00000070: 116f 823d 846f bd3d 31f4 a33d 4e1d bbbb
00000080: cdf4 fdbb 32ef f73c d0b2 453d 5f42 eabc
00000090: eaa6 5f3d 0317 a43d b9a9 663d 96ed 96bd
000000a0: f068 6ebd 102c 0dbd 6d4a 4cbc c0b2 2d3d
000000b0: b2c2 ae3d fc80 6d3d 95de 07bc d869 80bc
000000c0: 79ad d6bc f89d 8cbd 879c 2f3d 228f 113d
000000d0: 479e 193d f00a c73d d4ea f13b 11da 4cbd
000000e0: c08d 8ebc 8c80 903c 1037 abbc e6ca 883d
000000f0: 2d26 16bd 8c5d 193d e22a ca3d a3dd 25bd
00000100: 2eb5 7b3d 35cb c63c c594 9fbb 8520 243d
00000110: 3959 ea3b 35d5 5cba 9b7b d93c 2ddf 23bd
00000120: d19a d6ba 1a3f 90bc fdce d33c 95b0 a43d
00000130: d79e b7bc 6071 f93c c21a 1abe 8122 d23c
00000140: e2c5 9c3d 2931 8a3d 3f4b 7a3c 687a 963d
00000150: 4e01 2b3d 0d01 913c f14b 95bd 5149 be3c
00000160: a487 3ebd 78ac 07be e80d 923d 32d6 6bbd
00000170: 8e36 143d b39c 5cbd 350f e3bd ca1c fabb
00000180: 0055 123c fbf9 1e3b d49e 2bbd 8396 683d
00000190: 33a0 7ebd 2fba 9f3d eda4 a03d 7d1d a4bc
000001a0: ea16 29bd fb7f 5e3d 4fa7 7e3c ebf7 c13c
000001b0: d768 a2bd cb27 233c df09 1bbd 8f45 3d3d
000001c0: ac81 aa3d 73ef 11bd da26 80bd b235 5d3d
000001d0: 49ad 62bd 41cf 293d 44c4 b5bd aecd 92bd
000001e0: 8fa9 883d 7c3e 7e3d e6b8 9ebb ed72 7bbd
000001f0: e7b6 dabc 426d 88bb ac4a 2e3d 0f95 c93c
00000200: 4563 2f3d ff1d e93d 79cd 1ebd 75d9 2a3d
00000210: 27fc c43d af39 75bc 0c3d 4bbd 3ef5 163a
00000220: 0267 99bc 86c7 b03d 4a78 093d 4465 f1bd
00000230: a3e8 cdbd d7bd e33a 8897 9f3c 16c5 62bd
00000240: b6ca 763d 8ae3 93bc 1f06 753c 3a87 74bd
00000250: 13b1 b8bc 0352 c1bd af2f b2bd cd09 033d
00000260: b917 103d d375 8b3c ab9e d33c d6c1 a73d
00000270: f032 973c bb95 96bc ff15 f33d 8e62 643d
00000280: 9b1b efbc 7ec8 703d f2e3 a2bc 6e7e 203d
00000290: f1ad e7bc e306 efbc e2a3 83bb 4889 c43b
000002a0: 01c7 01bd 8c1f 44bd 86b1 7b3d df53 19bc
000002b0: 7cb2 dd3c 0f7a 5abc 5e35 513d 809e 7abc
000002c0: ec01 9b3d 3a18 cfbc c74b ed3c 1c89 823c
000002d0: 504f 76bb c2b8 5c3d 0351 a33d ab1f d43d
000002e0: 4859 f9bc aa9b 01bd eb16 033d e134 943c
000002f0: 773c 983c 53bb 723d ab05 3d3d 0030 5fbd
00000300: 4760 423d 0a2a 75bb 4bea 21bd 4551 7dbd
00000310: 541e 98bd b92b 863d 938d 703d 2c96 0c3a
00000320: fa54 40bc f289 01bc 4384 893d 2959 063d
00000330: b5b8 35bd 993c 88bd 207d 92bd 10fc a2bc
00000340: 8d5e aabc 51ed 6fbd 4aed d83d f82c c4bd
00000350: e97c cdbb 6a0c 4b3c 10a4 8239 491b fa3c
00000360: 1b80 713a 9fb8 ea3c 33a2 12bd eb55 a5ba
00000370: 3d09 17bd c125 51bd 4b76 cebc 1ae3 1c3d
00000380: 7ea0 203d c2e5 07bd ebba 9fbb a330 4a3a
00000390: 49b9 c03c dcbc cfbd fd53 103e 8bb8 91bd
000003a0: d384 5d3b 07fb 05bd 4e84 96bd b97c 683d
000003b0: 8de2 c0bc ad91 4ebd 8d12 4d3d bbdd 26bd
000003c0: 4d33 00bd dca1 2bbd 7068 223c 6287 fd3c
000003d0: 69f7 2bbb fac9 08bd a122 643d 3fef 993d
000003e0: 2f6b 39bb 47a3 44bb d1ee 93bd 986c 16bd
000003f0: 4050 2ebe b922 2cbd 4a3d c63c 1256 673c
-0.10483685 0.091186695 -0.05662065 -0.0078060753 -0.051353656 -0.10325872 0.03280674 0.017135832
-0.01096714 0.024980886 0.013976788 -0.013511576 0.13378432 0.0100943595 0.016419085 -0.027526874
-0.05442563 -0.0047137155 0.0806909 0.019563094 0.010168602 -0.039214663 -0.010146812 0.06569449
-0.056443945 0.08878901 0.039842997 0.056769174 0.063688405 0.092497855 0.0800556 -0.0057102805
-0.00775013 0.030265424 0.048266232 -0.028596101 0.05460254 0.08012202 0.056314204 -0.07369535
-0.058205545 -0.03446585 -0.012468916 0.042406797 0.08533229 0.057984337 -0.008292814 -0.01567547
-0.026205765 -0.06866068 0.042873885 0.035536893 0.03750446 0.09718883 0.00738273 -0.05001265
-0.017401576 0.01763942 -0.02090028 0.06679325 -0.0366575 0.03744273 0.098714605 -0.040494572
0.061452083 0.024266819 -0.0048700296 0.040070076 0.0071517495 -0.00084241043 0.026548197 -0.04000776
-0.0016373043 -0.017608214 0.025855536 0.08041493 -0.022414608 0.03044957 -0.1504927 0.025651218
0.07654931 0.06747658 0.015276729 0.07347566 0.04174929 0.017700696 -0.07289875 0.02322832
-0.046516076 -0.13249385 0.07131559 -0.05757732 0.03618484 -0.053860378 -0.11086885 -0.0076328265
0.008931398 0.0024257887 -0.041899517 0.056784164 -0.062164497 0.077991836 0.07843957 -0.020033592
-0.04128162 0.05432127 0.015542819 0.023677787 -0.07930153 0.009958218 -0.03785121 0.046208914
0.08325514 -0.035628747 -0.0625741 0.054006286 -0.05534104 0.04145742 -0.08875325 -0.071681365
0.06672966 0.06207131 -0.004843819 -0.0613889 -0.026698543 -0.004163415 0.04255168 0.02460721
0.04281928 0.113826744 -0.038770173 0.04171129 0.09618407 -0.014967366 -0.049618766 0.000575859
-0.018725876 0.08631806 0.033561982 -0.11786893 -0.100541376 0.0017375302 0.019481435 -0.055363737
0.060251914 -0.018052835 0.014955073 -0.059699275 -0.022545373 -0.094394706 -0.08700501 0.03199177
0.035178874 0.017023956 0.025832495 0.08191268 0.018456906 -0.018381944 0.1186943 0.05575805
-0.029187968 0.058784954 -0.019884083 0.039183073 -0.028281184 -0.029178089 -0.004017339 0.0059978105
-0.031683926 -0.047881648 0.061448596 -0.009358375 0.027062647 -0.013334765 0.051076286 -0.015296578
0.07568726 -0.025280107 0.028966798 0.01593452 -0.0037583895 0.053887136 0.07974436 0.10357603
-0.03043808 -0.031642593 0.03200428 0.01809162 0.01858352 0.059260678 0.046147984 -0.054489136
0.0474551 -0.003740909 -0.03953008 -0.061845083 -0.0742766 0.06551308 0.058728766 0.00053629535
-0.01173901 -0.007906424 0.0671468 0.032799874 -0.044365603 -0.06652183 -0.07152772 -0.019895583
-0.020797038 -0.058575932 0.10592134 -0.095788896 -0.006270994 0.012393096 0.00024917768 0.030530589
0.00092125096 0.028652487 -0.035799216 -0.0012614107 -0.036874045 -0.051061396 -0.02520289 0.03830252
0.039215557 -0.0331781 -0.0048745773 0.0007712936 0.02352585 -0.10143444 0.14094539 -0.07115277
0.0033801093 -0.0327101 -0.07349454 0.05675957 -0.023545528 -0.050431896 0.05006652 -0.040738802
-0.031298924 -0.041902408 0.009912595 0.030948345 -0.0026239997 -0.033395745 0.055697087 0.07516336
-0.0028292646 -0.0030004547 -0.07223285 -0.036724657 -0.170228 -0.0420253 0.024199147 0.014119642
